trained_models/LP_2_600_epoch300.pt (torch_old, 192257 bytes, 11 tensors)

relational_model.layers.0.weight f4 [150, 7]
00000000: 947c 9cbe 9b06 4d3e 4949 7bbd b6a3 a0ba
00000010: df01 b23e f86f b53e 57af 5cbe a3f4 943d
00000020: ede1 9e3e e1e8 093e 1c03 83bc 66e7 2bbe
00000030: b49f b4bd 4895 153d 46a3 053d 4e2d ed3e
00000040: f2b4 80be 01df 253d 583e 82be 75d3 6d3e
00000050: 3c7a a4be afa4 0a3e 0f48 913e 07e6 d03d
00000060: 7338 853e 7525 95be 3331 50bc 9635 29be
00000070: 6d7b 7c3e 4f3a 1ebe f669 4abd 3247 90be
00000080: 905d a6be 3d61 c8be b838 33bd c28c d3be
00000090: be31 a93c 93ca 7d3e bc6c 1b3e d06d 333e
000000a0: 75fc 12bd 2320 a13e 0c64 753e c88e 74be
000000b0: 79ff 54be 6eee 8abe 5dd0 2dbe ad4f ad3e
000000c0: 00ff e8ba 1fbe ff3d cb79 5b3e 0548 a9be
000000d0: bfd4 c9bd 0ce4 a8be 66d7 bcbd ecbc b53d
000000e0: c836 693e 7d8b 4c3d 6d4d 39be 7a3e 73be
000000f0: da3a 01bf 44ca 82bb 0f45 ba3e 5145 a93e
00000100: 946d d7bd bc09 293e 7f29 36be d5f9 133e
00000110: 1d26 06be 9cb1 a33d 97a1 d2be 53f3 31bf
00000120: 5540 49bd 8df9 78be 0b05 943e 7e2e 633d
00000130: 1a77 373e 67c1 e1be 16d4 b5be 9413 10be
00000140: f49b 9dbe 4b78 35bd d1c5 8e3e 015a 8bbe
00000150: 87ab 17be ffa0 d73e 00e9 9cbe 7ce1 68be
00000160: 99f7 29be a48a 893e 7883 07bd 8788 9c3e
00000170: fabe 703e 43f3 a83e 22d9 ae3e f5c3 2b3e
00000180: 2475 5fbe 4938 aa3e 1a6c f0be ca0d 5abe
00000190: 9e18 bd3e 2acd 793e acb7 393e 1954 b2bd
000001a0: e6db 723e 4143 943d 4a9b e13d a12a 2d3e
000001b0: a249 2cbe a52f a5be 81c1 ca3d 8893 d1bd
000001c0: 4a61 81be f02c 893e 8ac5 a93e 27f2 31be
000001d0: e488 b53e fdda 00be 9ec9 0e3e 9f84 5dbe
000001e0: 3aeb 863d 150a 19be 3a73 6fbe 8199 3bbe
000001f0: bfd9 253e cff8 a83e 5781 8f3c fb8e 583e
00000200: c5ac f5bc 78c6 21bc 7fb7 983e e2c2 d9bd
00000210: 5864 b2bd b9b0 d53e c1e9 ee3c 77e5 1f3e
00000220: 708f baba f0d4 af3e ae97 dcbe c690 4a3e
00000230: af34 55be 3795 52be ab81 9ebe c0e6 0ebd
00000240: 6fb6 3f3c 89b0 833e 5d74 a6be 2a3b 89be
00000250: e518 ba3c f925 a93d 6937 343e f0e6 853e
00000260: cee8 bebe ce52 593e 31a6 4c3e 3e47 12be
00000270: 184c 903e 5a98 193e 427d d03d 481b ba3e
00000280: 0b85 a6be 6f61 ba3e 5c09 843e b121 f83d
00000290: 153b 353e 6326 86be f307 2fbe b8b6 90be
000002a0: b09f 3dbe 54f9 673e 01c6 003e 3da6 cabe
000002b0: a6da 90bd 50e9 2dbd 6b0a a23e adea e1be
000002c0: 9255 5cbe ea07 d63e 74e3 9dbe 9a42 54be
000002d0: 63eb 023e a7d3 813e 6210 49be 9c62 0bbe
000002e0: 4b0c cc3e d76a 99be b217 c7bd 9ceb 043e
000002f0: da4d 2a3e 69e7 383e c0be 02be cce2 d6bd
00000300: c98a babc fe1e 883e 41a5 8cbe 84d1 b4bd
00000310: 4596 aabe ed42 bb3d 937a dabd 59d9 8d3e
00000320: e151 91be 8986 a73d 835b 0fbe 7b30 62be
00000330: 48ad b5be d56c dc3e 6358 33bd 6d71 da3c
00000340: 463d 023e af79 5cbe ad7c 073d efae 32be
00000350: a954 61bc bf31 88bc ac75 50be 9579 9fbd
00000360: db5e 9fbe ced7 5b3e 9af8 90bd 88dc 9d3b
00000370: 111a 69bc 7deb 91be 56b2 8bbc 34cc e2bd
00000380: 9170 203e 7620 0dbd c7b9 a8bb 7c08 a13e
00000390: 26d0 0f3e 8a85 aebe 0670 bdbe 584f d83e
000003a0: 4b72 8e3d 8f40 f03e 0c53 88be bd9f c2be
000003b0: fc18 863e 06e5 4abe 3f58 603d cbe1 da3c
000003c0: e315 383d f3c5 923e a774 8bbd 7824 3cbe
000003d0: f2e4 513e 1224 293e 4ac5 a53e d43a cf3e
000003e0: ce0e 39be 7509 efbe 6044 a13e 9ad6 66be
000003f0: f73f 54be 5c03 6e3e a6d1 a5be e65e d4bd
-0.30563796 0.20022051 -0.061349187 -0.0012255821 0.34767053 0.35436988 -0.21551262 0.07273223
0.31031743 0.13467743 -0.015992694 -0.1678749 -0.088195235 0.03651932 0.032626413 0.46323627
-0.2513805 0.040495876 -0.2543819 0.23225196 -0.32124507 0.13539384 0.2837529 0.10200124
0.2601963 -0.2913014 -0.0127070425 -0.16524348 0.24656458 -0.1545193 -0.04941746 -0.28179318
-0.32493258 -0.39136687 -0.043755263 -0.41318327 0.020653602 0.24784307 0.15178198 0.17522359
-0.035885293 0.3146983 0.23963946 -0.23882592 -0.2080058 -0.27135032 -0.16974016 0.3384985
-0.0017776191 0.124874346 0.21433179 -0.3306276 -0.09855031 -0.32986486 -0.092207715 0.088739246
0.22774804 0.049937714 -0.18095942 -0.23754302 -0.50480425 -0.003991397 0.36380813 0.33060697
-0.10518947 0.1650762 -0.17789267 0.14450772 -0.13100477 0.07992861 -0.41138908 -0.6951191
-0.049133617 -0.24313946 0.28910097 0.05546426 0.17916527 -0.44092867 -0.3551337 -0.14069968
-0.30783045 -0.044304173 0.27885297 -0.27217105 -0.14811526 0.42115018 -0.30646515 -0.22742265
-0.16598357 0.26863587 -0.033084363 0.30572912 0.23510352 0.32998094 0.34150034 0.1677397
-0.2182203 0.33246067 -0.46957475 -0.21294323 0.36932844 0.2439467 0.18136472 -0.087074466
0.23716697 0.0723939 0.11015947 0.16910793 -0.16824964 -0.32262912 0.09900189 -0.102332175
-0.25269538 0.26792097 0.33158523 -0.1737753 0.35456002 -0.12583537 0.13944098 -0.21632622
0.06587835 -0.14945252 -0.23383799 -0.18320276 0.16196345 0.33002326 0.017517729 0.21148293
-0.02998961 -0.009873979 0.29827496 -0.10632874 -0.08710545 0.4173639 0.029164197 0.15614878
-0.0014233422 0.34342146 -0.43084472 0.19781789 -0.20820878 -0.20564733 -0.30958304 -0.03488803
0.01170121 0.25720623 -0.32510653 -0.2680295 0.022716949 0.08259196 0.17599262 0.26152754
-0.3728699 0.21222994 0.19985272 -0.14284989 0.28183055 0.14999524 0.10180141 0.3634894
-0.3252338 0.3640246 0.2578839 0.12115801 0.1769832 -0.26201162 -0.17092876 -0.28264403
-0.18517947 0.22653705 0.12575532 -0.39579955 -0.07072954 -0.042458832 0.31648573 -0.44124356
-0.21517017 0.41802913 -0.30837595 -0.20728531 0.12785105 0.2535679 -0.19635156 -0.13611835
0.3985313 -0.29964325 -0.097213164 0.12980503 0.1663126 0.18057026 -0.12768078 -0.10492477
-0.022771256 0.26586145 -0.2746983 -0.088290244 -0.33317772 0.091436245 -0.106679104 0.27704886
-0.2838278 0.081799574 -0.13999753 -0.22088806 -0.35483766 0.43051782 -0.043785464 0.026665414
0.12718686 -0.21530794 0.033077884 -0.17449544 -0.013753095 -0.016625283 -0.20357388 -0.07786862
-0.31127056 0.21469042 -0.07078667 0.004817549 -0.014227406 -0.28499976 -0.01705281 -0.11074105
0.1566794 -0.034454785 -0.0051490995 0.31451786 0.14044246 -0.34086257 -0.3699953 0.42248034
0.069553934 0.46924254 -0.2662586 -0.38012496 0.26190937 -0.19813928 0.054771658 0.026718995
0.044942748 0.28666648 -0.06809359 -0.18373287 0.20497492 0.16517666 0.32377082 0.4047457
-0.18072054 -0.46686903 0.31497478 -0.22542801 -0.20727526 0.23243469 -0.32386512 -0.10369663

relational_model.layers.0.bias f4 [150]
00000000: a167 e33d 7f21 253e 556a 85be 059e 7e3e
00000010: a228 4e3e fb42 9b3d 2d7b 8a3e 21fc 533e
00000020: 974c a03e 9e9f a93d 84d3 51be 23bb b3be
00000030: a938 8ebe c944 3fbd 6739 a4be 41ce ad3e
00000040: 0a40 d0bd 9324 8b3e d5fb 75be 91ee 8abe
00000050: 29ba 163e bfeb a4be b07a d83d 5669 823e
00000060: 3206 a13e 09f0 55be 80de 2f3d b5f5 90be
00000070: 8e0d 553e 81a6 913d ca93 7b3e 002b aa3e
00000080: 9ca7 a4be 16a5 abbd d614 373e 5a42 40be
00000090: 2550 96bd 07a5 313e 65d6 99be e965 86be
000000a0: d873 013d 0ec9 ca3d 2388 373e 074b a43d
000000b0: 6e37 c2bd 1d10 a03e 1c65 65be 931a 38be
000000c0: 6c27 28be 6225 a63e 3c28 34be eff3 69be
000000d0: 1469 afbe 5538 e73e 50ad ed3d d4c3 8cbe
000000e0: d85a b338 203a aa3d faaf 17be 8ee7 07bc
000000f0: 28b0 acb9 060f c4bd 1d3e 0dbe 870c babe
00000100: 2037 063e ffc3 323e f1f2 dfbe 29da b3bd
00000110: cea5 423e b005 853e 2587 32be abce 21be
00000120: 3a6c cebe d6fa 62be 8f1d b6be b8cb 573d
00000130: e51a 72be 5839 aabd 7b95 84be 96a1 183d
00000140: 2722 303e 32eb 23be f8be 6b3d c8f7 193e
00000150: f929 c13d 552d 643e cf8a d1be f88d 09be
00000160: 38b7 ebbd c4ff 23be 73eb 9ebe 3b5b 343e
00000170: f23e 143e 0b79 263e 3488 3dbe b883 83bd
00000180: 6bd4 84be 7860 05bf b96a 0d3e 2165 d7be
00000190: fdbb 05bd 717c 7dbd 28ea 3dbe 694d 1ebf
000001a0: 39a2 e5bd cbd7 983e 37c5 b8be 7c97 b03e
000001b0: 2c3f 123d a3a9 c2be 211c 69be 0fc4 ae3e
000001c0: d5cd 49be f986 7ebd d9cd 78bd 8711 07be
000001d0: 2cf2 893e 6bbf 4fbe 8c71 43be b15f 0dbe
000001e0: fbd3 90be 60ee 8fbe 3ee7 92be 10a6 3cbe
000001f0: 1768 7a3d bc72 0d3d b770 93be 52ed 8abe
00000200: 4fd7 84be f78b 65be ab6f 0a3e fc24 aabc
00000210: fa28 2bbe fcb3 c2be 1dd3 08be f955 9e3d
00000220: ddae d03c a143 de3d 025e e33e 35c8 9bbd
00000230: 4313 d0be 8f0b 773e 0d03 38be 174d 843e
00000240: 6496 67be cc4c c03d b181 333e 3f23 f2bd
00000250: c50b c8be 99af 9f3e
0.1110375 0.16126059 -0.26057687 0.24864967 0.20132688 0.07581135 0.270471 0.20701648
0.31308433 0.08282398 -0.20490843 -0.3510371 -0.27777603 -0.046696458 -0.32075045 0.33946422
-0.101684645 0.2717634 -0.24021848 -0.27135137 0.14719452 -0.3221111 0.10570276 0.2547099
0.3145004 -0.20892347 0.042936802 -0.2831246 0.20805952 0.07111836 0.24568096 0.3323593
-0.32159126 -0.08381097 0.17879042 -0.18775311 -0.07339505 0.17348109 -0.30046383 -0.26249626
0.031604618 0.099016294 0.17923026 0.08022123 -0.094832286 0.31262293 -0.22401851 -0.17978887
-0.16421288 0.32450396 -0.17593473 -0.2284696 -0.34259856 0.45160165 0.11605322 -0.27493155
8.552306e-05 0.08311868 -0.14813223 -0.008294953 -0.00032937643 -0.09573178 -0.13793226 -0.36337683
0.13106966 0.17457579 -0.43740037 -0.08781845 0.19008562 0.25980902 -0.17434366 -0.15801494
-0.40316945 -0.22165999 -0.35569426 0.052684516 -0.23643072 -0.08311719 -0.25895295 0.037263475
0.17200528 -0.16007689 0.05755517 0.15035927 0.09431834 0.22282918 -0.40926215 -0.13433063
-0.115095556 -0.16015536 -0.31039008 0.17612927 0.14477137 0.16257112 -0.18508989 -0.06421608
-0.25943312 -0.52100325 0.13810243 -0.42069343 -0.032649983 -0.061886255 -0.18546355 -0.6183687
-0.11212582 0.29852137 -0.36087963 0.34490573 0.035704777 -0.38020048 -0.22764637 0.34133956
-0.19707425 -0.06214044 -0.060743187 -0.1319028 0.26942575 -0.20287864 -0.19086283 -0.13806035
-0.28286728 -0.28111553 -0.2869205 -0.18422723 0.061134424 0.034533247 -0.28796932 -0.27134186
-0.25945517 -0.22416674 0.1351916 -0.020769589 -0.1671485 -0.38027942 -0.13361783 0.07731242
0.025474006 0.10852743 0.4440766 -0.07606546 -0.40639696 0.24125503 -0.17969914 0.25840065
-0.22615963 0.09389648 0.17529942 -0.11823129 -0.3907148 0.31188658

relational_model.layers.2.weight f4 [150, 150]
00000000: 4210 9a3d ee3a 03be 6c98 96bd 7aa2 c2bb
00000010: a7a0 0e3e 4536 0e3c 88d7 e3bd d9b4 73bd
00000020: e9f9 0d3d b96b 91bd 97ee 5d3e 26ef f4bd
00000030: cfed 8cbe 2e55 b1bc 0d06 fc3c bb08 b3bd
00000040: 30c0 903c ba92 cc3d d9db cdbc 4a94 a8bd
00000050: d435 d43d e71e 9dbb 598a 293e 9f55 dbbd
00000060: 2b9c 383d 8e4b 363d a641 393c a49a 9ebd
00000070: 97f7 853c 0392 6f3c c30d 29bc 42dc 133d
00000080: e6c2 54bd 9efb 103e c2ac 82bd 2716 2abd
00000090: d30f 23bd 16b3 04be 9600 08bc 3121 f23d
000000a0: 676b 77bd 75c0 dbbd 1ac7 e7bb 94f5 a5bd
000000b0: e089 c73c 06fd b5bd e473 5c3e ef2a 8f3e
000000c0: c55a 8abb 582f b1bc b381 ad3a 9e31 6bbc
000000d0: 671d 19be c9cb 36bc c4af 513a 4eb3 013d
000000e0: 18a3 e53d 1c96 94bc 87bf 09bc b414 c43a
000000f0: 24d3 853b 92fd c03e 0a36 02be 65b4 5c3e
00000100: bd0d 3d3d 2a90 5dbc 9f8a 8d3e 4315 5cbd
00000110: 48c7 313d c234 dcbc ac96 2a3c adc2 0f3d
00000120: c7d8 903d 1441 d5be ec47 593d d12a 253a
00000130: 23d1 98bd 77b0 b2be 68fc 0ebd e1c2 a0bd
00000140: 5d06 eb3c 8d23 17be 5f6d 18be 629a c73b
00000150: 628b 9ebd 2ff5 ebbd c0c5 90be 5760 9abd
00000160: 628e 413f 66e3 20bc f749 59bd 3833 ec39
00000170: adfc 923d 280c 253e 7c41 d63d cd6a 27be
00000180: bcec 673e 2955 683e dcb9 97bc 6298 b43d
00000190: 3e52 973d cb11 533e 6d92 c4bd 13db a93e
000001a0: cc6a 9abd 7221 0bbc e7c8 913d 8322 e3bd
000001b0: 4424 653d afd4 4c3d 6e52 8dbb 4d97 923c
000001c0: 9063 513d 9e11 6cbe d0ad 29be d607 ca3d
000001d0: ac22 723d 66fc b03d c9d4 fc3d caad d3be
000001e0: 7a58 063c 9015 e83d 0afc 353d fb36 4cbd
000001f0: 13dc febd f5d9 9f3d 405b fbbd 2bd2 ce3c
00000200: 9fef 6dbd 883f 793d 0ebd b23d 0864 b0bb
00000210: f9bc 913d a2b4 d2bc d780 02bd ab60 c5bd
00000220: 9026 1dbd f615 ca3e 8f90 e5bc b4be 09bf
00000230: f34b 42bc bd8b 913b 90a4 23bd 5f60 27be
00000240: 2a5e c4be d5fa 653d 3871 2bbe 110a 9cbd
00000250: 9301 ba3d 12de 133d d0cf 523d 3009 e8bd
00000260: 8df9 a33e 558a 26bd 20b8 513d 77d0 793c
00000270: e1f3 08be 412c 023d 3c61 62bd 0114 32bd
00000280: 2a11 b0bd ba28 0bbd 3725 2c3e e1dc 033d
00000290: 8c77 1ebe 0158 3abd 419e 883d edbd 55bd
000002a0: 1b92 4a3d f38d 2c3d 4c55 293d 5dbf 0f3d
000002b0: 4c02 473e 550d 08be 9f51 46bd b0bf 9d3c
000002c0: 9868 873d 6fe7 bb3d 598e a73b a470 d7bd
000002d0: 3bab 083d 77ec 4bbc 8eff b73d 4765 2cbe
000002e0: 9315 9bbd 2296 d5bd fa8b 113d ee2d b23c
000002f0: 1e1d 7b3d f451 b83d b069 64bd 180b 96bd
00000300: cde9 cc3d 12cf 22bc d783 b5bd 4e19 17bd
00000310: 36b8 243d ae18 b93d efac b53d a715 23be
00000320: 9cba 0c3d f7a1 c1bd 0a2a d43d b98a fcbc
00000330: cdb1 d83c 5cc2 6d3d 47a7 15bd 8f58 52be
00000340: e958 eabc 57f7 6e3d 9874 dd3b 711d 0e3e
00000350: c395 9dbe f1f5 08bd a76f ee3c 13ba 41bd
00000360: 9d6c 6dbe 072c 65bd 7c61 50bc 54d9 0ebc
00000370: e1d3 0bbd adba bb3c f5f8 8e3d d8c2 34be
00000380: 76fd dbbd af66 43bd 0864 263a 495d 80be
00000390: 9bd2 2cbd e38b aa3c fbe3 2b3c b202 b13d
000003a0: 02b7 8cbd 6fdb fabc d286 663d b009 703d
000003b0: 86af 983e 822a a73d f0dd 153f 2f88 c73d
000003c0: 6166 79bd de41 54bd 28e4 233b 1691 ad3e
000003d0: effa dc3d af08 a7be 25a4 393d 0a7f b4be
000003e0: 4e00 4fbd 3ae9 20bc f13f 8b3d e0a7 493d
000003f0: b5e5 c2bd bab4 aa3c 3fd8 4fbe 13b9 623d
0.07522632 -0.12815449 -0.07353291 -0.005939779 0.13928472 0.008679931 -0.11125094 -0.05949864
0.03466216 -0.071006246 0.21673046 -0.119596764 -0.27525184 -0.021647062 0.030764604 -0.087418996
0.017669767 0.09988923 -0.025129246 -0.08231409 0.103618294 -0.0047949436 0.16556682 -0.1070969
0.04507081 0.04450565 0.011307156 -0.07744339 0.016353412 0.014622214 -0.010318222 0.036098726
-0.051943682 0.14158484 -0.06380607 -0.041525032 -0.039810013 -0.12958941 -0.008300921 0.11822737
-0.06040516 -0.10730068 -0.0070732953 -0.08103481 0.024357736 -0.08886151 0.21528584 0.27962443
-0.0042222464 -0.02162902 0.0013237506 -0.014355091 -0.14952622 -0.011156985 0.00079989084 0.03166514
0.11212748 -0.018137984 -0.00840748 0.0014959783 0.004084008 0.3769346 -0.12715927 0.2155319
0.04615568 -0.013523141 0.27644822 -0.053731214 0.04340294 -0.026880626 0.0104119 0.035097767
0.07072597 -0.41651213 0.053047106 0.00063006306 -0.07461765 -0.34900257 -0.034908682 -0.0784967
0.028689558 -0.14759655 -0.14885472 0.006091402 -0.07741429 -0.115213744 -0.2827587 -0.075379066
0.75607884 -0.009819841 -0.053049054 0.0004505159 0.071771 0.16117918 0.10461709 -0.16349335
0.22648901 0.22688736 -0.018521242 0.08818127 0.07388733 0.20612256 -0.09598241 0.33174953
-0.07539901 -0.008491861 0.07118397 -0.11090567 0.05594279 0.05000752 -0.004312805 0.017894411
0.05112034 -0.23053595 -0.1657021 0.09864776 0.059115097 0.08641891 0.12345273 -0.41343528
0.008199805 0.11332238 0.044429816 -0.04985712 -0.124443196 0.07805244 -0.12273264 0.0252467
-0.05808985 0.060851604 0.087274656 -0.0053830184 0.07116122 -0.025720898 -0.031861152 -0.096375786
-0.038366854 0.3946988 -0.028023032 -0.53806615 -0.011858928 0.004441707 -0.03995186 -0.16345356
-0.3835309 0.056147415 -0.16742408 -0.076191075 0.090823315 0.036100455 0.051467717 -0.113298774
0.3202633 -0.040659267 0.051200986 0.015247456 -0.13374282 0.031780485 -0.05526851 -0.04347611
-0.08597024 -0.033974387 0.16811071 0.03219307 -0.15475291 -0.045494083 0.066708095 -0.05218308
0.049455743 0.04212756 0.04134111 0.035094608 0.1943447 -0.13286336 -0.048417684 0.019256443
0.066117465 0.09175002 0.0051134047 -0.10519531 0.033366423 -0.012446514 0.0898429 -0.16835509
-0.07572474 -0.10429026 0.035533883 0.021750417 0.061307065 0.09000006 -0.055764854 -0.07326335
0.100055315 -0.009937065 -0.08863037 -0.036889367 0.04021474 0.090379104 0.08870875 -0.15926228
0.034357652 -0.094547205 0.10359581 -0.030827867 0.02645197 0.058046684 -0.03653648 -0.20541595
-0.028606849 0.05834135 0.006758284 0.13878419 -0.30778322 -0.033437673 0.029105974 -0.047296595
-0.23185964 -0.05595019 -0.012718555 -0.008718807 -0.03413761 0.022916162 0.069810785 -0.17652452
-0.10741703 -0.04770535 0.0006347303 -0.2507117 -0.042193037 0.020818656 0.0104913665 0.08643092
-0.068708435 -0.030622212 0.05628092 0.05860299 0.29821414 0.081624046 0.58541775 0.09742772
-0.06088865 -0.05182063 0.0025007818 0.33899754 0.10790049 -0.32623813 0.045322556 -0.35253173
-0.0505374 -0.009821231 0.06799305 0.049232364 -0.095164694 0.02083813 -0.20297335 0.05535228

relational_model.layers.2.bias f4 [150]
00000000: 18e0 f4bc 90bd b5bd f6f9 2dbd 9488 fb3d
00000010: 70da 7d3c d279 c43c 277b 9e3c b809 a5bd
00000020: 3bb1 063d fd9a 2fbd c119 df3d 6a72 ddbb
00000030: 871d a8bd 46b8 9bbd ba01 7b3d d86d 77bd
00000040: 9950 c83d d32c afbd 2e9a 573b d3ea b23d
00000050: c6c3 a83d c81d 293d 424c de3d 0523 cabd
00000060: e172 f83b a125 c8ba 8477 92bd 00f9 4abc
00000070: f02c 74bd 078b 003d adf0 9bbd 3c76 003d
00000080: 2f96 f7bd adb6 46bd 72f2 3c3d 6177 d93d
00000090: 2921 c83c 236e 61bc dfd2 42bd 8797 e13d
000000a0: d923 6d3d 4d7d e93d 26c4 c53c 5689 a9bd
000000b0: b967 b6bd 2538 97bd 28bb 80bd b5d9 823d
000000c0: 44d5 9abd eb89 493d 0a8a b4bd fdb0 833d
000000d0: a32c 173d 8275 d23d d171 22bd 1bcd 47bd
000000e0: 0c86 79bc 5a16 893d c85d 9cbd 0d95 01bd
000000f0: 439f 233d 2d8b e2bc a24b 113d 6d45 52bd
00000100: 3681 30bc f5ce 1e3c 0014 29bd bfab a5bd
00000110: 40af 263d 0820 9ebd 239e 0abe d8aa 91bd
00000120: 6525 f83d 56d7 53bd 9683 213d aaff 47bd
00000130: e763 43bd 7fb8 b8bd eec8 343d df6e 1e3d
00000140: 2476 b33d b4aa 083e 852f 97bd e887 113d
00000150: 1fc2 52bc 9217 23bd e74f 4dbc f2b9 b93c
00000160: 08d2 86bd d2e4 b23d cd3c 943d d350 2c3d
00000170: 40d0 00bd a8f9 af3d 701c 07bb 0049 61bc
00000180: 3840 fa3c 0ec0 9fbc 466d 863d a81e b4bd
00000190: 43f0 c03d 3696 583d de2d 653d a97d 2cbd
000001a0: 334a 83bd 32df 5fbd 4c47 3c3c 7595 93bd
000001b0: 2578 773d 7c1b b73d be48 d6bd 40bf be3d
000001c0: a166 c43d 8dad 303d 334d 95bd d1f4 a8bc
000001d0: 2051 5abd 46c3 fb3b 4d4f 703c a366 2e3e
000001e0: d7c0 82bd 91d5 eb3c 5794 5fbd 8dd4 42bc
000001f0: 1ac9 b63d 33f7 133d a086 c9bd 244c 853d
00000200: 96aa 0f3d f10d 6a3d 29a2 93bc 7275 84bd
00000210: 719d c93d 285d 9dbd ba3f 1c3d 82b8 bd3d
00000220: 3f23 28bb a003 d7bc ca3b 3cbd 828c 463d
00000230: fe3e 2a3c 114c 3d3d 7fdc 58bb b73c b8bc
00000240: 48e7 983d 3ee0 913d efd4 7f3d 3e55 e83c
00000250: badb 9fbd 084a 02bd
-0.029892012 -0.08874047 -0.04247471 0.122819096 0.015493974 0.02398387 0.019345833 -0.08058494
0.032883864 -0.042872418 0.10893584 -0.006758024 -0.08208757 -0.07603507 0.061280943 -0.06040749
0.09780998 -0.085534714 0.0032898295 0.087361954 0.08240466 0.041288167 0.10854389 -0.09869961
0.007582054 -0.0015270003 -0.07151702 -0.012388468 -0.05961317 0.031382587 -0.07614265 0.031362757
-0.12089192 -0.048514057 0.04612965 0.10618473 0.024429874 -0.013759169 -0.047564384 0.1101523
0.057895515 0.11400852 0.024141382 -0.08278148 -0.08906502 -0.073837556 -0.06285697 0.063891806
-0.075602084 0.049203794 -0.08815391 0.06430242 0.036907803 0.10276319 -0.039659325 -0.04877959
-0.015229713 0.06693716 -0.07635075 -0.031636287 0.039946806 -0.027654255 0.03547252 -0.05133574
-0.010772994 0.009692897 -0.04127884 -0.080893986 0.040694475 -0.07720953 -0.13536887 -0.07112664
0.121165074 -0.051719032 0.03943213 -0.048827805 -0.047702696 -0.09019565 0.044136934 0.038679954
0.08762768 0.13346368 -0.073821105 0.03553 -0.012863665 -0.0398174 -0.012531257 0.022671673
-0.06583029 0.0873505 0.07238159 0.042069267 -0.031448603 0.0859254 -0.0020616315 -0.013750315
0.0305482 -0.019500758 0.06563811 -0.0879491 0.09420826 0.052877627 0.055951945 -0.042112026
-0.06410637 -0.054656215 0.011491608 -0.07206241 0.060417313 0.08940789 -0.10463093 0.09313822
0.095898874 0.04313426 -0.07290115 -0.02062455 -0.053300023 0.0076831905 0.014667344 0.1703134
-0.063844375 0.02878836 -0.054584827 -0.011891496 0.08925076 0.03612442 -0.09840131 0.06508663
0.035074793 0.0571422 -0.01802166 -0.064677134 0.09844483 -0.07683784 0.038146712 0.09263708
-0.0025655774 -0.026246846 -0.045955457 0.048473842 0.010390995 0.04621512 -0.003309041 -0.022489889
0.074659884 0.07122849 0.06245893 0.02836096 -0.078055814 -0.031808883

relational_model.layers.4.weight f4 [150, 150]
00000000: 4f31 ca3a a45d cabd 1316 7ebd 5838 aabc
00000010: 38f3 1b3d 646c 84bd a844 c33b dae1 08bd
00000020: 14c4 7f3d 3f64 64bb f95f 9d39 2426 8e3d
00000030: 6e0f 0b3d def7 57bc a91b ba3c f76a 7d3c
00000040: d2e7 10bd ccfc 823c 7d61 febc 07a7 80bd
00000050: 5d64 b1bd 3a44 6dbd 9af1 93bd 4b51 293d
00000060: 6f19 0d3c 30f4 4dbd 4967 54bd b964 853d
00000070: acb3 8cbd fbd4 93bc 0070 d53a a073 e83c
00000080: ef87 35bd bedd 51bd f065 6b3d 32d8 80bd
00000090: b73d 84bd 28d6 743d 9493 3f3d 0f70 85bd
000000a0: 9839 ecbc 7ec5 63bd 653b 97bd b8e0 5dbd
000000b0: a274 c93c 81d7 edbc 490b 8dbd 8097 2abc
000000c0: 5ff2 9ebd 6c24 753d 1030 423d 9cd9 103d
000000d0: 707f 9c3d a490 4d3d 1e9d a93d 844d 093d
000000e0: b94d 653c b114 afbd ba71 a03d db9e 7a3d
000000f0: 7594 9fbd c89e a63d dcaa 9fbd 8148 e6bc
00000100: e81f 12bd 59f7 3b3d f864 6a3d 50c9 923d
00000110: e31d 053d 9e3b 85bd a5b5 523d b2d8 0e3c
00000120: ec9d 90bd 8f24 62bd 37a3 58bd 96ea 063d
00000130: 526a 5c3c 2aa4 b7bc e83f 1d3c 0014 85bd
00000140: 7fbd ea3c cb33 293d a720 26bc 20f6 d13c
00000150: 3431 01bd 6c3f 7a3d c6ec 67bd 901e 90bd
00000160: 9681 98bd 3150 19bb bcc7 1f3c 4683 863d
00000170: 8dad 623c b974 9f3d d728 82bd f7ae 233d
00000180: 70f1 163d d6f5 4fbd c4eb 383c b16b 69bd
00000190: f773 8b3a 90c8 833d 67dc 433d 93af 5bbd
000001a0: 95c5 9e3c 38ba d9bc 85fd 97bd 552a 063d
000001b0: 9fec 32bd 1967 973d 1e78 a9bd 2506 603c
000001c0: 19a7 babc 9a3b 4e3d 456b 5bbc 7079 31bd
000001d0: 8a26 9dbd a467 ca3c e5ea 11bd 161d 283d
000001e0: 106a 4e3c 132e 14bd 386f 7d3d bac3 513c
000001f0: c12c 583d 6772 723d c9d2 9cbd 0628 67bd
00000200: 2bc3 85bd bcf0 fd3c ea00 81bd 700a 5fbc
00000210: f8b4 43bd 9feb 80bd 272e 01bd bd35 82bd
00000220: 0093 58bd fbaf 393d e9e5 7639 0dda 63bd
00000230: 73c6 98bd 8ded 13bd abc3 0b3d 91d6 8abd
00000240: 58cd 653d 1251 a0bd 85db 64bd 68f2 823c
00000250: 2b7b 0cbd b821 363d c902 c53d 373a e03c
00000260: c4c6 1f3e ed95 643d 57eb c23e 51b9 7f3c
00000270: ae80 23be ae6c 91bd 0ae4 9c3d a247 e43d
00000280: 6164 32be bdb1 93bd 26c7 ae3d 3f41 843d
00000290: 4db7 cabc 2b44 51bd 3dc9 2dbe e115 4abd
000002a0: 4122 6dbd 57ea 83be b840 44be 0938 7c3c
000002b0: f581 0c3e 7356 e23d 1db1 8d3c d3e1 e03b
000002c0: a475 c13d 4692 b13c 82de e03d 2bf9 56bd
000002d0: e41f 6e3d f624 d13c a0e5 d7bc b3d6 9a3d
000002e0: ae0a 803d 2508 72bd 6ee6 403c 51de dc3b
000002f0: b8f9 2c3d 9239 e4bc 01c3 3e3d 64db 6a3d
00000300: e935 fc3c 711c afbd fb88 bd3c 6b7a c23d
00000310: ec7d 39bd 03cb 66be 1627 d83e add9 13be
00000320: 45e4 793d 9552 88bd 578d 833c 4bdc f0bc
00000330: ad47 27bc d1a3 4c3d fa9f 6d3d e545 72bc
00000340: ae1c 983d a769 e53d 8eef 153b acc9 b8bc
00000350: 9716 41be 52b0 c73c 645d 8aba 2fde a53d
00000360: da3d 2ebd 2642 87bd 8976 103d 8553 883d
00000370: 7957 fd3d 944e 183f 2c2d a13d 2708 2b3c
00000380: f664 3ebe b243 0ebd 1f47 353d d293 8e3d
00000390: 81ea b7bc d35a 223f 9fc0 4d3c f9ce b2bc
000003a0: 9839 e33b 5c85 a23d 7940 a73d f78c d23d
000003b0: 5f50 8dbd 5b16 d0bc 8312 ba3c 74a5 8c3c
000003c0: ee8c 0d3e dc0c 93bd 832e c1bc 805f 6abe
000003d0: 7697 8bbd 89c6 a4bd 4222 6d3d 00f7 d53c
000003e0: 048f 093c 3cc6 603d 9749 2abe aa8b 14bd
000003f0: 0051 2e3e e307 0abd 38f0 ba3d 2d35 3e3d
0.0015426072 -0.09881142 -0.06203277 -0.02077882 0.03807375 -0.06465986 0.005959112 -0.033418514
0.062442854 -0.003484979 0.0003001688 0.069408685 0.03395026 -0.013181655 0.022718268 0.015467397
-0.03537733 0.015989684 -0.031052345 -0.06281858 -0.08661721 -0.057926394 -0.07223816 0.041337293
0.008612021 -0.050281703 -0.051856313 0.06513352 -0.06870207 -0.018045893 0.0016283989 0.028375447
-0.04431909 -0.05123686 0.057470262 -0.06291236 -0.06457084 0.059774548 0.0467716 -0.06515514
-0.028836057 -0.055608265 -0.073843755 -0.054169387 0.024591748 -0.029033424 -0.06886918 -0.010412097
-0.07761072 0.059849188 0.047409117 0.03536378 0.07641494 0.05018677 0.08281921 0.03352119
0.013995581 -0.085488684 0.078341916 0.061186653 -0.07791988 0.08135754 -0.07796261 -0.028110744
-0.03567496 0.045890186 0.057225198 0.071673036 0.032499205 -0.06505512 0.05144276 0.008718656
-0.07061371 -0.055210646 -0.05289003 0.032938562 0.013453083 -0.022417147 0.009597756 -0.06497955
0.028654812 0.04130916 -0.010139621 0.025630057 -0.031541064 0.06109564 -0.05662229 -0.07037079
-0.074465916 -0.0023393745 0.00975221 0.06568007 0.013835323 0.07785935 -0.06355446 0.03996178
0.036851346 -0.050771557 0.01128668 -0.05698747 0.0010639419 0.06434739 0.047817614 -0.053634237
0.019381324 -0.026578054 -0.07421402 0.032755215 -0.04368269 0.07392711 -0.08274864 0.01367334
-0.022784756 0.05034981 -0.013392274 -0.043328702 -0.07673366 0.024707623 -0.035624404 0.041043364
0.012598529 -0.036176752 0.061873645 0.0128030125 0.052777056 0.059191134 -0.076573916 -0.056434654
-0.06531366 0.03099858 -0.062990025 -0.013613328 -0.047780007 -0.06294941 -0.031538155 -0.06357906
-0.052874565 0.045333844 0.00023546036 -0.05562787 -0.07459726 -0.036115218 0.03412215 -0.067792065
0.056104034 -0.07827963 -0.055873413 0.015984729 -0.03429715 0.04446575 0.09619672 0.027371509
0.15603167 0.055807043 0.38070175 0.015608148 -0.15967056 -0.07100807 0.076606825 0.111464754
-0.17421104 -0.07211635 0.08534078 0.06457757 -0.024745608 -0.0510904 -0.16971298 -0.04933727
-0.057893995 -0.25764725 -0.19165313 0.015394219 0.1372145 0.11051645 0.017296368 0.006862858
0.09446266 0.021676194 0.1097994 -0.05248372 0.058135882 0.02553032 -0.02635461 0.07560482
0.06252037 -0.0590898 0.011773689 0.0067403694 0.042230338 -0.027859483 0.04657269 0.057338133
0.030787425 -0.08550347 0.023136606 0.094960056 -0.045286104 -0.2253838 0.4221732 -0.14438505
0.06100871 -0.06656376 0.016058607 -0.029401919 -0.01020996 0.049960915 0.058013894 -0.014787172
0.07427345 0.11201792 0.0022878381 -0.022557102 -0.18856274 0.024376068 -0.0010556397 0.08099019
-0.042539455 -0.06604414 0.035269294 0.06656555 0.123702 0.594949 0.07869944 0.010438955
-0.18593201 -0.034732528 0.04425728 0.06961788 -0.022450687 0.63419837 0.0125581315 -0.021827208
0.006934356 0.079355925 0.08166594 0.10280793 -0.06900095 -0.025401285 0.022713905 0.017168738
0.13823292 -0.07180187 -0.023581749 -0.22887993 -0.06815998 -0.0804568 0.057894 0.026118755
0.008395914 0.05487655 -0.16629635 -0.036266007 0.17023087 -0.033698928 0.09127849 0.04643743

relational_model.layers.4.bias f4 [150]
00000000: 37c6 49bd e9d2 a73d 9b89 be3d b1d9 57bd
00000010: a27a cebd fceb 4c3d 75d1 3bbd 9509 29bd
00000020: 489b 913d 0683 5b3d 179c 42bd 998d 8c3d
00000030: fef8 1dbd d5c8 acbd 3764 b13d 1787 81bd
00000040: 1314 e93d a149 753d 14cc e8bd 0b19 b63d
00000050: 83ec 5e3d 26a7 2a3b 1a6d a9bc 400f 0ebd
00000060: d5f1 f93c 8092 f43c 31d3 e4bd b83c 3cbd
00000070: 5056 823c 59fb 8a3d 8399 dd3c 7c04 c1bd
00000080: bc8f 2cbd 75a0 143c 649d a9bb 2686 823d
00000090: 80a9 46bd 5c39 533d a11d 4f3d 5b14 df3d
000000a0: d691 dd3d f013 4fbb 2cca 99bc 9199 a83c
000000b0: f9d5 ba3c 6562 033b 7914 a0bc 795e eb3d
000000c0: c8a4 fabb a9e8 0cbc 7ff7 09bd 9de9 913d
000000d0: 2ba8 953d 2135 73bd 9da9 bfbd b2d2 063d
000000e0: 9fd9 a63d 7cc5 6e3d 56a2 003e 0192 4dbd
000000f0: 5eac d5bd a9b2 433c 0745 f63d 413a d93d
00000100: b2d0 b0bd 72d3 93bc 12fa 40bc 79dc b1bc
00000110: 63e8 c3bc cc68 163d 5fbd c43d 1c74 873d
00000120: 602d 833d bed2 03bd b2d8 843c ae6c de3c
00000130: b2ad 823d 0be9 313d eee3 5bbe 6dc7 4c3d
00000140: f288 ea3d d4f0 bcbd 1ace df3d 16f5 e73c
00000150: ecc2 a13d 4e8f c5bd ae88 8cbd b4cc 2b3d
00000160: d1b4 c1bd ca74 db3d fcb7 a23d bc37 343d
00000170: 8373 b2bc b873 92bc c3df ea3d 8a2f 473d
00000180: 9b51 bebc 05aa 34bd ce75 383d b876 5cbd
00000190: 2e64 9fbc c3d7 333d 2e0b 013e 6456 313d
000001a0: 90fb c9bc 81bc 753d cbed 0d3d b09e 8dbd
000001b0: f5d3 7b3d 5c97 e43b aa2c 2ebd 301f babd
000001c0: 8cdf 663d 292b c13d 04fe 9ebd cc13 3fbc
000001d0: b2ee 783d e0e0 8ebd 5131 c1bd 9988 833d
000001e0: f0f8 373d 8e92 01bd 2ba9 91bd 2761 8dbd
000001f0: 3984 033c 25d7 f3bc 4ace 8f3d aa50 b8bd
00000200: 675e 293a 3b5f a5bd 5729 96bc f717 83bd
00000210: 345d 48bd ac33 b3bc 15e3 e5bc 03a1 e23d
00000220: 7634 2f3d 29d9 3abe 4efc 1fbd 03b0 29bd
00000230: c2bd 613d 6de3 473d 0b59 9abd 8558 fdbd
00000240: c993 913d 3932 53bc ded1 023e fa7c 8b3d
00000250: 0ff5 1d3d ca82 b1bd
-0.049261298 0.08194525 0.0930359 -0.05269784 -0.10081984 0.05002974 -0.04585405 -0.041268904
0.07109696 0.05359175 -0.04751214 0.06862945 -0.038567536 -0.08436743 0.086616926 -0.063245945
0.11380782 0.05988467 -0.1136705 0.08891495 0.054424774 0.002603957 -0.020681906 -0.034682512
0.030510822 0.029855013 -0.11173094 -0.045956343 0.015910298 0.06786222 0.02705074 -0.094246835
-0.042129263 0.009071459 -0.005176233 0.06373243 -0.04850149 0.051568374 0.050565366 0.108925544
0.108188316 -0.0031597577 -0.01877316 0.020581039 0.022807108 0.0020047661 -0.019541012 0.114926286
-0.007649038 -0.008600392 -0.033683296 0.07124636 0.07307466 -0.05937684 -0.09358523 0.03291578
0.08146977 0.058293805 0.12561926 -0.05018807 -0.10433267 0.011944451 0.12024885 0.10606814
-0.086335555 -0.01804516 -0.011778371 -0.021711575 -0.023914522 0.036721036 0.09606432 0.06613943
0.06405139 -0.0321834 0.01621661 0.027151432 0.06380786 0.043435138 -0.21473667 0.049994875
0.114519015 -0.09225622 0.10927983 0.028315108 0.078985065 -0.09646474 -0.06862007 0.041943267
-0.09458316 0.10715635 0.079452485 0.043998465 -0.021783596 -0.017877445 0.114684604 0.04862932
-0.023232272 -0.044107456 0.045034222 -0.053824157 -0.01945695 0.04390694 0.12601921 0.04329528
-0.024656087 0.059994224 0.034650605 -0.06915033 0.061481435 0.0069760513 -0.042523064 -0.0908798
0.056365535 0.0943206 -0.077632934 -0.011662435 0.060774513 -0.06976485 -0.094332345 0.06422538
0.04491514 -0.031633906 -0.07112344 -0.06903296 0.00802713 -0.029765675 0.070217684 -0.089997604
0.00064609054 -0.080748044 -0.01833026 -0.06401055 -0.04891701 -0.021875225 -0.028062383 0.11065867
0.04277464 -0.18246903 -0.039058976 -0.041427623 0.055112608 0.048800875 -0.07536515 -0.123703994
0.07108266 -0.012890392 0.1277537 0.06810947 0.038563784 -0.08667524

relational_model.layers.6.weight f4 [1, 150]
00000000: 79a4 6bbc 0e39 08be 0456 903e 5d25 2b3d
00000010: f721 5b3e 9d65 7fbf 994a 2cbe af70 473e
00000020: e8d9 cbbe 0ff3 9ebe 8c82 3cbf 489a f53d
00000030: 95fa de3d 0cbe afbc 12f1 49be 0028 2e3d
00000040: f650 a43e 500c 5f3e 36df 7abc 81a3 4abf
00000050: b3b9 873e 4c18 b7be 6f66 6ebf fdff 953d
00000060: 23aa 9b3e 571e 97be b4a3 933c 72ec 40bd
00000070: 7900 e03e e7b3 bdbf 965a e0be 70e9 93bb
00000080: 3aec 8a3c a473 20be 8c27 723e 2262 3d3e
00000090: 4578 42be d503 35be 5aed 583e d98d 983e
000000a0: 8b10 773e b8cb 3ebf a9e8 c5be 2b0b 3ebe
000000b0: 5d84 54be 934d c23a 3b33 bebe cd4b 703e
000000c0: db12 8bbe 283f 183e 8238 96be 226f 0b3f
000000d0: f9b2 663e 1863 1fbf 3cfb ccbd 1fa7 c63e
000000e0: bb54 573e 3c08 203d 60e4 713e 435e 1ebf
000000f0: 7a9a d6ba 1e35 61be 3561 a73e b3d5 f33e
00000100: 3bc2 8c3c 5ebd 09bf dcff 483e 0b66 edbe
00000110: 15d7 673d 943a 2d3e 6997 783e c4ca 3bbe
00000120: 5815 61bc d614 e3be 529b 433e 8358 47bf
00000130: 5874 a53e e231 53bf ca81 f83e 83dc 863e
00000140: 230e 8b3e 028b 50bc 4e78 853e aebe 04bf
00000150: f24a aa3e 58f8 c43c d6c1 74be f672 71be
00000160: 5458 af3d 6652 b33e b717 803e bec9 213e
00000170: 19ff 13bf 8776 babe 5b83 de3e 15a5 2bbe
00000180: 5e35 4a3c 6ad0 45be 8d38 4cbe 6c6e d7bc
00000190: 94d1 5d3e 3ce7 5c3e 0cc0 fa3e fdcd 07bc
000001a0: bc25 51bd 3c67 e6be f0e0 fc3a 19bc e23e
000001b0: 92cc 35be 124c 463e e89d 863e 98bd 50bd
000001c0: d14d 3e3e 367f 423e ea3b 04bf 2c08 edbe
000001d0: 8df1 c63e d3d3 0f3d 030a 343a 5496 0cbf
000001e0: a9c1 923e e920 483e c443 90be e393 7cbc
000001f0: 7bcc 3dbd 8ad3 debe 0e57 ffbe d767 1c3b
00000200: d241 83bd b95d 1d3d 74a8 25bc 2bed 173e
00000210: 8821 1bbf 7eec 76be 58ef 4ebe 6856 e13e
00000220: 0fa0 e1be 7ff9 de3e 5f54 513e 70a0 b83e
00000230: 4f24 463e c476 f7be 680b 833d 0053 7abc
00000240: 0a50 3a3e 6f88 2ebe 1f9e ae3e b2c9 6dbe
00000250: 3bc1 ca3e 34be 82bd
-0.014382475 -0.13303015 0.28190625 0.04178368 0.21399675 -0.99764425 -0.16825332 0.19476579
-0.39814687 -0.31044814 -0.736367 0.119923174 0.108876385 -0.021452926 -0.19720867 0.042518616
0.32093018 0.2178204 -0.015312007 -0.7915574 0.26508865 -0.35760725 -0.9312505 0.073242165
0.30403242 -0.29515335 0.018022396 -0.04710049 0.4375036 -1.4820527 -0.43819112 -0.004513912
0.016958345 -0.15669113 0.23647898 0.18494466 -0.18991192 -0.17677243 0.21184292 0.2979572
0.24127404 -0.745296 -0.38654068 -0.18558948 -0.20753618 0.0014824144 -0.3714846 0.23466416
-0.27162823 0.14867842 -0.29339987 0.5446645 0.2252921 -0.6226058 -0.10008857 0.38799378
0.21028416 0.039070353 0.23622274 -0.6186258 -0.0016372942 -0.21992919 0.3269135 0.47623977
0.01718246 -0.53804576 0.19628853 -0.46366915 0.056601603 0.16916877 0.24276508 -0.18339068
-0.013737999 -0.44351834 0.19102219 -0.77869433 0.32315326 -0.8249799 0.4853652 0.26340112
0.27159223 -0.012728455 0.26068348 -0.51853454 0.33260304 0.0240442 -0.23902068 -0.2357901
0.08561769 0.35023803 0.25018093 0.15799615 -0.57811123 -0.36418554 0.4345959 -0.16762193
0.012341825 -0.19317785 -0.19943447 -0.02629777 0.21661979 0.21572584 0.48974645 -0.0082888575
-0.051061377 -0.45000637 0.0019293111 0.44284132 -0.17753819 0.19364956 0.26292348 -0.05096206
0.18584372 0.1899384 -0.5165392 -0.46295297 0.38856164 0.03511412 0.0006867947 -0.5491688
0.28663376 0.19543804 -0.281767 -0.015416118 -0.046337586 -0.43520766 -0.49871105 0.0023865604
-0.064090386 0.03841946 -0.010110963 0.14836566 -0.6059804 -0.24113652 -0.2020849 0.44011235
-0.44067428 0.43549725 0.20442341 0.36059904 0.19349788 -0.48332798 0.0639866 -0.015278578
0.18194595 -0.17044233 0.34105012 -0.23221472 0.39600548 -0.063839346

object_model.layers.0.weight f4 [100, 4]
00000000: 40df 64bc 1cf0 0ebe c045 fdbd 94f0 99be
00000010: c3b6 533f 2f2d 943a 6686 c13f 8099 a53c
00000020: 1432 16bf cf28 a33e e985 0f3f 533b b23e
00000030: 0819 433e 2f65 513c 8cb4 2740 d699 bebf
00000040: 1db5 b23c 64cf f33d 3f61 99be 7a74 99be
00000050: 0b07 05bf 2c5e 903e 0128 97be 6ee1 93be
00000060: b625 4b3f 7698 013e e42f 813f 3e19 6a3e
00000070: a992 8bbf fdcf c13c 7406 b33e b25a da3d
00000080: d101 d23e c7ba b03e 529a b23e 2614 27bf
00000090: ff4f ec3e 6f1b bc3d 6b8d a6be b151 debe
000000a0: 7e36 cbbf 5df7 a23e e116 7c3d f5bd b73e
000000b0: fc6e 66bf 36ed a2bd 5976 20be 960a 6f3e
000000c0: b7fe 35bf a262 0fbc 3d90 783f d073 d9bc
000000d0: 1928 983e 2b0e c0bd ff10 243f 8baa 92be
000000e0: b50e 21be c18d a83d 5c80 6a3e ff67 993e
000000f0: 6846 c4be 3888 ea3d a0dd 9dbe 2c00 bebe
00000100: 8b77 28bf bf8e 83bd 29bc 4d3f 7af8 67be
00000110: baaa e73e 3445 143e 2975 aa3f 140e 513e
00000120: fb70 a43e a0f8 a23e 1cf4 f73e 3914 163e
00000130: da20 cbbe ff82 28be bc97 183f c917 65be
00000140: a856 3f3e 4dd2 2ebb c44a b4bf 3340 37bb
00000150: 8364 503e 2ebb c6be 8216 1fbf a90c c43e
00000160: 7069 dcbe 80ff 31be 278d 0f3f d2fc e5be
00000170: 68e0 41bf dbb8 b2be e6cc 543f 5495 43bc
00000180: 0ea9 4e3e f668 be3d 4710 803f 11bd c63e
00000190: 4cd6 6c3e 98bd c73e 6b45 bdbe ac8b babd
000001a0: cdcf b3bf f89a a13e a396 0abf 1ed1 30bb
000001b0: 36fc ba3f d00c 68bc dd81 a9bf 4b1b 91bf
000001c0: 15be 533f ac98 cb3d 0f99 aebe 7be8 39bf
000001d0: 19fb 0a3f 8f6b 0abf a7ef 16bf 78a1 c2be
000001e0: 005a 28be c8fe ebbd 9079 763d 765c c6be
000001f0: bc16 03bf 984c 82be 7b5f 143f 4612 11bf
00000200: 2eb6 2b3f 1697 87be e9f9 543f 4225 f83d
00000210: 54ce c2be 74ff 70be b8f7 cd3d 9cb8 94be
00000220: 4f06 803f 7f3f a63e f7e2 043c 9826 e73d
00000230: 55f4 ee3e 6ddf a1be 3464 a3bf feba 843e
00000240: 0030 17ba 24de 4b3e f880 67be d6d9 edbe
00000250: c8ff f63d 4472 20be 7a12 933e 84c3 1abe
00000260: 9060 e93d 2b55 dfbe 5987 313f ccba 01bf
00000270: e82c 36bf 48aa f8bd a7c2 6f3f fc31 6ebe
00000280: 925b 67bd a716 8bbd 3e76 e83d 8c14 00bf
00000290: 8b69 fe3e 5505 4abe c023 693f 9c47 e8bc
000002a0: c662 1f3f 9ea3 2bbd 5ac4 d13d 28c2 d1be
000002b0: 5a72 333f 200f b2bd 63e9 5fbf b578 293e
000002c0: e34a 90be bb76 83be 170b 99bf 5c68 6f3e
000002d0: c47e d5be 3f1a c9bd 7f0f bbbf 7fe1 89be
000002e0: badb b4be 6869 9e3d 8e78 993e 786c 3dbe
000002f0: d6ba 9c3e 1131 15bd eb48 7cbf 8bfc 1dbe
00000300: aaf7 7dbe 0058 f7bd ddc2 823f eee6 493e
00000310: 0e61 6a3e c175 8abb 048d 87bd 39c1 9f3d
00000320: 7127 e4be 9b82 c0be 27e3 0bbf a82d 93be
00000330: a5fa 89be 87fd ad3e 1be2 11bf d4dd 9b3e
00000340: 2c5a 8bbe b487 c9be 9c0e 5abe ce3e 9dbe
00000350: d009 e4bd 04a5 b6be 5374 363e 119e 3cbe
00000360: fdfa 4c3f 7856 673b 1cca 0f40 edd9 523c
00000370: d8e0 97bd b278 a1be 64d9 a63e 84bf ecbe
00000380: 30e9 9bbe f57d 91be a87f 6fbf 3d4f 983e
00000390: 5ee6 853e c85f c23d 2dfe 2dbf ea45 bb3e
000003a0: 279b 85bd e858 a5be 92ab e6be 4d3b 18be
000003b0: bda8 6e3e 10e1 b13e 95c1 dc3f 8865 aebe
000003c0: 8824 873e 63b4 383c 617e c8bf 3822 19bf
000003d0: ce83 2bbd e7a5 0c3e 0452 babe 3ef1 f7be
000003e0: d47a 1dbf 1303 583e 1409 48bf dac5 d73d
000003f0: 48dc 38bf 9dae 21bd ef5a 4e3d 929c 1d3e
-0.013969243 -0.13958782 -0.123668194 -0.3006636 0.8270075 0.001130497 1.511914 0.020214796
-0.58670163 0.31867072 0.56063706 0.34810886 0.19052517 0.012780472 2.6203947 -1.4890697
0.021814877 0.11904791 -0.29957005 -0.29971677 -0.5196387 0.28196847 -0.29522708 -0.28882927
0.7935442 0.12655815 1.009274 0.22861192 -1.0904132 0.023658747 0.3496586 0.1066183
0.4101701 0.345175 0.34883362 -0.6526512 0.46154782 0.0918492 -0.32529768 -0.434217
-1.5876005 0.31829348 0.061545257 0.35887113 -0.900131 -0.07955401 -0.15670146 0.23343882
-0.7109179 -0.008751543 0.9709509 -0.026544482 0.29718092 -0.09377702 0.64088434 -0.2864574
-0.15728267 0.082301624 0.22900528 0.29962155 -0.38334966 0.11451763 -0.3083315 -0.37109506
-0.6580741 -0.06423711 0.80365235 -0.2265338 0.45247442 0.14479524 1.3317004 0.20415527
0.32117447 0.3183031 0.48428428 0.14656152 -0.396735 -0.16456221 0.5960653 -0.22372355
0.186854 -0.0026675642 -1.4085317 -0.002796185 0.20350842 -0.38814682 -0.6214372 0.3829091
-0.43049192 -0.17382622 0.56074756 -0.4491945 -0.7573304 -0.3490666 0.8312515 -0.011937458
0.20181677 0.092973635 1.0004967 0.3881612 0.23128623 0.39011836 -0.36967024 -0.091086715
-1.4047791 0.31563544 -0.54136103 -0.0026980112 1.4608219 -0.014163211 -1.3242756 -1.1336454
0.8271192 0.09941229 -0.3410115 -0.7262036 0.54289395 -0.5407037 -0.5895943 -0.38013816
-0.16440582 -0.11523205 0.060174525 -0.38742417 -0.51206565 -0.2544906 0.5795819 -0.5666851
0.6707486 -0.26482457 0.8319383 0.12116481 -0.3804804 -0.23534948 0.10057014 -0.29047096
1.0001925 0.3247032 0.008110753 0.11286658 0.46670786 -0.31615773 -1.2764955 0.25923914
-0.00057673454 0.19908959 -0.22607791 -0.46455258 0.12060505 -0.15668589 0.28725034 -0.15113646
0.11395371 -0.43619666 0.6934715 -0.50675654 -0.7116227 -0.121418536 0.9365639 -0.23261255
-0.056483813 -0.0679143 0.11350678 -0.5003135 0.49689898 -0.19728597 0.91070175 -0.028354459
0.6226009 -0.041904084 0.10242529 -0.40968442 0.7009636 -0.08694291 -0.87465495 0.16549952
-0.28182134 -0.25676522 -1.1956509 0.23379654 -0.41698277 -0.09819459 -1.4614104 -0.26929852
-0.35323888 0.077349484 0.29974788 -0.18498409 0.30611295 -0.036423746 -0.98548764 -0.15428369
-0.24801508 -0.120773315 1.0215718 0.19716999 0.22888586 -0.004225463 -0.066186935 0.07800526
-0.4456134 -0.37599644 -0.5464348 -0.2874577 -0.2694904 0.3398249 -0.56985635 0.3044268
-0.27217233 -0.39361346 -0.21294636 -0.3071198 -0.11134684 -0.35672772 0.17817812 -0.18419673
0.8007048 0.0035299342 2.2467108 0.01286934 -0.074159324 -0.31537396 0.3258773 -0.46239865
-0.30451345 -0.2841641 -0.9355416 0.29747954 0.2615232 0.09490925 -0.67965966 0.36576778
-0.065237336 -0.32294393 -0.45052773 -0.14866371 0.23306556 0.34742022 1.7246577 -0.34061837
0.2639506 0.011273476 -1.5663568 -0.5981784 -0.041873746 0.13735162 -0.36390698 -0.4842624
-0.61515546 0.21094923 -0.7813885 0.10535784 -0.7221112 -0.039473165 0.05037969 0.15391758

object_model.layers.0.bias f4 [100]
00000000: fe6c bbbe 5f4b 3b3e d684 30be b0ee fb3d
00000010: 327a 423e 68f9 a9be 2791 b73e 0b41 203e
00000020: 9cfc 7e3e 0a62 e03e 7efd 903e 0434 ff3e
00000030: 7bb7 1a3f 1aef b83e f66b 4ebb 0854 e9be
00000040: 34c5 d53d 1d3a 8cbd e7de b8bd 5c31 9dbe
00000050: e02f 693e 8f67 2dbd e047 9f3e a4f2 933e
00000060: e35f c83e 6cfd 09bf 0b96 46be c2c3 ecbd
00000070: 6d39 613e 154c a4be 8495 c7be a4d8 86bd
00000080: ed93 b43e a2b1 d0be 2100 4bbd deaa 87be
00000090: 8879 ddbe f4e7 c7be 937a 85be 89ac ac3e
000000a0: b62f c33e 4801 573e e6b1 853e 70bc 5dbb
000000b0: 909f 4bbe 4363 293e c681 b7be aa83 89be
000000c0: e58c 0a3e 9d87 293e fecf 91bd 725b b1bd
000000d0: 6269 f9be 3eb8 123e 2932 453e 7c89 f8be
000000e0: cff2 97be a59c 003e 14e8 a03d d268 9c3e
000000f0: 02d7 b13d cc13 ba3e 0dc8 d63e 7fb2 03be
00000100: 35a0 39be 0d74 90be 4754 83be 2fac c63e
00000110: f165 8abe 77de 9d3d ff32 b93e 21da abbe
00000120: 0812 edbe 274e 7cbe e9b7 a93e e4ff fdbe
00000130: 6e64 babe b2e5 8bbe 2809 9a3e 1a3c a2ba
00000140: e7e9 93be ef79 6c3e 7afb d93a 10ef bdbe
00000150: 8ebd 84be 8fd1 f53d 4945 b83e f203 5d3e
00000160: 1da6 903e 9bc9 b13e b696 1f3e 3e3a fdbe
00000170: 1684 343c d898 273d 3e87 f8be 8a3a 4cbd
00000180: 5c75 c83e 6cb2 d43b 1ce3 2abe d436 b8be
-0.36606592 0.1829047 -0.17238173 0.123013854 0.18991926 -0.33198094 0.3585293 0.15649812
0.2490105 0.43824798 0.283184 0.49844372 0.6043622 0.3611992 -0.0031497455 -0.45571923
0.10438004 -0.06847022 -0.0902689 -0.3070172 0.22772169 -0.04233509 0.31109524 0.28896058
0.39135656 -0.53902316 -0.19393174 -0.11560775 0.21994562 -0.32089296 -0.3898126 -0.0658429
0.35269108 -0.40760523 -0.04956067 -0.2649755 -0.43256783 -0.39044154 -0.2607008 0.33725384
0.38122338 0.20996583 0.26112288 -0.0033834241 -0.19885087 0.16541772 -0.35841197 -0.26858264
0.1353031 0.16555639 -0.071197495 -0.0866002 -0.48713213 0.14328095 0.19257416 -0.48542392
-0.29677436 0.12559755 0.078567654 0.30548722 0.086835876 0.3634323 0.41949502 -0.1286106
-0.1812752 -0.2821354 -0.25650236 0.3880324 -0.270309 0.077084474 0.3617172 -0.33564857
-0.4630282 -0.24639188 0.33148125 -0.49609292 -0.36404747 -0.2732368 0.3008511 -0.0012377531
-0.2888939 0.23093389 0.0016630732 -0.37096453 -0.2592587 0.12002861 0.3599036 0.21583536
0.28251734 0.34724125 0.15584835 -0.49458498 0.01101782 0.040917248 -0.48540682 -0.049860515
0.39152038 0.006490996 -0.16688198 -0.3597933

object_model.layers.2.weight f4 [3, 100]
00000000: 00c8 bcbd 27bd fcbe 8309 08bd 7910 83be
00000010: d1a9 883c c8a6 41bb 9c08 eebd 747e d63d
00000020: 52f6 10be c6a2 98bd 95dd 233e d482 d33d
00000030: 0bde 6a3d 02c0 0cbe d66f 333d 4079 92bc
00000040: 911d 69be 52dd 35be 2715 8dbd 7cc8 5d3c
00000050: af8f df3e b8ba de3c 567a 18be 7fac a13d
00000060: d659 dabb a351 83be f03e ea3d a7ea a53f
00000070: 24bc ae3d 3d00 f63c c0ef ac3c ea1f 8ebd
00000080: 0de9 14be d24c 463d a151 11bd 493d 08bd
00000090: d22e c7bd 98cf a6bd 8d18 2539 38ac 16be
000000a0: ad5b f5bc 0c8c 4ebd 5f1f 76bd 5ce6 8fbb
000000b0: ef85 443e e6be ad3d e229 c1bd e8a9 82bf
000000c0: 19ed fabd ac94 d43c 0203 c5bd 18bd 2d3c
000000d0: c8f3 a0bc 8033 14bd 451e 72bf e0b1 dabc
000000e0: 7eb4 4c3d 49e5 4e3d a59b f13d 8933 24be
000000f0: 5442 883e d847 b2bd 5dc8 6c3e 89df ddbd
00000100: 8532 0d3c b209 273e fb41 0e3d 4da8 80bd
00000110: b123 7cbd 4963 cb3d ab90 3f3d fa80 57be
00000120: c110 84bb ecac 933d eb87 22bb fbbf 4f3e
00000130: 6211 1f3d b75a 96bd 7c74 043d ac46 52bd
00000140: bb8c 0fbf 831c 8a3d b2b4 1ebc cc3e 89bc
00000150: a19a c43d 55c5 2f3d 941b 27be fce3 26be
00000160: 58bc 513e 30f4 aebc 8e53 bb3d a28f 193d
00000170: 3992 d13e 6845 c93d 733f 99bb 0cef 283d
00000180: 609b d4be be11 02bd 757c c73b 430f ab3d
00000190: 5a34 77bd 27db 6dbd d17d 4dbd f17e 883e
000001a0: b026 0dbd 1c5d 4dbd b212 c33d 4f07 0cbe
000001b0: d7a1 703c becf e3bd df78 eabd a97c 33bc
000001c0: dead f1bd b34d 1abe eb3f b83c da4e 25bd
000001d0: fa91 09bd a268 38bc 5732 c93d 7fcb df3e
000001e0: a593 1c3e f2c4 e43d 97ff 9abd 9710 87bd
000001f0: 8a71 893d 8e40 b6bd d387 323e 5920 c33f
00000200: dacd c9bd 8b7f a3be 1302 4cbd 2168 753e
00000210: 4e57 293c 62a5 96bd 40a6 2a3e 3389 de3d
00000220: 3e08 6e3d cf78 923d 1d1b 29be 6360 ecbc
00000230: c87f efbd d929 a03d abe7 06be 35dd b93d
00000240: e242 873d 2469 a83d dfcc c63d 4ff7 52bb
00000250: 512b a8bd 6fc8 5e3d d2c7 313d aabd d5bc
00000260: d281 553d a4ad d5bd c8cf 92bd 3c53 ea3c
00000270: 24e9 20bd bda2 d13d 0972 d2bd 6cb1 57bd
00000280: d57a 02bd c1cf efbd 44fb cc3c 9a23 86be
00000290: 1b8a f73c ad25 113e b1a2 9bbd f32e 81bd
000002a0: 85b8 0ebc f8f8 973d c361 023d 9934 ea3e
000002b0: ac0a 013e 04b8 e63d 43f9 d23c fd4a bcbd
000002c0: 0042 2b3b f247 dcbc 1688 ac3d 740a f13d
000002d0: 7155 edbd 37b1 003e 8102 15bd dcef 403d
000002e0: cbda 993c aa7d 09bd 892b 88bd a01e c8bd
000002f0: 965a b63d 89c4 b53c f36b 213d 9900 9c3d
00000300: bb0f 3d3e e9fe df3d e25d da3d 931d d83d
00000310: 260f cbbc 2488 06be cba6 17bf 2911 ae3d
00000320: 7203 573d 9b69 edbe 5e5a 72bd 5a98 bfbf
00000330: 07e6 f93d 0ac0 12bd 967d dcbd 3774 02be
00000340: 63d4 fa3d ba46 6e3d 4900 90bd 4e5c 88bd
00000350: f56b 4bbe a7e8 593d f783 c3bd e3e8 2bbd
00000360: 9073 aabd fc87 bbbd eac4 c2bd cbc4 673e
00000370: 4bfb bc3e fab3 b33b 08d6 683d 4a1f 4dbe
00000380: 4ac1 e3bd 693e 97be 8f29 883d 9a5b 78bf
00000390: 8fcb 14bd ac23 ed3c 7350 ca3d d431 ddbd
000003a0: e17b 69bb 60b0 8b3c 7686 9cbc d692 eb3d
000003b0: 4c24 b0bc dd6b ac3d df39 a2bc 6fa3 a4bd
000003c0: e242 5c3d 4e1c e3bd 3217 7e3d d2da a93d
000003d0: b63e b33d fb02 213e 3885 a9bd 0d9f cabe
000003e0: 707b 63bd 8297 89bc 262c 273e 3066 e13c
000003f0: 746e 08bd 12dc 163c e1aa 40bf 008b 10bd
-0.092178345 -0.49363062 -0.033212196 -0.25598505 0.016682537 -0.0029548872 -0.11622736 0.10473338
-0.14156464 -0.074529216 0.16002496 0.10327688 0.057340663 -0.1374512 0.043807827 -0.017880082
-0.22765185 -0.17760208 -0.068888 0.013536569 0.4366431 0.027188644 -0.14890417 0.07894229
-0.0066635413 -0.2564822 0.114377856 1.2962235 0.08531979 0.03002941 0.021110415 -0.06939681
-0.14542027 0.048413105 -0.035478238 -0.03326157 -0.09725727 -0.08145064 0.00015744772 -0.14714134
-0.029950941 -0.050426528 -0.06008851 -0.0043914746 0.19191717 0.084836766 -0.09431817 -1.0208101
-0.12252254 0.025949799 -0.09619714 0.0106041655 -0.019647494 -0.036181927 -0.9457744 -0.026696146
0.04997682 0.050511632 0.11797265 -0.16035284 0.26613104 -0.08705109 0.23123308 -0.108336516
0.008618002 0.16312292 0.034730893 -0.06282101 -0.061557475 0.099310465 0.046768826 -0.21045294
-0.0040303175 0.072107166 -0.0024800252 0.20288078 0.038834937 -0.07341521 0.03233765 -0.05133693
-0.5607411 0.067437194 -0.009686636 -0.016753577 0.095998056 0.0429128 -0.16319114 -0.16297907
0.20482004 -0.021356672 0.09146796 0.037490495 0.40931872 0.09827691 -0.004676753 0.041243598
-0.41524792 -0.0317552 0.0060878345 0.0835252 -0.06035266 -0.058070328 -0.050168816 0.2665935
-0.034460723 -0.050137624 0.0952505 -0.13674663 0.014687023 -0.11123608 -0.114488356 -0.010955014
-0.11800741 -0.15068702 0.022491416 -0.0403584 -0.03358648 -0.011255415 0.09824055 0.43709943
0.15290697 0.11170377 -0.07568281 -0.06594961 0.06711109 -0.088990316 0.17434625 1.5244247
-0.09853716 -0.31933245 -0.049806666 0.23965503 0.0103357565 -0.07355763 0.16664982 0.108660124
0.05811333 0.07151949 -0.16514249 -0.028854555 -0.11694294 0.07820482 -0.13174312 0.09075395
0.06604554 0.08223179 0.09707045 -0.0032190864 -0.08211387 0.054390367 0.043403454 -0.026091415
0.05212576 -0.1043351 -0.071685374 0.028604142 -0.03928484 0.10236118 -0.10275657 -0.052659437
-0.031855423 -0.11709548 0.025022157 -0.26199037 0.030217221 0.14174528 -0.0759939 -0.06307783
-0.008710985 0.07420534 0.031831514 0.45743254 0.12601727 0.11265567 0.025753623 -0.091939904
0.0026131868 -0.026889775 0.08424394 0.11769572 -0.11588562 0.12567602 -0.03637934 0.047103748
0.018781086 -0.03356711 -0.06648929 -0.09771466 0.08903997 0.022188442 0.03940959 0.076173015
0.18463032 0.10937292 0.10662438 0.10552516 -0.024787497 -0.13137871 -0.5923888 0.08499367
0.05249352 -0.46369633 -0.059168212 -1.4968369 0.12202077 -0.035827674 -0.10766141 -0.12739645
0.12247541 0.05817292 -0.070313044 -0.06658231 -0.19865401 0.05320039 -0.09546655 -0.041970145
-0.08322823 -0.09156796 -0.095102146 0.22633664 0.3691047 0.0054841014 0.05684474 -0.20031467
-0.11120851 -0.29539803 0.06648552 -0.9701477 -0.03632694 0.028947674 0.09878626 -0.108005196
-0.0035626816 0.017051876 -0.019107085 0.11502616 -0.021501683 0.08419011 -0.019802986 -0.08038985
0.053774722 -0.11089383 0.06203384 0.0829369 0.087521955 0.15723793 -0.082773626 -0.3957447
-0.05553764 -0.016795877 0.16325435 0.027514547 -0.03330846 0.009207742 -0.7526074 -0.03528881

object_model.layers.2.bias f4 [3]
00000000: 37f0 e1bc 88fd 9fbd 8ecd 17bd
-0.027580364 -0.07812029 -0.037061267
