trained_models/LP_2_600_epoch200.pt (torch_old, 192257 bytes, 11 tensors)

relational_model.layers.0.weight f4 [150, 7]
0	0xbe90da51	-0.28291562
1	0x3e51ad85	0.20476349
2	0xbd77e203	-0.060518276
3	0xbb9403ef	-0.0045170705
4	0x3eab8eb9	0.33507326
5	0x3eb633cd	0.35586396
6	0xbe5caf57	-0.21551262
7	0x3da0f178	0.078585565
8	0x3ea2b1ec	0.3177637
9	0x3e09ac8b	0.13444726
10	0x3c33f108	0.010982759
11	0xbe134e89	-0.14385428
12	0xbd9a7f0d	-0.07543764
13	0x3d159548	0.03651932
14	0x3cc5bc7b	0.024137726
15	0x3edf2784	0.43584836
16	0xbe7acd57	-0.24492393
17	0x3d47b2eb	0.048754614
18	0xbe86ee68	-0.26353765
19	0x3e5be727	0.21474896
20	0xbea47a3c	-0.32124507
21	0x3e0ea66c	0.13930672
22	0x3e8ede26	0.2790386
23	0x3dcfbcf4	0.10143462
24	0x3e88ffbb	0.26757607
25	0xbe962700	-0.2932663
26	0x3b011196	0.001969432
27	0xbe293596	-0.16524348
28	0x3e75af23	0.2399259
29	0xbe2270bb	-0.15863316
30	0xbd6a92e8	-0.057269007
31	0xbe8a9692	-0.27068
32	0xbea124f7	-0.31473514
33	0xbecc5dc2	-0.39915282
34	0xbd3338b8	-0.043755263
35	0xbebe74fd	-0.3719863
36	0x3d171e74	0.036894277
37	0x3e783025	0.24237116
38	0x3e4b5479	0.19856443
39	0x3e50ff83	0.2040997
40	0xbd53dda1	-0.051725034
41	0x3ea12023	0.3146983
42	0x3e7dbd7b	0.24779312
43	0xbe7f90d2	-0.24957588
44	0xbe2827cc	-0.16421431
45	0xbe8446d3	-0.25835285
46	0xbe18bb5f	-0.14915226
47	0x3ea5ff0f	0.32421157
48	0xbae8ff00	-0.0017776191
49	0x3db5bbd4	0.08873716
50	0x3e4f7c6e	0.2026231
51	0xbeb2632e	-0.34841293
52	0xbdf337be	-0.11875866
53	0xbea95b13	-0.33077297
54	0xbde7e24d	-0.1132246
55	0x3db5bcec	0.088739246
56	0x3e526c75	0.20549186
57	0x3d0586aa	0.03259913
58	0xbe49fee7	-0.19726144
59	0xbe7bdddc	-0.24596351
60	0xbf01bb08	-0.5067601
61	0xbccdf1ca	-0.025139708
62	0x3eba450f	0.36380813
63	0x3ea9849e	0.3310899
64	0xbdae63f4	-0.08515158
65	0x3e19cbb5	0.15019114
66	0xbe303908	-0.17209256
67	0x3e2a53d9	0.16633548
68	0xbe0a14fe	-0.1348457
69	0x3da3b19c	0.07992861
70	0xbeda274c	-0.42608106
71	0xbf3dd4c5	-0.74152786
72	0xbd79a8d1	-0.06095201
73	0xbe85498d	-0.26032677
74	0x3e8ae8bc	0.27130687
75	0x3d40e797	0.04709586
76	0x3e37771a	0.17916527
77	0xbed2910f	-0.41126296
78	0xbe6afba8	-0.22947562
79	0xbe1c6e3a	-0.15276423
80	0xbe9a6565	-0.30155483
81	0xbd235810	-0.039878905
82	0x3e86c7d5	0.26324335
83	0xbe8b5a01	-0.27217105
84	0xbe09469f	-0.13405846
85	0x3ec75f7a	0.3894003
86	0xbe9f922d	-0.3116621
87	0xbe59ff82	-0.21288875
88	0xbe26691d	-0.16251035
89	0x3e828cac	0.2549795
90	0xbd078378	-0.033084363
91	0x3e9b82bd	0.30373183
92	0x3e7826fc	0.24233621
93	0x3eb1b912	0.3471151
94	0x3eb1e089	0.3474162
95	0x3e3844b4	0.17994958
96	0xbe372f80	-0.17889214
97	0x3eaa3849	0.33246067
98	0xbee6b6ef	-0.45061442
99	0xbe5af0b3	-0.21380882
100	0x3eb62446	0.3557455
101	0x3e711fe4	0.23547322
102	0x3e35ae29	0.17742218
103	0xbda41352	-0.080114976
104	0x3e72dbe6	0.23716697
105	0x3da84dfa	0.08217998
106	0x3dea4056	0.11438052
107	0x3e144bcf	0.14482044
108	0xbe21a571	-0.15785767
109	0xbea01d36	-0.31272286
110	0x3df9c098	0.121949375
111	0xbdd19388	-0.102332175
112	0xbe69c235	-0.2282799
113	0x3e8ed35f	0.27895638
114	0x3ea744f2	0.3266979
115	0xbe21d1de	-0.15802714
116	0x3eb87f42	0.3603459
117	0xbe036532	-0.12831572
118	0x3e0ec99e	0.13944098
119	0xbe5c211b	-0.21497004
120	0x3db60ddc	0.08889362
121	0xbe2a7e61	-0.16649772
122	0xbe80b94f	-0.2514138
123	0xbe30c433	-0.17262344
124	0x3e18a935	0.14908297
125	0x3ea8f8cf	0.33002326
126	0x3ca6a1e5	0.02034087
127	0x3e681acf	0.22666477
128	0xbd29f35c	-0.04149185
129	0xbc814e8f	-0.01578453
130	0x3e972781	0.29522327
131	0xbdf102d2	-0.11768116
132	0xbdb26458	-0.08710545
133	0x3ed2dcf2	0.41184193
134	0x3d2cec7d	0.04221772
135	0x3e194b16	0.1497005
136	0xbba80fae	-0.0051288223
137	0x3eb2d7d8	0.349303
138	0xbeda7bd9	-0.42672613
139	0x3e4a90c6	0.19781789
140	0xbe597229	-0.21234955
141	0xbe5989d9	-0.21243991
142	0xbe9e8edd	-0.3096837
143	0xbd31d9f9	-0.043420766
144	0x3ca7cea9	0.020484285
145	0x3e7e77c5	0.24850376
146	0xbea6745d	-0.32510653
147	0xbe919339	-0.28432634
148	0x3d54bf94	0.051940516
149	0x3d85c092	0.065308705
150	0x3e15bbd6	0.14622435
151	0x3e811042	0.25207716
152	0xbec508d5	-0.384833
153	0x3e5952ce	0.21222994
154	0x3e4c4808	0.19949353
155	0xbe043a64	-0.129129
156	0x3e8b3757	0.27190658
157	0x3e1eca19	0.15506782
158	0x3deb3087	0.11483865
159	0x3eb7ec50	0.3592248
160	0xbea6850b	-0.3252338
161	0x3ebd59dc	0.3698262
162	0x3e89489e	0.26813215
163	0x3dec40d7	0.11535805
164	0x3e314e8b	0.17315118
165	0xbe86410f	-0.2622151
166	0xbe241980	-0.16025352
167	0xbe90b6b8	-0.28264403
168	0xbe45aabe	-0.19303414
169	0x3e7326f2	0.23745325
170	0x3dd97695	0.10618321
171	0xbecde646	-0.40214747
172	0xbd5f3758	-0.05449614
173	0xbd72f540	-0.05931592
174	0x3ea20a6b	0.31648573
175	0xbee1eaad	-0.44124356
176	0xbe5c5592	-0.21517017
177	0x3ed607ea	0.41802913
178	0xbe9de374	-0.30837595
179	0xbe54429a	-0.20728531
180	0x3e02eb63	0.12785105
181	0x3e81d3a7	0.2535679
182	0xbe40755e	-0.18794772
183	0xbe104b40	-0.14091206
184	0x3ecb4f9b	0.39709172
185	0xbe95ea04	-0.29280102
186	0xbdbd4699	-0.09241981
187	0x3e0587a0	0.13040018
188	0x3e2a4dda	0.1663126
189	0x3e189924	0.14902169
190	0xbe0baa94	-0.13639289
191	0xbdef690a	-0.116899565
192	0xbd2b4af4	-0.041819528
193	0x3e8e51f4	0.277969
194	0xbe94545a	-0.28970605
195	0xbdb4d184	-0.088290244
196	0xbea5bf09	-0.3237231
197	0x3decb8a7	0.11558657
198	0xbdfe7bd8	-0.12425965
199	0x3e8b7a2b	0.27241644
200	0xbe837888	-0.25677896
201	0x3d6c06e1	0.057623748
202	0xbe0f5b83	-0.13999753
203	0xbe436412	-0.19081143
204	0xbea44824	-0.3208629
205	0x3ecb71f1	0.39735368
206	0xbd0a869f	-0.03381979
207	0x3d2aea48	0.041727334
208	0x3e32d8cb	0.17465512
209	0xbe5c79af	-0.21530794
210	0xbb68bfa1	-0.003551461
211	0xbe102151	-0.14075209
212	0xbd47a4ad	-0.04874103
213	0xbd513ec0	-0.051085234
214	0xbe26f3c7	-0.16303931
215	0xbdf049cd	-0.117328264
216	0xbe9f5edb	-0.31127056
217	0x3e4f54d3	0.20247202
218	0xbd4cd78e	-0.050010256
219	0xbbcdac9e	-0.006276681
220	0x3b888a66	0.004166889
221	0xbe76cb48	-0.24100983
222	0xbc0dd702	-0.008657219
223	0xbde2cc34	-0.11074105
224	0x3e13d9b9	0.14438523
225	0xbc5624cb	-0.013070296
226	0xbc5dc10f	-0.013534798
227	0x3e9aa5d7	0.3020465
228	0x3e0a615c	0.13513702
229	0xbeaa4852	-0.332583
230	0xbebd7006	-0.3699953
231	0x3ed95daf	0.42454287
232	0x3dca735e	0.09885286
233	0x3ec29759	0.38006094
234	0xbe8e2308	-0.27761102
235	0xbebbd2a4	-0.36684144
236	0x3e874417	0.26419136
237	0xbe4ae506	-0.19813928
238	0x3d3b76e3	0.045767676
239	0x3d5a06ff	0.05322933
240	0x3cff51a1	0.031166853
241	0x3e90738d	0.28213158
242	0xbd35f7ed	-0.044425894
243	0xbe4483c2	-0.19190887
244	0x3e51e4f2	0.20497492
245	0x3e22b7dc	0.1589045
246	0x3e92f502	0.2870255
247	0x3ed970f3	0.42468986
248	0xbe32b20a	-0.17450729
249	0xbedc87d6	-0.43072385
250	0x3ea86291	0.328877
251	0xbe66d69a	-0.22542801
252	0xbe5e4850	-0.21707273
253	0x3e761f86	0.24035463
254	0xbeaafd39	-0.3339632
255	0xbdf68328	-0.12036735

relational_model.layers.0.bias f4 [150]
0	0x3dd0efda	0.10201998
1	0x3e2ba566	0.16762313
2	0xbe80f620	-0.25187778
3	0x3e78882b	0.24270694
4	0x3e5ec7ac	0.21755856
5	0x3de890a8	0.11355716
6	0x3e856ff3	0.26061973
7	0x3e54e3a1	0.20789959
8	0x3ea7c075	0.3276402
9	0x3db28628	0.087169945
10	0xbe376e04	-0.17913061
11	0xbea93299	-0.33046415
12	0xbe78cb3c	-0.24296278
13	0xbd0f9c68	-0.03506127
14	0xbea93001	-0.33044437
15	0x3ea62ebb	0.32457528
16	0xbdcbb98e	-0.09947501
17	0x3e91e369	0.28493813
18	0xbe6e7a31	-0.232888
19	0xbe8d08d5	-0.275458
20	0x3e1e782d	0.15475531
21	0xbe9e1d52	-0.30881745
22	0x3defad81	0.11703015
23	0x3e7b53f6	0.24543747
24	0x3ea6535e	0.3248548
25	0xbe55f009	-0.20892347
26	0x3d3f56b6	0.046713553
27	0xbe8bd5e8	-0.27311635
28	0x3e657cd1	0.22410895
29	0x3da8c6e2	0.08241059
30	0x3e9215c7	0.2853224
31	0x3eb07a05	0.34468094
32	0xbeb42239	-0.3518236
33	0xbddf4f1a	-0.10903759
34	0x3e4e699c	0.20157474
35	0xbe5b21f2	-0.21399668
36	0xbd737451	-0.0594371
37	0x3e58e24a	0.21180072
38	0xbe928c76	-0.28622788
39	0xbe733aee	-0.23752949
40	0x3d03412d	0.03204458
41	0x3e013b12	0.1262019
42	0x3e23046d	0.15919657
43	0x3db9b477	0.09067624
44	0xbd8d9c50	-0.0691458
45	0x3e9e937c	0.30971897
46	0xbe396f6a	-0.18108907
47	0xbe3aa8ba	-0.18228427
48	0xbe2a9858	-0.16659677
49	0x3ea44c96	0.3208968
50	0xbe30dd9a	-0.17272034
51	0xbe5f8be8	-0.21830714
52	0xbeae55a0	-0.34049702
53	0x3edfeeb8	0.43736815
54	0x3de6e3ca	0.11273916
55	0xbe8ea1a0	-0.27857685
56	0x3c52b57d	0.012860653
57	0x3dce8df3	0.100856684
58	0xbe0c1407	-0.13679515
59	0x3cf6ddd8	0.03013508
60	0x3937c8b6	0.0001752701
61	0xbdd7af03	-0.10531428
62	0xbdb9bfdc	-0.090697974
63	0xbeb67088	-0.3563273
64	0x3e0c826d	0.13721628
65	0x3e4f780d	0.2026064
66	0xbed1f698	-0.4100845
67	0xbde1f0f9	-0.1103229
68	0x3e5ed413	0.21760587
69	0x3e84d994	0.2594725
70	0xbe2f1151	-0.1709645
71	0xbe1f8204	-0.15576941
72	0xbecb7c7c	-0.39743412
73	0xbe708b5c	-0.23490661
74	0xbeb61d8f	-0.35569426
75	0x3d95ef9e	0.07321094
76	0xbe721ae5	-0.23643072
77	0xbd9886e9	-0.07447607
78	0xbe849324	-0.2589351
79	0x3d7d519a	0.0618454
80	0x3e394f75	0.18096717
81	0xbe3e18f3	-0.18564205
82	0x3d51d07a	0.05122421
83	0x3e2c8f34	0.16851503
84	0x3e00f41d	0.12593122
85	0x3e5e48fe	0.21707532
86	0xbebece2d	-0.37266675
87	0xbe24ebda	-0.16105595
88	0xbdfca132	-0.12335433
89	0xbe1b5121	-0.15167667
90	0xbe9b545b	-0.30337796
91	0x3e3c6d02	0.18400958
92	0x3e22ec7e	0.15910527
93	0x3e1ae84a	0.15127674
94	0xbe1010c5	-0.14068897
95	0xbd82e50e	-0.06391345
96	0xbe8974e6	-0.26847
97	0xbf0203b7	-0.5078692
98	0x3e11e1d6	0.14246306
99	0xbebfe60e	-0.37480205
100	0xbcc7e17f	-0.024399517
101	0xbd86f599	-0.06589813
102	0xbe4ed2c1	-0.20197584
103	0xbf105507	-0.5637974
104	0xbdec9d29	-0.115534134
105	0x3ea8ec11	0.32992604
106	0xbeb8c537	-0.36087963
107	0x3eb6adf0	0.3567958
108	0x3d06552d	0.032796074
109	0xbeb0e3c5	-0.34548774
110	0xbe68ff05	-0.22753532
111	0x3eb7ba41	0.35884288
112	0xbe182f01	-0.1486168
113	0xbd45ce09	-0.048292194
114	0xbd64485b	-0.055733066
115	0xbdf63e33	-0.12023582
116	0x3e931d9a	0.28733522
117	0xbe4c8c29	-0.19975342
118	0xbe3ab3df	-0.18232678
119	0xbe08ef22	-0.13372472
120	0xbe84c615	-0.25932375
121	0xbe7f2675	-0.24917014
122	0xbea2f285	-0.31825653
123	0xbe21ed71	-0.15813233
124	0x3d910f53	0.07083001
125	0x3d41d362	0.04732073
126	0xbe8eb700	-0.27873993
127	0xbe89fce1	-0.26950744
128	0xbe838cc9	-0.25693348
129	0xbe5d2d3b	-0.21599285
130	0x3e030d3b	0.12798016
131	0xbc8b31cb	-0.016991517
132	0xbe1b0366	-0.15138015
133	0xbec2b3fc	-0.38027942
134	0xbe002b24	-0.12516457
135	0x3ddc9e1c	0.107723445
136	0x3d51fb53	0.051265072
137	0x3dc167d4	0.09443632
138	0x3ee40eaa	0.44542438
139	0xbda3c6a6	-0.079968736
140	0xbedc2864	-0.42999566
141	0x3e75eb6e	0.2401559
142	0xbe1f9b94	-0.15586692
143	0x3e8295c0	0.25504875
144	0xbe4f37e0	-0.20236158
145	0x3de8051b	0.11329099
146	0x3e384b90	0.17997575
147	0xbde0bb6f	-0.1097325
148	0xbed5d8ef	-0.4176707
149	0x3e9c4185	0.30518737

relational_model.layers.2.weight f4 [150, 150]
0	0x3d95f9e5	0.07323054
1	0xbe027c54	-0.1274274
2	0xbe6c2b1b	-0.23063318
3	0xbc940684	-0.018069513
4	0x3ded06ca	0.115735605
5	0x3cec2787	0.028827442
6	0xbddde3a0	-0.10834432
7	0x3be4b0c7	0.0069790813
8	0x3cbb7471	0.022882672
9	0xbd8456f1	-0.06461895
10	0x3e4b006b	0.19824378
11	0xbdc2c692	-0.095105305
12	0xbe825cbf	-0.25461385
13	0xbcd56ab6	-0.02605186
14	0x3db9051d	0.090341784
15	0xbda8df4a	-0.08245714
16	0x3da24062	0.07922436
17	0x3d9ea9d6	0.077472374
18	0xbc9f0cc5	-0.019415269
19	0xbd921c62	-0.0713432
20	0x3d9f8d93	0.07790675
21	0xbb1183f0	-0.0022203885
22	0x3e20e90e	0.15713903
23	0xbdeaefe7	-0.11471539
24	0x3da7a1cd	0.08185158
25	0x3d364b8e	0.04450565
26	0x3c3d0a27	0.011538065
27	0xbd8a144b	-0.06742152
28	0x3bf219a0	0.0073883086
29	0x3cffafb9	0.03121172
30	0xbcc11bfb	-0.023572912
31	0x3c9bf919	0.019039677
32	0xbd6f4dcc	-0.058423802
33	0x3d282378	0.04104945
34	0xbd867e8f	-0.06567108
35	0xbd0edb17	-0.03487691
36	0xbd753f96	-0.059875093
37	0xbd83af83	-0.064299606
38	0xbc9ebbed	-0.01937672
39	0x3df9cc46	0.12197165
40	0xbd989411	-0.074501164
41	0xbd933e47	-0.07189613
42	0x3a9aaee1	0.0011801386
43	0xbd9af925	-0.07567052
44	0x3bfbfa48	0.007689748
45	0xbdb9f2d3	-0.09079518
46	0x3e45a819	0.19302405
47	0x3e8dbcb1	0.27683023
48	0xbc1f16fc	-0.00971007
49	0xbbae4114	-0.0053178165
50	0x3bc7a655	0.0060928264
51	0xbcd14604	-0.025546081
52	0xbdb419df	-0.08793997
53	0xbc89c6e3	-0.01681847
54	0x3d3b36e7	0.045706656
55	0x3cc868bd	0.024464006
56	0x3db8b6ad	0.09019218
57	0xbc8579ad	-0.016293371
58	0xbc40d17f	-0.011768698
59	0x3c3ed3fa	0.011647219
60	0x3bc0b623	0.0058810874
61	0x3ebac87d	0.36481085
62	0xbe003325	-0.1251951
63	0x3e0131f8	0.12616718
64	0x3d5487d7	0.05188736
65	0xbb42ff8f	-0.0029754376
66	0x3e7634e3	0.24043612
67	0xbd595f80	-0.05306959
68	0x3d6cbb3c	0.057795748
69	0xbcf537a0	-0.02993375
70	0x3d0523c8	0.032504827
71	0x3d213164	0.039353743
72	0x3d664791	0.056220595
73	0xbed8f09d	-0.42371073
74	0x3d5947ec	0.053047106
75	0x3b06c194	0.002056216
76	0xbd98d123	-0.07461765
77	0xbec5eb1e	-0.38655943
78	0xbd0efc68	-0.034908682
79	0xbdf898ab	-0.12138494
80	0x3c0c644e	0.008568836
81	0xbdf5ddd5	-0.12005202
82	0xbe0b4fa3	-0.13604598
83	0x3c269b22	0.0101688225
84	0xbd895081	-0.06704808
85	0xbd958bbe	-0.07302044
86	0xbe90c5c0	-0.2827587
87	0xbd9a6057	-0.075379066
88	0x3f3922d2	0.72318757
89	0xbbccd471	-0.006250911
90	0x3cfa49fa	0.030552853
91	0xbcc9ad8f	-0.024618892
92	0x3d8a6e4f	0.06759321
93	0x3e7d0ac6	0.24711141
94	0x3d5716fa	0.052512147
95	0xbe2792ea	-0.16364637
96	0x3e676881	0.22598459
97	0x3e6746ff	0.22585677
98	0xbd108244	-0.03528048
99	0x3dab9924	0.08378819
100	0x3da34b6f	0.07973372
101	0x3e29c43f	0.16578768
102	0xbd8be3fe	-0.068305954
103	0x3e94ca78	0.2906072
104	0xbd443c40	-0.04790902
105	0xbc6a8fd2	-0.014316516
106	0x3d91c8e7	0.07118397
107	0xbdd15b71	-0.10222519
108	0x3d4c2b76	0.049846135
109	0x3c84519b	0.016152194
110	0xbc85db35	-0.016339878
111	0x3c469614	0.012120742
112	0x3d2f6d88	0.042829067
113	0xbe61adf1	-0.2203901
114	0x39bca70e	0.0003598262
115	0x3db90198	0.09033507
116	0x3d86c501	0.06580544
117	0x3d89a286	0.06720452
118	0x3dc9153e	0.09818505
119	0xbed11f7a	-0.40844327
120	0x3c504f45	0.012714212
121	0x3db6674a	0.089064196
122	0x3d35fc0a	0.044429816
123	0xbd4c36fb	-0.04985712
124	0xbdfdf656	-0.124005005
125	0x3da4d6a5	0.08048753
126	0xbdfbcac9	-0.122945376
127	0x3c826edf	0.015922008
128	0xbd9289fa	-0.07155223
129	0x3d920802	0.071304336
130	0x3e57f845	0.21090801
131	0x3a8375b3	0.0010029584
132	0x3d8336da	0.064069465
133	0xbcd2b4a2	-0.025720898
134	0xbcf9f79b	-0.030513575
135	0xbda61303	-0.08109095
136	0xbd166c2c	-0.036724254
137	0x3ec8be8e	0.39207882
138	0xbcc1d9c9	-0.023663418
139	0xbdf9d077	-0.12197965
140	0xbd41d97b	-0.047326546
141	0xbbe4e5dc	-0.006985409
142	0xbd24a19f	-0.040193196
143	0xbdfe00ed	-0.1240252
144	0xbe9177ae	-0.2841162
145	0x3d464841	0.04840875
146	0xbcc57443	-0.02410329
147	0xbd4f244f	-0.050571736
148	0x3dba0193	0.090823315
149	0x3ccd04b3	0.025026655
150	0x3d9af9c5	0.07567171
151	0xbdd0277a	-0.101637796
152	0x3e3dfa6e	0.18552563
153	0xbd2cd251	-0.04219276
154	0x3d649f8b	0.055816215
155	0x3ca99727	0.020701958
156	0xbdeb2983	-0.11482527
157	0x3d05471e	0.032538526
158	0xbd40ab33	-0.04703827
159	0xbcd769f7	-0.026295645
160	0xbdc85f88	-0.09783846
161	0xbd989e1f	-0.07452034
162	0x3e02d4f9	0.12776555
163	0x3d477f00	0.0487051
164	0xbe136e18	-0.14397466
165	0xbd52ba8c	-0.051447436
166	0x3d849234	0.064731985
167	0xbd3ff0f6	-0.046860658
168	0x3d461a5a	0.048364975
169	0x3d212af7	0.039347615
170	0x3d50e16c	0.05099623
171	0x3cf9c8d9	0.03049128
172	0x3e618c8e	0.22026274
173	0xbdfaa4a0	-0.12238431
174	0xbd2cd571	-0.04219574
175	0x3c9dbfb0	0.019256443
176	0x3d87b298	0.06625861
177	0x3db121a3	0.08648994
178	0x3c23796f	0.0099776825
179	0xbd12c97a	-0.035836674
180	0x3d24762d	0.040151764
181	0x3c1e6fe1	0.009670229
182	0x3da240c4	0.07922509
183	0xbe73ba2d	-0.23801489
184	0xbd8147c9	-0.0631252
185	0xbd22625d	-0.039644588
186	0x3d15d60d	0.036581088
187	0x3cda0558	0.026613876
188	0x3d6a4efa	0.057204224
189	0x3da5cbfa	0.08095546
190	0xbd219a17	-0.039453592
191	0xbd87c21b	-0.066288196
192	0x3dcc4a11	0.099750645
193	0xbc00d99c	-0.007864382
194	0xbd798647	-0.060919072
195	0xbc91a5c9	-0.017779248
196	0x3d6ffea6	0.05859246
197	0x3db5fda8	0.08886272
198	0x3db3908f	0.08767807
199	0xbe05fe12	-0.13085201
200	0x3d392ef1	0.045210782
201	0xbd8de2e7	-0.06928044
202	0x3d4da1dc	0.05020319
203	0xbcdae8fc	-0.026722424
204	0x3d0060d9	0.03134236
205	0x3d5e4c37	0.054271903
206	0xbd30a42d	-0.04312532
207	0xbe4add78	-0.19811046
208	0xbcbdbc1b	-0.023160985
209	0x3d8c2fc3	0.06845047
210	0x3c3845d8	0.011247121
211	0x3df16f09	0.117887564
212	0xbe9c5ed5	-0.305411
213	0xbd3da50f	-0.04629999
214	0x3d272a29	0.04081169
215	0xbd18cbe2	-0.037303813
216	0xbdf932ba	-0.121678784
217	0xbd9b4c5c	-0.07582924
218	0xbb873263	-0.0041258796
219	0x3c1d6ab9	0.009607964
220	0xbc93a95a	-0.018025089
221	0x3c2ea835	0.010660221
222	0x3dba5ee4	0.0910013
223	0xbe396bdd	-0.18107553
224	0xbddbfd76	-0.10741703
225	0xbd19a2a6	-0.03750863
226	0x3a266408	0.0006347303
227	0xbe5ad396	-0.21369776
228	0xbd2cd299	-0.04219303
229	0x3d9a4083	0.07531836
230	0x3cbe99c7	0.023266686
231	0x3da93e01	0.082637794
232	0xbd5ffc23	-0.054683816
233	0xbc95ff0e	-0.018310096
234	0x3d666af3	0.05625434
235	0xbc7ded6b	-0.015498499
236	0x3e497304	0.19672781
237	0x3da72a82	0.081624046
238	0x3f176199	0.591333
239	0x3db99087	0.090607695
240	0xbda8715f	-0.08224749
241	0xbd380534	-0.044926837
242	0x3c1f6e67	0.009730912
243	0x3edb50ad	0.42834988
244	0x3dc0c0fd	0.094118096
245	0xbea6ef68	-0.32604527
246	0x3d2de6c8	0.04245642
247	0xbdab1d61	-0.08355213
248	0xbd3f2afb	-0.04667185
249	0xbc9be713	-0.019031083
250	0x3d8c8ddc	0.06862995
251	0x3d1298d2	0.035790272
252	0xbe38115a	-0.17975369
253	0xbcd9e315	-0.026597539
254	0xbe114f06	-0.14190301
255	0x3d91b6d7	0.07114952

relational_model.layers.2.bias f4 [150]
0	0xbce7242a	-0.028215487
1	0xbd962f1d	-0.07333205
2	0xbd41eddf	-0.047345992
3	0x3ddf4b8c	0.10903081
4	0x3c44acce	0.0120040905
5	0x3ce699e3	0.02814955
6	0x3cfcc67b	0.030856362
7	0xbda509b8	-0.08058494
8	0x3d06b13b	0.032883864
9	0xbd0a1bdc	-0.033717975
10	0x3ddd4667	0.10804444
11	0xbbdd726a	-0.006758024
12	0xbd952458	-0.07282323
13	0xbd9a95a4	-0.07548073
14	0x3d6d8ea5	0.057997365
15	0xbd1c6fe6	-0.038192652
16	0x3dd69da0	0.10479283
17	0xbdaf2cd3	-0.085534714
18	0xb8c77dbf	-9.5124815e-05
19	0x3dd2d6f4	0.10294905
20	0x3d9b6e60	0.07589412
21	0x3d291dc8	0.041288167
22	0x3ded1666	0.11576538
23	0xbdb38324	-0.087652475
24	0x3b98c7ae	0.0046624755
25	0xbac825a1	-0.0015270003
26	0xbd36e54e	-0.044652276
27	0xbc67d7b7	-0.0141505515
28	0xbd762e41	-0.060102705
29	0x3d0aba4a	0.033869065
30	0xbd43cfd8	-0.047805637
31	0x3d00763c	0.031362757
32	0xbde5d8e9	-0.11223013
33	0xbd46b6ad	-0.048514057
34	0x3d3cf272	0.04612965
35	0x3db8ef90	0.09030068
36	0x3c6cf08f	0.0144616505
37	0x3be31862	0.006930397
38	0xbd42d2df	-0.047564384
39	0x3de552c5	0.11197428
40	0x3d6d2679	0.05789802
41	0x3dcdc1d2	0.10046734
42	0x3c926c46	0.017873894
43	0xbda98956	-0.08278148
44	0xbdce086d	-0.10060201
45	0xbd8f59c0	-0.0699954
46	0xbd80bb28	-0.06285697
47	0x3da76964	0.081743985
48	0xbd81b412	-0.06333174
49	0x3d615abf	0.055018183
50	0xbdb48a0a	-0.08815391
51	0x3da82734	0.082106024
52	0x3d17a061	0.037018184
53	0x3db8d5d1	0.09025157
54	0xbd1e7563	-0.038686167
55	0xbd47cd1b	-0.04877959
56	0xbcaedf99	-0.021346854
57	0x3d8bf371	0.06833542
58	0xbd9c5dc8	-0.07635075
59	0xbd35c38f	-0.044375952
60	0x3cf9b3eb	0.0304813
61	0xbce2f655	-0.02770535
62	0x3d2ea00e	0.04263311
63	0xbd4e1d1c	-0.05032073
64	0xba8b88e6	-0.0010645657
65	0x3cb43278	0.021996722
66	0xbd291400	-0.04127884
67	0xbd99d972	-0.075121775
68	0x3d26af40	0.040694475
69	0xbd92a6ae	-0.07160698
70	0xbdf5bd80	-0.11999035
71	0xbd89d51e	-0.06730102
72	0x3dc1f657	0.09470814
73	0xbd53d756	-0.051719032
74	0x3d0dd2dd	0.034624923
75	0xbd47ffaa	-0.048827805
76	0xbd253277	-0.04033133
77	0xbdb8b87f	-0.09019565
78	0x3d34c8ee	0.044136934
79	0x3d251570	0.040303648
80	0x3da83c53	0.08214631
81	0x3dfb9592	0.12284388
82	0xbd9da10d	-0.076967336
83	0x3d3acb66	0.045604132
84	0xbc79ea00	-0.015253544
85	0xbd3840b7	-0.044983592
86	0x39d943b4	0.00041439908
87	0x3c6463ef	0.013939842
88	0xbd4ab0e3	-0.0494851
89	0x3d9c5b91	0.076346524
90	0x3d9f65e2	0.077831045
91	0x3d2c50d3	0.042069267
92	0xbd24d2b9	-0.040240023
93	0x3db47f72	0.08813371
94	0x3bb93c92	0.0056529725
95	0xbcae671e	-0.021289404
96	0x3d01efe6	0.031722926
97	0xbcb1ee43	-0.021720057
98	0x3d53df71	0.051726762
99	0xbd761dfe	-0.060087197
100	0x3dcbb14b	0.09945925
101	0x3d6da9a3	0.058023106
102	0x3d39c834	0.045356944
103	0xbd258102	-0.040406235
104	0xbd8dd6ac	-0.06925711
105	0xbd5fdf32	-0.054656215
106	0x3c961d39	0.018324481
107	0xbd7c011c	-0.061524495
108	0x3d4b4b35	0.04963227
109	0x3da602bd	0.08105991
110	0xbdd648be	-0.10463093
111	0x3ddbcc37	0.1073231
112	0x3db51a8a	0.088429525
113	0x3d33f73c	0.043936953
114	0xbd83de38	-0.06438869
115	0xbcca7cc8	-0.024717703
116	0xbd56db70	-0.052455366
117	0x3b9b6b7f	0.004743039
118	0x3c66794f	0.014067008
119	0x3e1950c8	0.14972222
120	0xbd82c0d7	-0.063844375
121	0x3ce84002	0.028350834
122	0xbd5f9457	-0.054584827
123	0xbc2739f3	-0.010206687
124	0x3dd3cd42	0.10341884
125	0x3d4f499f	0.05060732
126	0xbdc986a0	-0.09840131
127	0x3d895ee0	0.06707549
128	0x3d0faa96	0.035074793
129	0x3d554352	0.052066155
130	0x3af4b300	0.0018669069
131	0xbd847572	-0.064677134
132	0x3dd60e79	0.10451979
133	0xbd9b73a9	-0.0759042
134	0x3d1c3fba	0.038146712
135	0x3da53528	0.080667794
136	0x3c521afa	0.0128238145
137	0xbca0806b	-0.019592484
138	0xbd522811	-0.05130774
139	0x3d31a6d3	0.043371987
140	0x3c2a3efe	0.010390995
141	0x3d3d4c11	0.04621512
142	0x3c1cbc26	0.009566342
143	0xbc835d43	-0.016035682
144	0x3d8c46e7	0.06849461
145	0x3d98a313	0.07452979
146	0x3d5d6119	0.054047678
147	0x3ce8553e	0.02836096
148	0xbd67e6c9	-0.05661658
149	0xbd024a08	-0.031808883

relational_model.layers.4.weight f4 [150, 150]
0	0x3aca314f	0.0015426072
1	0xbdca5da4	-0.09881142
2	0xbd7e1613	-0.06203277
3	0xbcaa3858	-0.02077882
4	0x3d1bf338	0.03807375
5	0xbd846c64	-0.06465986
6	0x3bc344a8	0.005959112
7	0xbd08e1da	-0.033418514
8	0x3d7fc414	0.062442854
9	0xbb64643f	-0.003484979
10	0x399d5ff9	0.0003001688
11	0x3d8e2624	0.069408685
12	0x3d0b0f6e	0.03395026
13	0xbc57f7de	-0.013181655
14	0x3cba1ba9	0.022718268
15	0x3c7d6af7	0.015467397
16	0xbd10e7d2	-0.03537733
17	0x3c82fccc	0.015989684
18	0xbcfe617d	-0.031052345
19	0xbd80a707	-0.06281858
20	0xbdb1645d	-0.08661721
21	0xbd6d443a	-0.057926394
22	0xbd93f19a	-0.07223816
23	0x3d29514b	0.041337293
24	0x3c0d196f	0.008612021
25	0xbd4df430	-0.050281703
26	0xbd546749	-0.051856313
27	0x3d8564b9	0.06513352
28	0xbd8cb3ac	-0.06870207
29	0xbc93d4fb	-0.018045893
30	0x3ad57000	0.0016283989
31	0x3ce873a0	0.028375447
32	0xbd3587ef	-0.04431909
33	0xbd51ddbe	-0.05123686
34	0x3d6b65f0	0.057470262
35	0xbd80d832	-0.06291236
36	0xbd843db7	-0.06457084
37	0x3d74d628	0.059774548
38	0x3d3f9394	0.0467716
39	0xbd85700f	-0.06515514
40	0xbcec3998	-0.028836057
41	0xbd63c57e	-0.055608265
42	0xbd973b65	-0.073843755
43	0xbd5de0b8	-0.054169387
44	0x3cc974a2	0.024591748
45	0xbcedd781	-0.029033424
46	0xbd8d0b49	-0.06886918
47	0xbc2a9780	-0.010412097
48	0xbd9ef25f	-0.07761072
49	0x3d75246c	0.059849188
50	0x3d423010	0.047409117
51	0x3d10d99c	0.03536378
52	0x3d9c7f70	0.07641494
53	0x3d4d90a4	0.05018677
54	0x3da99d1e	0.08281921
55	0x3d094d84	0.03352119
56	0x3c654db9	0.013995581
57	0xbdaf14b1	-0.085488684
58	0x3da071ba	0.078341916
59	0x3d7a9edb	0.061186653
60	0xbd9f9475	-0.07791988
61	0x3da69ec8	0.08135754
62	0xbd9faadc	-0.07796261
63	0xbce64881	-0.028110744
64	0xbd121fe8	-0.03567496
65	0x3d3bf759	0.045890186
66	0x3d6a64f8	0.057225198
67	0x3d92c950	0.071673036
68	0x3d051de3	0.032499205
69	0xbd853b9e	-0.06505512
70	0x3d52b5a5	0.05144276
71	0x3c0ed8b2	0.008718656
72	0xbd909dec	-0.07061371
73	0xbd62248f	-0.055210646
74	0xbd58a337	-0.05289003
75	0x3d06ea96	0.032938562
76	0x3c5c6a52	0.013453083
77	0xbcb7a42a	-0.022417147
78	0x3c1d3fe8	0.009597756
79	0xbd851400	-0.06497955
80	0x3ceabd7f	0.028654812
81	0x3d2933cb	0.04130916
82	0xbc2620a7	-0.010139621
83	0x3cd1f620	0.025630057
84	0xbd013134	-0.031541064
85	0x3d7a3f6c	0.06109564
86	0xbd67ecc6	-0.05662229
87	0xbd901e90	-0.07037079
88	0xbd988196	-0.074465916
89	0xbb195031	-0.0023393745
90	0x3c1fc7bc	0.00975221
91	0x3d868346	0.06568007
92	0x3c62ad8d	0.013835323
93	0x3d9f74b9	0.07785935
94	0xbd8228d7	-0.06355446
95	0x3d23aef7	0.03996178
96	0x3d16f170	0.036851346
97	0xbd4ff5d6	-0.050771557
98	0x3c38ebc4	0.01128668
99	0xbd696bb1	-0.05698747
100	0x3a8b73f7	0.0010639419
101	0x3d83c890	0.06434739
102	0x3d43dc67	0.047817614
103	0xbd5baf93	-0.053634237
104	0x3c9ec595	0.019381324
105	0xbcd9ba38	-0.026578054
106	0xbd97fd85	-0.07421402
107	0x3d062a55	0.032755215
108	0xbd32ec9f	-0.04368269
109	0x3d976719	0.07392711
110	0xbda9781e	-0.08274864
111	0x3c600625	0.01367334
112	0xbcbaa719	-0.022784756
113	0x3d4e3b9a	0.05034981
114	0xbc5b6b45	-0.013392274
115	0xbd317970	-0.043328702
116	0xbd9d268a	-0.07673366
117	0x3cca67a4	0.024707623
118	0xbd11eae5	-0.035624404
119	0x3d281d16	0.041043364
120	0x3c4e6a10	0.012598529
121	0xbd142e13	-0.036176752
122	0x3d7d6f38	0.061873645
123	0x3c51c3ba	0.0128030125
124	0x3d582cc1	0.052777056
125	0x3d727267	0.059191134
126	0xbd9cd2c9	-0.076573916
127	0xbd672806	-0.056434654
128	0xbd85c32b	-0.06531366
129	0x3cfdf0bc	0.03099858
130	0xbd8100ea	-0.062990025
131	0xbc5f0a70	-0.013613328
132	0xbd43b4f8	-0.047780007
133	0xbd80eb9f	-0.06294941
134	0xbd012e27	-0.031538155
135	0xbd8235bd	-0.06357906
136	0xbd589300	-0.052874565
137	0x3d39affb	0.045333844
138	0x3976e5e9	0.00023546036
139	0xbd63da0d	-0.05562787
140	0xbd98c673	-0.07459726
141	0xbd13ed8d	-0.036115218
142	0x3d0bc3ab	0.03412215
143	0xbd8ad691	-0.067792065
144	0x3d65cd58	0.056104034
145	0xbda05112	-0.07827963
146	0xbd64db85	-0.055873413
147	0x3c82f268	0.015984729
148	0xbd0c7b2b	-0.03429715
149	0x3d3621b8	0.04446575
150	0x3db74bdd	0.08950017
151	0x3d03e465	0.032200236
152	0x3e16f8d3	0.14743356
153	0x3d5c0658	0.053716987
154	0x3ec42c96	0.38315266
155	0x3c821c4d	0.015882635
156	0xbe153ff7	-0.14575182
157	0xbd916cae	-0.07100807
158	0x3d9ce40a	0.076606825
159	0x3df74594	0.12073818
160	0xbe172f9f	-0.1476426
161	0xbd93b1bd	-0.07211635
162	0x3db57879	0.08860869
163	0x3dba7ef6	0.09106247
164	0xbd07425e	-0.033022277
165	0xbd4a6c73	-0.04941983
166	0xbe3661dd	-0.1781077
167	0xbd4a15e1	-0.04933727
168	0xbd0bb1ea	-0.03410522
169	0xbe4f69f0	-0.20255256
170	0xbe3397f3	-0.17538433
171	0x3c7c3809	0.015394219
172	0x3d6dcc9e	0.058056466
173	0x3dea0ddd	0.114284255
174	0x3cec6349	0.028855937
175	0x3be0e1d3	0.006862858
176	0x3dae62c7	0.08514934
177	0x3d4af582	0.04955054
178	0x3da3f75c	0.080061644
179	0xbd348438	-0.044071406
180	0x3da636c5	0.08115915
181	0x3cd124f6	0.02553032
182	0xbc873b24	-0.016507693
183	0x3d9ad6b3	0.07560482
184	0x3d800aae	0.06252037
185	0xbd4dbcf1	-0.050229017
186	0xbab6ef57	-0.0013956827
187	0x3cb0e895	0.021595279
188	0x3d2cf9b8	0.042230338
189	0xbcb75f66	-0.022384357
190	0x3d3ec301	0.04657269
191	0x3d55cc17	0.05219659
192	0x3cd55b97	0.02604465
193	0xbdaf1c71	-0.08550347
194	0x3c03172d	0.008001131
195	0x3de7ccb3	0.1131834
196	0xbd397dec	-0.045286104
197	0xbe08798a	-0.13327613
198	0x3e67516d	0.22589655
199	0xbdff02f8	-0.12451738
200	0x3d79e445	0.06100871
201	0xbd3ebd69	-0.046567354
202	0x3c838d46	0.016058575
203	0xbd1f7ee2	-0.038939364
204	0xbd29a5c4	-0.041417852
205	0x3d4ca3d1	0.049960915
206	0x3d1ffa44	0.03905703
207	0xbc65667b	-0.014001484
208	0x3d981cae	0.07427345
209	0x3d8d449b	0.06897851
210	0xbcf128ee	-0.029438462
211	0xbcb8c817	-0.022556348
212	0xbe2eea4d	-0.17081566
213	0x3cf795a6	0.030222725
214	0x39dd19eb	0.00042171715
215	0x3dbea60f	0.09309017
216	0xbd2e3dda	-0.042539455
217	0xbd8713b3	-0.06595554
218	0x3d107689	0.035269294
219	0x3da86231	0.082218535
220	0x3dcdedfe	0.10055159
221	0x3f245bdb	0.6420266
222	0x3d7d7763	0.061881434
223	0x3c2b0827	0.010438955
224	0xbe5c4699	-0.21511306
225	0xbd0e43b2	-0.034732528
226	0x3d8821b8	0.06647056
227	0x3d8e93d2	0.06961788
228	0xbcb7ea81	-0.022450687
229	0x3f252024	0.6450217
230	0x3c9285ef	0.01788613
231	0xbcc3a06d	-0.023880208
232	0x3cbaee47	0.022818698
233	0x3dbb2921	0.09138704
234	0x3db30141	0.087404735
235	0x3db204eb	0.08692344
236	0xbd3bd49d	-0.04585706
237	0xbd1195ab	-0.035543125
238	0x3d340ba5	0.043956418
239	0xbc0f2e60	-0.008739084
240	0x3d62fc24	0.05541624
241	0xbd930cdc	-0.07180187
242	0xbca6aa23	-0.0203448
243	0xbe6232df	-0.22089718
244	0xbd498cc0	-0.049206495
245	0xbd3ca6cb	-0.046057504
246	0x3d7bb359	0.061450336
247	0x3c9b0b73	0.018926358
248	0x3ce1d65c	0.027568035
249	0x3d8bb9b6	0.06822531
250	0xbe40ff2a	-0.18847337
251	0xbd149ac0	-0.036280394
252	0x3e22f3f4	0.15913373
253	0xbc2b5923	-0.010458264
254	0x3d963d1c	0.073358744
255	0x3d3e352d	0.04643743

relational_model.layers.4.bias f4 [150]
0	0xbd49c637	-0.049261298
1	0x3d9ee5dc	0.07758686
2	0x3dc17522	0.094461694
3	0xbd552c7c	-0.052044377
4	0xbd798c66	-0.06092491
5	0x3d3c568c	0.045980975
6	0xbcfc48f5	-0.030796507
7	0xbd5b486e	-0.05353587
8	0x3d8ebc4d	0.06969509
9	0x3d9e492d	0.07728801
10	0xbc851295	-0.016244212
11	0x3da10395	0.07862011
12	0xbd1a3ff5	-0.03765865
13	0xbd951763	-0.07279851
14	0x3db4631d	0.08807967
15	0xbd818717	-0.063245945
16	0x3dd5bdd0	0.104365945
17	0x3d4eda32	0.050501056
18	0xbdcb45bc	-0.0992541
19	0x3d29ddcd	0.04147129
20	0x3d4773d2	0.04869444
21	0x3b8a4687	0.0042198333
22	0xbceaf8fe	-0.028683182
23	0xbcde130d	-0.027108693
24	0x3cd0c49e	0.02548438
25	0x3ce1d472	0.027567122
26	0xbde4d331	-0.11173094
27	0xbd3cfdce	-0.046140485
28	0x3c1a2f6c	0.00941072
29	0x3d9255db	0.07145282
30	0x3d1a49ac	0.037667915
31	0xbd962a65	-0.07332305
32	0xbd2c8fbc	-0.042129263
33	0x3b96d72a	0.0046032863
34	0xbc05ea4b	-0.008173536
35	0x3d88ab39	0.06673283
36	0xbd39ec27	-0.045391228
37	0x3d459774	0.04824014
38	0x3d5a0a7b	0.05323265
39	0x3de5f4ea	0.11228354
40	0x3dc79929	0.0974601
41	0xbc8f6832	-0.017505739
42	0xbc411a92	-0.01178612
43	0x3c85c1e0	0.016327798
44	0x3c9a6c59	0.018850492
45	0x3b515649	0.00319423
46	0xbc8ac020	-0.016937315
47	0x3df4ee67	0.11959534
48	0x3bf1e3a5	0.0073818737
49	0xbc6bf0e4	-0.0144006945
50	0xbd23f18a	-0.04002527
51	0x3d803fa3	0.06262138
52	0x3d924996	0.07142942
53	0xbd8901a6	-0.066897675
54	0xbdb024c5	-0.08600763
55	0x3ce113a7	0.027475191
56	0x3da87462	0.08225323
57	0x3d262208	0.0405598
58	0x3e020851	0.12698485
59	0xbd70cfc8	-0.058791906
60	0xbdd5ac5e	-0.10433267
61	0x3c2dc107	0.010605103
62	0x3dbf9df6	0.093563005
63	0x3dd129a3	0.1021302
64	0xbda7737a	-0.08176322
65	0xbce5d1e0	-0.028054178
66	0xbc42b410	-0.011883751
67	0xbcf3845b	-0.029726198
68	0xbcc23ba0	-0.023710072
69	0x3d2d0d7d	0.04224919
70	0x3dbf2369	0.09332926
71	0x3d8a77db	0.06761142
72	0x3d878077	0.066162996
73	0xbd08d0db	-0.033402305
74	0x3ca9fcdd	0.020750457
75	0x3c8e9b33	0.01740799
76	0x3d1f3e62	0.038877852
77	0x3d119eaf	0.035551723
78	0xbe6750be	-0.22589394
79	0x3d4a21fc	0.049348816
80	0x3dd65a75	0.10466472
81	0xbdbcf0d4	-0.09225622
82	0x3dd2d62f	0.102947585
83	0x3cc21bce	0.023694899
84	0x3d67fabc	0.056635603
85	0xbd8e14ac	-0.069375366
86	0xbd548f52	-0.051894493
87	0x3d3a2213	0.045442652
88	0xbdc1b4d1	-0.09458316
89	0x3dc2f6e1	0.09519745
90	0x3d84bc74	0.06481257
91	0x3d463bed	0.048396993
92	0xbcdfb5f1	-0.027308436
93	0xbc86505d	-0.016395742
94	0x3dcbf7a0	0.0995934
95	0x3d4fef1f	0.050765153
96	0xbcbe519b	-0.023232272
97	0xbd305173	-0.043046426
98	0x3d24eb78	0.040263623
99	0xbd5c76b8	-0.053824157
100	0xbcb67158	-0.022270843
101	0x3d359ea6	0.044340752
102	0x3df66aa7	0.12032061
103	0x3d315664	0.04329528
104	0xbcc8d458	-0.024515316
105	0x3d63f264	0.055651084
106	0x3d10bce4	0.03533639
107	0xbd0725a7	-0.032994892
108	0x3d7ec300	0.062197685
109	0x3c0bbbba	0.008528644
110	0xbd4f5620	-0.050619245
111	0xbdba1f30	-0.0908798
112	0x3d796647	0.060888555
113	0x3db2af30	0.087248206
114	0xbd987b9a	-0.0744545
115	0xbcd61a8d	-0.026135707
116	0x3d4d3b61	0.050105456
117	0xbd7d23ff	-0.061801907
118	0xbdc13151	-0.094332345
119	0x3d87a1a0	0.066226244
120	0x3d5bf7c7	0.053703096
121	0xbd06281c	-0.032753095
122	0xbd9c6a54	-0.07637468
123	0xbd8d6127	-0.06903296
124	0x3c038439	0.00802713
125	0xbcbdc06f	-0.023163049
126	0x3d71b86c	0.05901377
127	0xbdb74bee	-0.08950029
128	0x3cba3501	0.022730352
129	0xbd9ede6d	-0.07757268
130	0xbc962957	-0.01833026
131	0xbd834280	-0.06409168
132	0xbd29ebeb	-0.041484755
133	0xbc3ccb4e	-0.011523081
134	0xbc3a850d	-0.011384261
135	0x3dc5d7a2	0.09660269
136	0x3d0fc3a3	0.035098683
137	0xbe3e5b69	-0.18589558
138	0xbd347be2	-0.044063456
139	0x3cd8efac	0.026481472
140	0x3d805e6b	0.06268009
141	0x3d634960	0.055489898
142	0xbd9a590b	-0.07536515
143	0xbdb6899a	-0.08912964
144	0x3da3cd07	0.0799809
145	0xbc80234d	-0.015641833
146	0x3dec0bf5	0.11525718
147	0x3d851e47	0.064999156
148	0x3cfab7d4	0.030605234
149	0xbdb182ca	-0.08667524

relational_model.layers.6.weight f4 [1, 150]
0	0xbc6ba479	-0.014382475
1	0xbe116c25	-0.1420141
2	0x3e983a0b	0.29731783
3	0x3d2bebec	0.04197304
4	0x3d89d86e	0.06730734
5	0xbf3445cb	-0.70418996
6	0xbe2f5fce	-0.1712639
7	0x3e532af1	0.2062185
8	0xbeac4dbb	-0.33653054
9	0xbe982f81	-0.29723743
10	0xbca066f9	-0.019580351
11	0x3e12d0b0	0.1433742
12	0x3e09e0c9	0.13464655
13	0xbcb7185c	-0.022350483
14	0xbe5acc49	-0.21366991
15	0x3d2e2800	0.042518616
16	0x3eac9803	0.33709726
17	0x3e6d8dc9	0.23198618
18	0xbca9cbf7	-0.02072714
19	0xbd4b0255	-0.04956277
20	0x3e70dceb	0.23521774
21	0xbea61e30	-0.32444906
22	0xbf275103	-0.6535799
23	0x3d97aa9e	0.074055895
24	0x3ea01d58	0.31272388
25	0xbe9540f8	-0.2915113
26	0x3c93a3b4	0.018022396
27	0xbd1aaefd	-0.037764538
28	0x3ed60c9f	0.41806504
29	0xbf8ae296	-1.0850399
30	0xbe97cced	-0.29648533
31	0x3d0d59df	0.034509536
32	0x3c8aec3a	0.016958345
33	0xbe2c24d2	-0.16810921
34	0x3e85d037	0.26135418
35	0x3e4bf834	0.199189
36	0xbe3fd7ae	-0.18734619
37	0xbe3912e0	-0.18073606
38	0x3e712940	0.23550892
39	0x3e9f117e	0.31068033
40	0x3e8c0772	0.2734943
41	0xbed8998a	-0.4230464
42	0xbe9b342d	-0.30313244
43	0xbe4a3118	-0.1974529
44	0xbe5c6390	-0.21522355
45	0x3747a3a6	1.1899427e-05
46	0xbebb2742	-0.3655339
47	0x3e8a561b	0.27018818
48	0xbd5b6671	-0.053564493
49	0x3e3e868a	0.1860601
50	0xbe9946fa	-0.29936963
51	0x3f054c8b	0.5206992
52	0x3e79d660	0.24398184
53	0xbee2191f	-0.4415979
54	0xbcf3e90d	-0.029774213
55	0x3ecc0804	0.39849865
56	0x3e6b127c	0.2295627
57	0x3c28729f	0.010281234
58	0x3e84648a	0.25857955
59	0xbed513c4	-0.41616642
60	0xbad69a7a	-0.0016372942
61	0xbe575e7b	-0.21032135
62	0x3e9ca9e5	0.3059837
63	0x3edaf6a6	0.42766303
64	0x3c926ace	0.017873194
65	0xbeb12974	-0.3460194
66	0x3e65148c	0.2237112
67	0xbeaa0d6a	-0.3321336
68	0x3d680cc4	0.0566528
69	0x3e4aa5df	0.19789837
70	0x3e846881	0.2586098
71	0xbe46c3da	-0.19410649
72	0xbc6c94ac	-0.014439743
73	0xbecada3b	-0.39619622
74	0x3e650062	0.22363427
75	0xbf232b50	-0.63737965
76	0x3ea17bbd	0.31539717
77	0xbf2ba8fe	-0.67054737
78	0x3ed8ceea	0.42345363
79	0x3e9aa61d	0.3020486
80	0x3e89593d	0.26825896
81	0xbc508b02	-0.012728455
82	0x3e8cabed	0.2747492
83	0xbecd17a9	-0.40057114
84	0x3ea1fe97	0.3163955
85	0x3cc2cec7	0.02378024
86	0xbe5ff562	-0.2187095
87	0xbe807cb5	-0.25095144
88	0x3daf5854	0.08561769
89	0x3ea82d2b	0.3284696
90	0x3e900081	0.28125384
91	0x3e3c5280	0.18390846
92	0xbef97669	-0.48723152
93	0xbe86a630	-0.26298666
94	0x3ed08862	0.40729052
95	0xbe3a1c25	-0.18174799
96	0x3c4a355e	0.012341825
97	0xbe57fbd0	-0.21092153
98	0xbe5d7358	-0.21626031
99	0xbcd76e6c	-0.02629777
100	0x3e7cfda1	0.24706127
101	0x3e7c894e	0.24661753
102	0x3ee8c6f8	0.454643
103	0xbc07cdfd	-0.0082888575
104	0xbd519bee	-0.051174097
105	0xbed55fc4	-0.41674626
106	0x3b130188	0.0022431333
107	0x3e03658e	0.12831709
108	0xbe3bc094	-0.18335181
109	0x3e5ee430	0.21766734
110	0x3e8cb94f	0.2748513
111	0xbd50bd98	-0.05096206
112	0x3e5a6c3a	0.21330348
113	0x3e482059	0.1954359
114	0xbeadaf8c	-0.33922994
115	0xbea499e5	-0.32148662
116	0x3ec25898	0.37958217
117	0x3d5040ac	0.050842926
118	0x3a340a03	0.0006867947
119	0xbf03f8b4	-0.51551366
120	0x3e966ba0	0.29378986
121	0x3e60652e	0.21913597
122	0xbe827a73	-0.25484046
123	0xbc7c93e3	-0.015416118
124	0xbd3dcc7b	-0.046337586
125	0xbec4a91f	-0.3841028
126	0xbeb8b66b	-0.36076674
127	0x3b55d0e0	0.003262572
128	0xbd497412	-0.04918296
129	0x3d1bc86a	0.038032927
130	0xbc25a874	-0.010110963
131	0x3e2da326	0.16956767
132	0xbed66916	-0.4187705
133	0xbe765306	-0.24055108
134	0xbe415c54	-0.18882877
135	0x3ece3a41	0.4027882
136	0xbea020c3	-0.31274995
137	0x3eafa6d8	0.3430698
138	0x3e680b50	0.22660565
139	0x3df9bd4f	0.12194311
140	0x3e40d748	0.18832123
141	0xbef2e7a3	-0.4744235
142	0x3d830b68	0.0639866
143	0xbcbbd907	-0.022930635
144	0x3e4e230c	0.20130557
145	0xbe3ab4d7	-0.18233047
146	0x3eadb7c9	0.3392928
147	0xbe7784cb	-0.2417175
148	0x3ec4f9e6	0.38471907
149	0xbd82be34	-0.063839346

object_model.layers.0.weight f4 [100, 4]
0	0xbc64df40	-0.013969243
1	0xbe0ef01c	-0.13958782
2	0xbdfd45c0	-0.123668194
3	0xbe99f094	-0.3006636
4	0x3f325037	0.6965365
5	0x3bda1fd7	0.0066566276
6	0x3fbeadb2	1.4896758
7	0x3cd56db9	0.026053296
8	0xbf0c3f7c	-0.5478437
9	0x3eaca7cc	0.3372177
10	0x3f15d34a	0.58525527
11	0x3eb21ff3	0.3479
12	0x3e50cd87	0.20390902
13	0x3c0cf46c	0.008603197
14	0x4026cd4a	2.6062799
15	0xbfbe99d6	-1.4890697
16	0x3d1346cb	0.035956185
17	0x3e01ed49	0.12688173
18	0xbe99ac6a	-0.30014354
19	0xbe97ecaa	-0.29672748
20	0xbf05070b	-0.5196387
21	0x3e905e2c	0.28196847
22	0xbe972801	-0.29522708
23	0xbe93e16e	-0.28882927
24	0x3f23b97a	0.6395489
25	0x3e057456	0.1303266
26	0x3f6bb682	0.9207536
27	0x3e6f77ad	0.23385496
28	0xbf79fc77	-0.97650856
29	0x3bebef1e	0.007200136
30	0x3ebb76ad	0.3661398
31	0x3dddd627	0.10831862
32	0x3eb1dd9d	0.3473939
33	0x3eaab3ec	0.33340394
34	0x3ec7f13a	0.3905123
35	0xbf1e0d7a	-0.61739314
36	0x3ec4ef3f	0.3846378
37	0x3d7d36cc	0.061819836
38	0xbe90b477	-0.28262684
39	0xbee70da1	-0.45127586
40	0xbfb8c2de	-1.4434469
41	0x3e97d305	0.29653183
42	0x3da4487e	0.08021639
43	0x3ebc5e0a	0.36790496
44	0xbf42bd68	-0.7607026
45	0xbdce4527	-0.100717835
46	0xbe12e1f7	-0.14344011
47	0x3e805864	0.25067437
48	0xbf2c3c59	-0.67279583
49	0xbc15d687	-0.009145386
50	0x3f7d0c6a	0.9884707
51	0xbd1c888b	-0.038216155
52	0x3e94bd3f	0.29050633
53	0xbdcc07b5	-0.099624075
54	0x3f14f24e	0.5818223
55	0xbe97ab91	-0.29623082
56	0xbd9a8963	-0.07545736
57	0x3d89c6c5	0.067273654
58	0x3e2a2714	0.1661647
59	0x3ea0f8bd	0.31439772
60	0xbec44668	-0.38334966
61	0x3dea8838	0.11451763
62	0xbe9ddda0	-0.3083315
63	0xbebe002c	-0.37109506
64	0xbf216a74	-0.6305306
65	0xbd285e13	-0.04110534
66	0x3f414114	0.75489926
67	0xbe632a8f	-0.22184204
68	0x3eefe76f	0.46856257
69	0x3e365bcf	0.1780846
70	0x3fad66f2	1.3547041
71	0x3e4bbd2b	0.1989638
72	0x3e7c12f2	0.24616602
73	0x3e9b6dc2	0.30357176
74	0x3f044d9d	0.5168093
75	0x3e14fe3d	0.14550109
76	0xbecb20da	-0.396735
77	0xbe2882ff	-0.16456221
78	0x3f1897bc	0.5960653
79	0xbe6517c9	-0.22372355
80	0x3eb053d5	0.3443896
81	0xbaae8a10	-0.0013316292
82	0xbfac0af8	-1.3440847
83	0xbbd0f0d5	-0.0063763657
84	0x3de1dbf2	0.11028279
85	0xbec807de	-0.39068502
86	0xbf192d5e	-0.5983485
87	0x3ec89c09	0.39181545
88	0xbef2d086	-0.47424716
89	0xbe40e2a8	-0.18836462
90	0x3ee32560	0.44364452
91	0xbef154fc	-0.4713515
92	0xbf1adb19	-0.60490566
93	0xbec0246b	-0.37527785
94	0x3f541353	0.82841986
95	0xbc863dad	-0.016386831
96	0x3e19f5e9	0.15035214
97	0x3db6f816	0.089340374
98	0x3f63b9d5	0.8895543
99	0x3ecbbd98	0.39793086
100	0x3e73bede	0.23803279
101	0x3ed4d46f	0.41568324
102	0xbec1dabf	-0.37862203
103	0xbdcaf7dc	-0.09910557
104	0xbfb8adef	-1.442808
105	0x3ea210b1	0.3165336
106	0xbed59a62	-0.41719347
107	0x39d8c4ac	0.00041345262
108	0x3fb81291	1.4380666
109	0xbc4820b1	-0.0122148255
110	0xbfa907ec	-1.3205543
111	0xbf833248	-1.024972
112	0x3f6781c5	0.9043239
113	0x3dfb5a51	0.12273086
114	0xbecd33f9	-0.40078714
115	0xbf3dd4e2	-0.7415296
116	0x3f04e087	0.519051
117	0xbf0b0a6b	-0.5431277
118	0xbefba499	-0.49149016
119	0xbee25d46	-0.44211787
120	0xbe285a00	-0.16440582
121	0xbdebfec8	-0.11523205
122	0x3d767990	0.060174525
123	0xbec65c76	-0.38742417
124	0xbeea2f43	-0.45739183
125	0xbe7f51e1	-0.24933578
126	0x3f29801b	0.662111
127	0xbf111246	-0.5666851
128	0x3f0627d3	0.52404517
129	0xbe8b42e4	-0.2719947
130	0x3f45a3bb	0.7720296
131	0x3e01da9f	0.12681054
132	0xbec2ce54	-0.3804804
133	0xbe70ff74	-0.23534948
134	0x3dcdf7b8	0.10057014
135	0xbe94b89c	-0.29047096
136	0x3f60c2b8	0.8779712
137	0x3ea59579	0.323406
138	0xbc9c7d39	-0.01910268
139	0x3e0513ba	0.12995806
140	0x3ed1350d	0.40860787
141	0xbea06702	-0.3132859
142	0xbf9f2741	-1.2433854
143	0x3e8ad66c	0.27116716
144	0xba173000	-0.00057673454
145	0x3e4bde24	0.19908959
146	0xbe6780f8	-0.22607791
147	0xbeedd9d6	-0.46455258
148	0x3df6ffc8	0.12060505
149	0xbe207244	-0.15668589
150	0x3e93127a	0.28725034
151	0xbe1ac384	-0.15113646
152	0x3df7fb4a	0.121084765
153	0xbede099a	-0.433667
154	0x3f47575d	0.7786768
155	0xbefca034	-0.49340975
156	0xbf3251f6	-0.6965631
157	0xbde553cc	-0.111976236
158	0x3f802121	1.001011
159	0xbe70c31f	-0.23511933
160	0xbd9e7ea7	-0.07739001
161	0xbd9d3330	-0.07675779
162	0x3c4336ab	0.011914889
163	0xbef24271	-0.47316316
164	0x3eede209	0.46461514
165	0xbe558f85	-0.2085553
166	0x3f634bf7	0.8878779
167	0xbd3bae05	-0.045820255
168	0x3f1be7b0	0.609004
169	0xbda366ea	-0.07978614
170	0x3d131d58	0.035916656
171	0xbec16469	-0.3777192
172	0x3f15002c	0.5820339
173	0xbdc9c810	-0.09852612
174	0xbf5f8a23	-0.87320155
175	0x3e2d84f5	0.1694525
176	0xbe382d3f	-0.1798601
177	0xbe851e5c	-0.25999725
178	0xbf94d784	-1.162827
179	0x3e6aab47	0.229169
180	0xbe8ea2c6	-0.2785856
181	0xbde05f80	-0.10955715
182	0xbfb6332a	-1.4234364
183	0xbe8f67ea	-0.28008968
184	0xbeb4dbba	-0.35323888
185	0x3d9e6968	0.077349484
186	0x3e99788e	0.29974788
187	0xbe3d6c78	-0.18498409
188	0x3ef7257e	0.48270792
189	0xbd179efa	-0.037016846
190	0xbf71672c	-0.9429805
191	0xbe1e229c	-0.1544289
192	0xbeabe46e	-0.33572716
193	0xbe0cc332	-0.13746336
194	0x3f6f8287	0.93558544
195	0x3e4d115b	0.20026152
196	0x3e41de17	0.18932377
197	0x3bd1f9b9	0.006407943
198	0xbd4c226d	-0.04983752
199	0x3dd05a69	0.10173494
200	0xbedf5106	-0.43616503
201	0xbec3a887	-0.38214514
202	0xbf0aa4c3	-0.54157656
203	0xbe8da08a	-0.27661544
204	0xbe0973fb	-0.1342315
205	0x3e9e9a51	0.3097711
206	0xbee30b7e	-0.44344705
207	0x3ead09ff	0.3379669
208	0xbe8b5a2c	-0.27217233
209	0xbec987b4	-0.39361346
210	0xbe5a0e9c	-0.21294636
211	0xbe9d3ece	-0.3071198
212	0xbcec9bd3	-0.028882897
213	0xbec67a62	-0.38765246
214	0x3e2c59e4	0.16831166
215	0xbe46d62c	-0.19417638
216	0x3f634993	0.8878414
217	0x3b64739b	0.0034858945
218	0x40126cd2	2.2878919
219	0x3c2cb2d3	0.010540682
220	0xbd97e0d8	-0.074159324
221	0xbea178b2	-0.31537396
222	0x3ea6d964	0.3258773
223	0xbeecbf84	-0.46239865
224	0xbe0f0b08	-0.13969052
225	0xbeb754b6	-0.35806817
226	0xbf5b4e4a	-0.85666335
227	0x3e9c6223	0.30543622
228	0x3e4fdc97	0.20298992
229	0x3ded57ad	0.115889885
230	0xbf2595fe	-0.64681995
231	0x3ebfc10c	0.3745197
232	0x3d4e741e	0.050403707
233	0xbeacb537	-0.33732006
234	0xbeeddb6c	-0.46456468
235	0xbe24b326	-0.16083965
236	0x3eba261e	0.36357206
237	0x3eb60db0	0.35557318
238	0x3fd317f2	1.6491683
239	0xbeacaeac	-0.33727014
240	0x3e8b217f	0.27173993
241	0x3c2b1938	0.010443024
242	0xbfc5fd11	-1.5467855
243	0xbf1543f4	-0.58306813
244	0xbd7c6e0c	-0.061628386
245	0x3e15e9ba	0.14639941
246	0xbebbb1ef	-0.3665919
247	0xbeef8e94	-0.46788466
248	0xbefa71ce	-0.4891495
249	0x3e6727f4	0.22573835
250	0xbf444f2a	-0.76683295
251	0x3dd63ba2	0.10460593
252	0xbf2e18c7	-0.6800656
253	0xbd1de6c8	-0.03855017
254	0x3d0073e1	0.03136051
255	0x3e1a9940	0.15097523

object_model.layers.0.bias f4 [100]
0	0xbebb6cfe	-0.36606592
1	0x3e2c621f	0.16834305
2	0xbe4134b9	-0.18867768
3	0x3dedb8b1	0.11607493
4	0x3e405264	0.1878143
5	0xbea9f968	-0.33198094
6	0x3ebd59f5	0.36982694
7	0x3e07900d	0.13238545
8	0x3e7dfa12	0.24802426
9	0x3ee38fdf	0.44445702
10	0x3e89fe84	0.26951993
11	0x3efa3250	0.4886651
12	0x3f1454c7	0.5794186
13	0x3eb90d59	0.36142996
14	0xbce9009d	-0.028442675
15	0xbee95408	-0.45571923
16	0x3dd3ec17	0.10347765
17	0xbd671b5b	-0.056422573
18	0xbda784b0	-0.08179605
19	0xbe9d315c	-0.3070172
20	0x3e56b104	0.20965964
21	0xbd0b70b2	-0.03404302
22	0x3ea0cb7a	0.3140524
23	0x3e8c4ac3	0.2740079
24	0x3ecb0e21	0.39659217
25	0xbf039973	-0.5140602
26	0xbe50e1f2	-0.20398691
27	0xbdd6b51e	-0.10483764
28	0x3e955d59	0.2917278
29	0xbea7c74f	-0.32769248
30	0xbec79584	-0.3898126
31	0xbd52ed26	-0.051495694
32	0x3ebdab11	0.37044576
33	0xbed0b1a2	-0.40760523
34	0xbd43767e	-0.047720425
35	0xbe86db2a	-0.26339084
36	0xbedd7988	-0.43256783
37	0xbec7e7f4	-0.39044154
38	0xbe81afd7	-0.25329468
39	0x3eaad799	0.33367613
40	0x3ecc2d39	0.39878252
41	0x3e6926ec	0.22768754
42	0x3e902b69	0.2815812
43	0xbc160244	-0.009155814
44	0xbe59c1e3	-0.21265368
45	0x3e2a3ac2	0.16623977
46	0xbeb781c6	-0.35841197
47	0xbe8ee4b5	-0.27908865
48	0x3dfe358d	0.12412558
49	0x3e3a31c2	0.18183044
50	0xbd521e7f	-0.051298615
51	0xbdbfe5a7	-0.093699746
52	0xbef96962	-0.48713213
53	0x3e1b016a	0.15137258
54	0x3e35ef87	0.17767154
55	0xbef8897c	-0.48542392
56	0xbe951358	-0.2911632
57	0x3e03c44f	0.12867855
58	0x3d957a9d	0.07298777
59	0x3e9caa32	0.305986
60	0x3daa93a9	0.08328945
61	0x3eb66d8a	0.35630447
62	0x3ecce395	0.4001738
63	0xbe09db2b	-0.13462512
64	0xbe52e039	-0.20593347
65	0xbe8db723	-0.27678785
66	0xbe83722b	-0.2567304
67	0x3ec5a4d7	0.38602325
68	0xbe8a65f1	-0.270309
69	0x3d9514d4	0.07279363
70	0x3eb6f756	0.35735577
71	0xbe9d821a	-0.30763322
72	0xbee86e2b	-0.4539655
73	0xbe751e75	-0.239374
74	0x3eb28d62	0.34873492
75	0xbefe6d18	-0.49692607
76	0xbeba646e	-0.36404747
77	0xbe8db04b	-0.27673563
78	0x3e9b735e	0.30361456
79	0x3c36d21e	0.011158494
80	0xbe965a8c	-0.29365957
81	0x3e7dc41f	0.24781846
82	0xbaaa713b	-0.0013003716
83	0xbebe0a71	-0.3711734
84	0xbe7f86cf	-0.24953769
85	0x3df2f1f8	0.11862558
86	0x3eb04104	0.34424603
87	0x3e5a142e	0.2129676
88	0x3e8a74bc	0.27042186
89	0x3eae5e4d	0.3405632
90	0x3e0ee9c9	0.1395637
91	0xbefd3a3e	-0.49458498
92	0x3c8b2c26	0.016988825
93	0x3d2ddddf	0.04244792
94	0xbf0515d2	-0.5198642
95	0xbd2bb54b	-0.04192094
96	0x3ec66aa4	0.38753235
97	0x3b999bc0	0.0046877563
98	0xbe441f01	-0.19152452
99	0xbeb836d4	-0.3597933
