trained_models/LP_2_600_epoch500.pt (torch_old, 192257 bytes, 11 tensors)

relational_model.layers.0.weight f4 [150, 7]
00000000: ac12 96be 1a5d 593e 2a8a 92bd 3824 293d
00000010: dbdd b93e 2b0f b03e 57af 5cbe ee9f af3d
00000020: 2e4b 9d3e 51d1 103e f3e6 a4bc b2c9 34be
00000030: 7b0f c0bd 4895 153d 1725 1c3d 111d f53e
00000040: 406d 8bbe c8a7 243d c974 89be 2f2a 723e
00000050: 3c7a a4be f656 013e 59d7 913e 4965 d23d
00000060: c3df 7a3e 117f 91be a2ed 34bc 9635 29be
00000070: 7bc5 843e 0196 0abe bcd7 06bd 8f71 8ebe
00000080: e24c a0be bb0c c4be b838 33bd 7ef2 ddbe
00000090: 3a4e e03c e205 823e dc99 163e f428 233e
000000a0: 930a f9bc 2320 a13e bcd0 533e 1d6c 6dbe
000000b0: f841 63be bcc2 92be 90f0 5abe f66d c93e
000000c0: 00ff e8ba 20ea 303e 4545 4d3e 66ef 92be
000000d0: 2c36 6abd 1b13 afbe 44cf 42bd ecbc b53d
000000e0: f34a 833e 8195 a43d 5257 1ebe a8e5 56be
000000f0: e1b6 f6be ed6d c03c 0f45 ba3e 840c ab3e
00000100: a524 02be 3143 3b3e 3630 44be cb1d 003e
00000110: efd9 08be 9cb1 a33d c8b8 c7be 388f 20bf
00000120: 3707 2ebd 07f0 63be 371b b63e 7977 683d
00000130: 1a77 373e 2bc7 e8be 96de c1be 5cc2 00be
00000140: d81f a6be 0d18 09be 6021 9b3e 015a 8bbe
00000150: ce06 26be b070 f63e 0c7f 9ebe 2d51 7fbe
00000160: 8714 35be fc23 893e 7883 07bd 15d8 a03e
00000170: 8cfc 613e 7279 a03e e4e0 ab3e 84e0 2b3e
00000180: 0458 74be 4938 aa3e 2117 05bf 8dfb 4abe
00000190: 6670 e13e f487 823e 10a3 393e 4415 f4bd
000001a0: e6db 723e eef9 8f3d 03db c23d 5103 483e
000001b0: ff3c 43be 1157 c3be 697c 193e 8893 d1bd
000001c0: a874 8fbe 9aac 623e 8899 bd3e 66a0 2fbe
000001d0: 57b6 ba3e bf6b e8bd 9ec9 0e3e 396f 3cbe
000001e0: 909a cf3c 361e d7bd 9b75 2fbe a7d5 57be
000001f0: ee68 573e cff8 a83e 9399 903a ad5b 2c3e
00000200: e042 0bbc 30a0 853a ec2d 963e 0049 d0bd
00000210: 5864 b2bd 0b08 d33e dbcd a53b 2156 263e
00000220: 4461 67bc 8699 ac3e fab5 e2be c690 4a3e
00000230: 29a2 57be 1b52 47be a3d9 a4be 3c6e fbbc
00000240: cf74 4a3b 6d72 843e 5d74 a6be 6456 72be
00000250: d0a5 333d 3cb9 cc3d 161e 523e d08d 933e
00000260: 675f b5be ce52 593e ef6c 503e 81f4 1fbe
00000270: d245 9b3e 82bf 083e fa7f 9e3d 9bd5 bd3e
00000280: 0b85 a6be b06e bf3e 35eb 803e 4f95 fc3d
00000290: 908b 343e 0f3c 82be 080c 37be b8b6 90be
000002a0: 98a1 27be 6e0e 623e 3b91 1a3e 7ada c1be
000002b0: dc27 b0bd 14a6 d3bc 6b0a a23e 2469 e8be
000002c0: c060 3abe 9d40 d03e 1c0a a7be df94 3abe
000002d0: 6650 ee3d a7d3 813e 6082 60be 3956 febd
000002e0: 9390 d23e 3bd7 a3be 1d0c 6ebd 0c5b d33d
000002f0: da4d 2a3e 8aa6 703e 1fe8 1dbe e96e 82bd
00000300: 2adb c93c 9432 773e 0ec3 76be 84d1 b4bd
00000310: a7ee a6be f456 d03d ea8b e1bd bd88 943e
00000320: 8d30 9ebe d474 c53d 835b 0fbe 2f07 98be
00000330: 12ac c0be 3df7 023f 3938 52bd 13f0 ce3c
00000340: 298c 073e af79 5cbe ce4c 9a3d 2d28 33be
00000350: dc8f 7a3c 6c79 2d3c cb17 86be 2290 14bd
00000360: db5e 9fbe 55b2 703e 71ea c5bd 2a52 8e3c
00000370: c787 f7bc 4050 a6be 9049 e7bc 34cc e2bd
00000380: d59c 2a3e 7cd9 cbbd 4b16 2d3c 8efb a53e
00000390: 7a61 033e 41f5 b3be 0670 bdbe ac3d ce3e
000003a0: a83a b9bc c6e0 103f a333 8dbe c732 ddbe
000003b0: 34c3 813e 06e5 4abe 6c2d 483d e6ba a9bc
000003c0: 4b65 8a3d a161 803e 6230 01be db2b 36be
000003d0: f2e4 513e d663 273e 504e a93e 0968 b43e
000003e0: fb9d 61be 8c18 07bf c765 a33e 9ad6 66be
000003f0: 4156 3dbe 160f 603e a5bb 98be 6fcf 90bd
-0.2931112 0.21226922 -0.07155259 0.041294307 0.36302075 0.34386572 -0.21551262 0.08575426
0.3072142 0.14142348 -0.020129656 -0.17655066 -0.09377953 0.03651932 0.03812131 0.47873738
-0.2723179 0.04019907 -0.26846913 0.23648904 -0.32124507 0.12630829 0.2848461 0.10273225
0.24499421 -0.28417256 -0.011042984 -0.16524348 0.25931916 -0.13533784 -0.032920584 -0.27821013
-0.31308657 -0.38290963 -0.043755263 -0.4334907 0.027381051 0.25395113 0.1470713 0.15933591
-0.03040055 0.3146983 0.20685095 -0.23185773 -0.22193134 -0.28664196 -0.2138083 0.39341706
-0.0017776191 0.17276812 0.20045955 -0.28698272 -0.05718057 -0.34194264 -0.047560945 0.088739246
0.2564312 0.08036328 -0.15462998 -0.20986044 -0.481864 0.023489917 0.36380813 0.33407986
-0.12709291 0.1828735 -0.19159016 0.12511365 -0.13364385 0.07992861 -0.39008164 -0.62718534
-0.04248735 -0.22259532 0.35567638 0.056754563 0.17916527 -0.45464453 -0.37865132 -0.12574142
-0.3244617 -0.13388081 0.302989 -0.27217105 -0.16213533 0.4813285 -0.30956304 -0.2493331
-0.17683612 0.26785266 -0.033084363 0.31414858 0.22068995 0.31342655 0.33570015 0.16784865
-0.238617 0.33246067 -0.51988417 -0.19822522 0.44031066 0.2549435 0.1812861 -0.119181186
0.23716697 0.07030092 0.095144294 0.19532515 -0.19066237 -0.38152364 0.14988865 -0.102332175
-0.2801869 0.22136155 0.37031198 -0.17151031 0.3646724 -0.11348676 0.13944098 -0.18401803
0.025342256 -0.10503809 -0.17134707 -0.21077596 0.21036121 0.33002326 0.0011032097 0.16831847
-0.008499831 0.0010194834 0.2933191 -0.10170174 -0.08710545 0.41217074 0.0050599403 0.16243793
-0.014122311 0.3371088 -0.44279462 0.19781789 -0.21057953 -0.19464915 -0.32197294 -0.030692212
0.0030892377 0.2586855 -0.32510653 -0.23665768 0.043859303 0.09996268 0.2051929 0.28819132
-0.3542435 0.21222994 0.20354055 -0.15620615 0.30326706 0.13354304 0.07739253 0.3707703
-0.3252338 0.37389135 0.2517945 0.12333166 0.17631364 -0.25436446 -0.17875683 -0.28264403
-0.16370237 0.22075817 0.15094464 -0.37861997 -0.086013526 -0.025836028 0.31648573 -0.45392716
-0.1820097 0.40674296 -0.326249 -0.18220852 0.116364285 0.2535679 -0.21924734 -0.124187894
0.41125926 -0.32000145 -0.05811702 0.103201 0.1663126 0.2350103 -0.15420578 -0.06368811
0.024640638 0.24140388 -0.24097845 -0.088290244 -0.32603952 0.10172835 -0.110130146 0.29010573
-0.30896416 0.09641424 -0.13999753 -0.2969298 -0.3763128 0.51158506 -0.05132315 0.02526096
0.1323706 -0.21530794 0.075341806 -0.17495795 0.015293088 0.010588031 -0.26190028 -0.03627027
-0.31127056 0.23505528 -0.09663857 0.017373163 -0.03021611 -0.324831 -0.02823332 -0.11074105
0.16661389 -0.09953591 0.010564397 0.32418483 0.12830153 -0.3514805 -0.3699953 0.40281427
-0.022610977 0.5659298 -0.27578458 -0.43202803 0.2534424 -0.19813928 0.048871443 -0.020719003
0.06757601 0.25074485 -0.12616113 -0.17790167 0.20497492 0.16346678 0.3306756 0.35235623
-0.22032921 -0.5277183 0.31913587 -0.22542801 -0.18489935 0.21880755 -0.2983066 -0.07070815

relational_model.layers.0.bias f4 [150]
00000000: 73a7 f23d c4dd 243e a61b 8bbe 05f7 873e
00000010: 7599 3a3e 75e1 bd3c 54f5 933e 35fa 4a3e
00000020: 59d8 933e a6a5 a63d 1e33 71be b987 cfbe
00000030: 487a a1be b349 a7bc 2a22 a9be fbe0 b33e
00000040: f9b8 a7bd cbd8 8d3e c0d4 7abe 8895 85be
00000050: 8935 043e cf24 a7be 3bea a03d 96ba 8a3e
00000060: 5f20 9e3e 4594 7fbe c91f fe3c 6202 9dbe
00000070: 353e 533e 6126 793d 8912 523e 37f2 a43e
00000080: e117 96be 5294 9cbd fb31 f73d 59cd 3dbe
00000090: 627f bebd 69e9 e13d b718 a3be 9f9a 83be
000000a0: be5b bb3c aee2 d23d c419 153e 4648 bc3d
000000b0: dbd4 f4bd f713 a83e dda5 85be 9c93 29be
000000c0: 6a7d 24be c35d a93e fa82 40be c008 81be
000000d0: ddd8 9fbe 4f7d f03e 77bf e03d 5675 8dbe
000000e0: bd98 88bc d81d 453d 259f 1dbe 5109 32bd
000000f0: 6bfe 4a3b 7b7e a5bd 11e2 20be 4a12 bebe
00000100: d900 003e 2852 0a3e 14e7 03bf dee7 58bd
00000110: f217 1d3e f857 7c3e fe71 40be df87 16be
00000120: ea8c d6be 3719 52be 991d b6be 1109 8f3c
00000130: e51a 72be 6040 b0bd 11a9 84be 31f9 953c
00000140: 0524 143e eda4 10be 9c71 a73d 4795 ff3d
00000150: 710b 303d 5a4f 573e ff48 eabe 7596 24be
00000160: f7ab e9bd e47c 34be 5771 9fbe 57ef 2d3e
00000170: eb44 df3d a9b1 303e 31f1 86be 67f3 69bd
00000180: db29 80be c377 11bf df88 f83d d1f4 e3be
00000190: 07d3 18bd dad9 88bd 275c 28be 9326 30bf
000001a0: 6c45 f9bd a01c 783e ffc8 bdbe 696d a53e
000001b0: 0f2e 2b3d c9ec c8be 9fc7 52be b290 a13e
000001c0: 5dad 80be c9e4 debd 798b 6fbd f17c 12be
000001d0: 6b96 8f3e e0e0 3ebe 5dc6 62be a82c 0cbe
000001e0: b568 a8be 0b96 9abe 3ee7 92be 0bc8 66be
000001f0: 63ce eb3c a56e 45bc 18e4 93be e03f 87be
00000200: c644 87be c9bf 7fbe 375b 0c3e e7d6 65bd
00000210: df24 43be 482e cfbe 1886 0bbe 3c7f c93c
00000220: 20f9 bb3c b914 e33d eb78 e33e 693a b9bd
00000230: 81e6 e3be a494 6d3e d7a6 5dbe 89e1 883e
00000240: c20c 85be fad2 913d 5be6 2f3e b68d 18be
00000250: ed5b bfbe f88a 9c3e
0.11848345 0.16100222 -0.27169532 0.26555648 0.18222602 0.023178795 0.28898108 0.19822009
0.28875998 0.08137064 -0.23554656 -0.40533236 -0.31538606 -0.020420885 -0.33033878 0.35132584
-0.081895776 0.27704462 -0.2449522 -0.26090646 0.12911047 -0.3264527 0.07857176 0.2709548
0.30884072 -0.24958904 0.031021016 -0.3066588 0.20629199 0.060827617 0.20514883 0.32216045
-0.29315093 -0.07645477 0.1207008 -0.18535365 -0.0930164 0.110308476 -0.31854793 -0.25703904
0.022870895 0.10297142 0.1456061 0.091934726 -0.119546615 0.32827732 -0.26103106 -0.16560215
-0.16063467 0.33079347 -0.18799964 -0.25201988 -0.3122014 0.46970603 0.10974019 -0.27628583
-0.016674394 0.048124164 -0.1539274 -0.043465916 0.0030974399 -0.08080765 -0.15711237 -0.37123328
0.12500323 0.13507903 -0.5152447 -0.0529555 0.15341166 0.24642932 -0.18793485 -0.14700268
-0.41904384 -0.20517431 -0.35569456 0.017460378 -0.23643072 -0.086060286 -0.25910237 0.0183073
0.14466865 -0.14125414 0.08175966 0.12479644 0.04297966 0.21026364 -0.45758817 -0.1607302
-0.11409753 -0.17625767 -0.3114116 0.16985832 0.10901817 0.17255272 -0.2635589 -0.057116892
-0.25031933 -0.56823367 0.12135481 -0.44522718 -0.037310626 -0.06682177 -0.16441403 -0.6880886
-0.12171444 0.2422967 -0.3706741 0.32310036 0.04179197 -0.39243153 -0.20583962 0.31555706
-0.25132266 -0.10883481 -0.05848262 -0.14305474 0.28044447 -0.1864047 -0.22145982 -0.1368891
-0.32892385 -0.301926 -0.2869205 -0.22537248 0.028784936 -0.0120503055 -0.2888496 -0.2641592
-0.26419657 -0.24975504 0.1370667 -0.05611315 -0.19057034 -0.40464997 -0.13625371 0.024596803
0.02294594 0.11087937 0.4442819 -0.09044344 -0.44511798 0.23201233 -0.21645676 0.2673457
-0.25986296 0.07120319 0.17177717 -0.14897808 -0.3737482 0.30574775

relational_model.layers.2.weight f4 [150, 150]
00000000: 8e71 a43d 9715 e4bd d943 df3c dfd8 b13b
00000010: 2284 7c3d ca1f dabc 4c56 9fbd 9a91 ebbd
00000020: 812d 413e c5a5 a0bd 0e9d 9d3e 4ad2 80bd
00000030: a48a 90be ac7e b1bc 2e49 e4bd 650c c7bd
00000040: c256 46bd a3d8 923d 34b3 3ebc 04aa b3bd
00000050: 96a4 553e 7430 55bd 37de 1b3e b25c d0bd
00000060: a7f4 35bd 8e4b 363d 10a5 873d 6602 03be
00000070: ad21 033d 2303 5f3c 8c08 d43d b8a8 b53d
00000080: 0486 8dbd 374d 113e 4730 8ebd dae7 8fbd
00000090: 4741 813c 2008 73be ff45 29be ee23 ff3d
000000a0: b764 91bd d75f 16be 3aeb 0b3e 4020 9dbd
000000b0: 4f83 033d 9882 b3bd 5fa7 693e d9db 903e
000000c0: 423d 93bd 7a26 11bd 9ea6 50bb 83ec 3dbb
000000d0: 7b64 7abe 7dff 6cbc 9d6e 58bd a0af e9bd
000000e0: 2874 3d3e 4978 88bc e207 2bbc 048e 7fbb
000000f0: a088 24bf 0c19 d43e e6d8 dcbd 6b2e a23e
00000100: 882c f43c 67a1 0bbd c457 933e 48d8 3ebd
00000110: 406f c73c 47ba c7bc c250 aa3c 3bd1 d63d
00000120: 350f a33d 2f90 28bf ec47 593d ccd1 43bc
00000130: 23d1 98bd 099c 55be 68fc 0ebd 14ac 1e3e
00000140: 8021 073d e74a 1bbe 92a3 13be b8da baba
00000150: 61a6 9abd 8596 43be c0c5 90be 5760 9abd
00000160: 7f5d 483f 1778 9bbc 736a 21bf d6e4 cd3c
00000170: 3bc7 9e3d 0bc7 ff3d 5208 963e a14b 93bd
00000180: b211 6b3e abf4 1a3e 61fb acb9 630d 0d3e
00000190: d50d 843d a84a c13e 8413 23be 34e5 a53e
000001a0: 28d2 7ebd 2953 20bc e7c8 913d 4717 ddbd
000001b0: 37ad 723d 19af b53d 402f 9cbb 30d4 cd3c
000001c0: 2db9 063d bb78 28be 6e06 78be 81c9 bc3d
000001d0: a2b1 b43d 9e01 003e 2882 1d3e a0fa e8be
000001e0: aad0 843c 4823 043e 0afc 353d fb36 4cbd
000001f0: 7bcc ffbd 3d21 423d 6a5a fbbd 405b 5abd
00000200: 9596 71bd a87a fa3c 2d1a 6c3d 1122 28bd
00000210: f27d 823d a2b4 d2bc bfa1 1cbd 6d9e c2bd
00000220: 2921 533d d9c6 a83e 853e e7bc c6fb 87bf
00000230: 922c 42bd e74c 5a3c 2172 3cbd 6444 32be
00000240: d7b9 6ebe 0197 d23d 3761 0abf 52d7 0ebe
00000250: 9301 ba3d ef6c 603d 19fb 52bb c0fe 0abe
00000260: 9381 fe3e 194b 0dbe 93f4 3b3d b400 db3d
00000270: 37c5 aebe 1de9 e33c d6bd a7bd 0098 9dbd
00000280: 9d6f 48bd edd1 50bb 1096 4a3e c255 49bd
00000290: 4cc5 3ebe 2f1c a2bd a8ab 273e 88d6 6cbd
000002a0: a2a8 523d 263d 733d 1e14 c93c 41fd 5e3d
000002b0: 9ad5 383e e6c7 47be e504 44bd c2f8 803d
000002c0: 9868 873d 1434 d53d fd03 36bc 0951 a9be
000002d0: f3c8 d73c 3943 9ebd 4068 e33d 4765 2cbe
000002e0: 796a bcbd 2296 d5bd b89d 013d 5664 d83c
000002f0: 2831 7b3d 7ea8 de3d 4aa5 83bd 4523 44bd
00000300: fd53 ea3d 9830 8abc 81c0 22be ce49 bfbd
00000310: 1eed ebbc 75c0 9f3d e8a9 bb3d 6b8b 2fbe
00000320: bcc1 c73d 941b 21be 0353 3c3e a2f6 aa3c
00000330: 1838 023d fb66 863d ef6e 23bd 26c7 62be
00000340: 7c87 0abd 9dd3 133e 6126 a93c 75de a53d
00000350: fc78 bdbe 05a0 a2bc c801 a83c 93d2 d9bc
00000360: 9c2d f9be 9512 9abc e280 a83b 5281 2c3c
00000370: e1d3 0bbd 1179 4d3d c4a9 42bd 787f 2dbe
00000380: 76fd dbbd 3690 d4bc 0864 263a 7f99 a5be
00000390: b4da 2cbd 7283 143d ebea 0ebc 1801 fd3d
000003a0: 7fcf 6abd b197 4abd e5b0 653d 41e2 0d3e
000003b0: 7a19 cf3e 06bd 063e 0a62 f93e acb4 d83d
000003c0: 3db0 4dbc 4c33 f1bd 6998 44bc 3c9f 643e
000003d0: effa dc3d af08 a7be 4825 283d 38dc 4fbf
000003e0: 0258 94bd fa7c c93b 8aba 163e 518a e33c
000003f0: 780d e33d 808f 1e3d 9a55 51bd b801 223d
0.08029471 -0.111369304 0.027254032 0.0054274644 0.06164945 -0.026626486 -0.07780132 -0.11502381
0.18865015 -0.07844118 0.30783886 -0.062901095 -0.28230774 -0.021666847 -0.111467704 -0.09719161
-0.048422582 0.071702264 -0.011639405 -0.08772662 0.20863566 -0.05204816 0.15221487 -0.1017393
-0.04442277 0.04450565 0.0662328 -0.12793884 0.032014538 0.013611588 0.10353193 0.08870071
-0.06910327 0.14189611 -0.06942802 -0.07026644 0.015778197 -0.23733568 -0.16530608 0.12458025
-0.07099288 -0.14684997 0.1366395 -0.07672167 0.032107648 -0.08765143 0.22817753 0.2829273
-0.071894184 -0.035437085 -0.0031837593 -0.0028980083 -0.24452393 -0.01446521 -0.052839864 -0.11410451
0.18501341 -0.016658919 -0.010438891 -0.003899456 -0.64270973 0.4142536 -0.107835576 0.3167604
0.02980639 -0.034089472 0.28777897 -0.04659298 0.02434504 -0.024380816 0.020790461 0.10489126
0.07961885 -0.65845007 0.053047106 -0.011951875 -0.07461765 -0.20860304 -0.034908682 0.1549533
0.032990932 -0.15165292 -0.14417866 -0.0014255857 -0.075512655 -0.19100387 -0.2827587 -0.075379066
0.78267664 -0.018978162 -0.63053054 0.025133532 0.07752844 0.12489136 0.29303223 -0.071921594
0.22955969 0.15132396 -0.00032993688 0.13774638 0.06447951 0.3775227 -0.15925413 0.3240143
-0.06221214 -0.009785452 0.07118397 -0.107954554 0.05924722 0.08871288 -0.004766375 0.025125593
0.03289144 -0.16452305 -0.24221203 0.09218121 0.08822943 0.12500617 0.15381682 -0.45503712
0.01621278 0.12904084 0.044429816 -0.04985712 -0.124901734 0.04739498 -0.122731045 -0.05330968
-0.058981497 0.030576065 0.05764215 -0.041048113 0.063716784 -0.025720898 -0.03824019 -0.095028736
0.051545296 0.3296421 -0.028228054 -1.062371 -0.047405787 0.013323999 -0.04600728 -0.17408901
-0.2331308 0.10282708 -0.5405459 -0.13949326 0.090823315 0.054791387 -0.0032193123 -0.13573742
0.49708232 -0.13798179 0.04588754 0.106934935 -0.34134838 0.027821118 -0.08190505 -0.07695007
-0.048934568 -0.0031863407 0.19783807 -0.04915405 -0.1862995 -0.07915532 0.16374075 -0.05782178
0.051430352 0.059384488 0.024545725 0.05444074 0.18050233 -0.19509849 -0.04785623 0.06297447
0.066117465 0.10410324 -0.011109349 -0.33069637 0.026340937 -0.077276655 0.111038685 -0.16835509
-0.091999955 -0.10429026 0.031644553 0.026415031 0.061326176 0.10871981 -0.06428011 -0.0478852
0.11441801 -0.016868874 -0.15893747 -0.09340249 -0.02879959 0.0780038 0.091632664 -0.17143027
0.09753749 -0.15733176 0.18391041 0.020869557 0.031791776 0.06562611 -0.039900716 -0.22146282
-0.033820614 0.14436193 0.020648183 0.08099071 -0.37006366 -0.019851694 0.020508662 -0.026589667
-0.4866761 -0.018807689 0.005142317 0.010528879 -0.03413761 0.050164286 -0.047525182 -0.16943157
-0.10741703 -0.025947671 0.0006347303 -0.3234367 -0.04220076 0.03625817 -0.008723001 0.12353724
-0.05732679 -0.04946107 0.056076903 0.1385584 0.40449125 0.13158044 0.4870761 0.105813354
-0.0125542255 -0.11777362 -0.011999228 0.22326368 0.10790049 -0.32623813 0.04105118 -0.811954
-0.07243349 0.0061489316 0.14719597 0.027775915 0.11086553 0.03871107 -0.051107027 0.03955242

relational_model.layers.2.bias f4 [150]
00000000: 7a77 13bd 7564 d9bd 69a7 80bd 91c0 133e
00000010: 5e71 d43c d279 c43c bc9a 6e3c b809 a5bd
00000020: b23b cd3c ee65 5dbd 3070 143e 6a72 ddbb
00000030: 7eb2 04be d183 99bd a2c7 893d 4fec 83bd
00000040: c145 e53d d32c afbd b4d8 563c 256f ab3d
00000050: db28 c53d b5c1 6f3c 92f4 cc3d 8e84 d6bd
00000060: f9f8 a93c a125 c8ba e1c8 0cbe cf01 86bb
00000070: c3bb 84bd 878d 5d3c adf0 9bbd 3c76 003d
00000080: f3cc 08be a7b6 46bd 72f2 3c3d ed20 f93d
00000090: c5a9 523d dd33 7039 dfd2 42bd dc11 ca3d
000000a0: 5392 463d c48d 083e 4589 333d 5689 a9bd
000000b0: 3b49 abbd 289d a5bd 28bb 80bd adcc 643d
000000c0: 6875 b4bd f0dc 8a3d 0a8a b4bd d3b3 bc3d
000000d0: 482f 4d3c 1acc ea3d 4e6c 04bd 1bcd 47bd
000000e0: 116e debb f763 993d c85d 9cbd ba92 12bc
000000f0: 5027 323d 092b 11bd f5d5 173d 2ed7 9bbd
00000100: 3681 30bc de7f 4fbc 0014 29bd 1126 cabd
00000110: 9acc 1f3d 9d51 a5bd 4eeb 18be 03f3 a3bd
00000120: 678b 313e 56d7 53bd a788 3a3d aaff 47bd
00000130: 465d 77bd 7fb8 b8bd c9c7 d83c 51c7 163d
00000140: 27f4 d83d a2da 1c3e 7f78 a8bd 1178 aa3c
00000150: 4e66 72bb c433 30bd 43be 8abc e538 1d3d
00000160: 44c0 edbd 8107 e53d 9f33 b13d b663 393c
00000170: 314c a0bc cbd1 c13d ea72 22bb 974c 7abc
00000180: 5b4c 313d 53b2 82bb a5f2 8f3c a81e b4bd
00000190: c7a2 b73d 689a 2f3d eb9f 893d c6d1 2dbd
000001a0: 154f 1abd 32df 5fbd 4374 d8ba 69ce c6bd
000001b0: e22b 943d 42e5 c93d be48 d6bd 48d8 673d
000001c0: 6ba5 033e 2c52 463d 4c4e 98bd b5cc 82bc
000001d0: f06d 29bd 6b28 8d3c e584 303c 6313 4e3e
000001e0: 9586 8ebd 5792 0a3d 5794 5fbd a9df babc
000001f0: 7ee3 bd3d 2fbb 2b3d a086 c9bd 64f2 833d
00000200: 96aa 0f3d 6634 553d 103b ccbc 7275 84bd
00000210: 4a2b d33d 1718 8bbd ba3f 1c3d c832 eb3d
00000220: 89cc 29bc 301a 37bd 1b00 39bd dd0f 9e3d
00000230: dcaf 91bc 716f f73c be91 43bc 587c 12bc
00000240: 8d5a 6d3d a2d5 9f3c 4e75 853d 3e55 e83c
00000250: badb 9fbd 084a 02bd
-0.036002614 -0.10614864 -0.06281931 0.14428927 0.025932964 0.02398387 0.014563259 -0.08058494
0.025052879 -0.054052286 0.14495921 -0.006758024 -0.12958714 -0.07495845 0.0672753 -0.06441557
0.11194945 -0.085534714 0.0131131895 0.083708085 0.09626933 0.014633586 0.100075856 -0.104745016
0.020748602 -0.0015270003 -0.13748504 -0.004089571 -0.06481125 0.013522512 -0.07614265 0.031362757
-0.13359432 -0.048514035 0.04612965 0.12164483 0.051431436 0.00022907504 -0.047564384 0.09866688
0.04847939 0.1333533 0.043832082 -0.08278148 -0.08363577 -0.08086616 -0.06285697 0.055859257
-0.08811456 0.06780422 -0.08815391 0.09213986 0.01252348 0.114647105 -0.03232985 -0.04877959
-0.0067880233 0.0748977 -0.07635075 -0.008946115 0.043494523 -0.035441432 0.03706928 -0.07609402
-0.010772994 -0.012664763 -0.04127884 -0.09870542 0.039013483 -0.08072207 -0.14933512 -0.08005335
0.17338334 -0.051719032 0.045540478 -0.048827805 -0.060391687 -0.09019565 0.026462452 0.036811177
0.10593443 0.15317777 -0.08226108 0.020809205 -0.0036987248 -0.043018118 -0.016936427 0.038384337
-0.116089374 0.11183072 0.08652424 0.011315277 -0.01956758 0.09463843 -0.0024787732 -0.0152770495
0.04328571 -0.003988543 0.017571757 -0.0879491 0.08966594 0.042871863 0.06719955 -0.042436384
-0.037673075 -0.054656215 -0.0016514141 -0.09707338 0.072349325 0.098581806 -0.10463093 0.056602746
0.1285607 0.04841821 -0.07436809 -0.015966753 -0.04136461 0.017231187 0.010773872 0.20124583
-0.06959263 0.033830967 -0.054584827 -0.022811728 0.09271906 0.04192656 -0.09840131 0.06442717
0.035074793 0.052051924 -0.024930507 -0.064677134 0.10310991 -0.06791704 0.038146712 0.11484295
-0.010363706 -0.04470271 -0.045166116 0.077178694 -0.017784052 0.030204507 -0.011936603 -0.008940779
0.057947684 0.019511048 0.06516515 0.02836096 -0.078055814 -0.031808883

relational_model.layers.4.weight f4 [150, 150]
00000000: 4f31 ca3a 3c88 e4bd 1316 7ebd 5838 aabc
00000010: 4216 0e3d 646c 84bd a844 c33b dae1 08bd
00000020: 14c4 7f3d 93be 6ebc f95f 9d39 2426 8e3d
00000030: 6e0f 0b3d def7 57bc a91b ba3c 3200 da3b
00000040: d2e7 10bd ccfc 823c 7d61 febc 07a7 80bd
00000050: 5d64 b1bd 3a44 6dbd 9af1 93bd f371 1e3d
00000060: 6f19 0d3c 30f4 4dbd 4967 54bd b964 853d
00000070: acb3 8cbd fbd4 93bc 0070 d53a a073 e83c
00000080: eb51 37bd bedd 51bd f065 6b3d 32d8 80bd
00000090: b73d 84bd 28d6 743d 9493 3f3d 0f70 85bd
000000a0: 9839 ecbc 7ec5 63bd 653b 97bd b8e0 5dbd
000000b0: 3b67 693c 81d7 edbc 490b 8dbd 8097 2abc
000000c0: 5ff2 9ebd 6c24 753d 1030 423d 9cd9 103d
000000d0: 707f 9c3d 264a 243d 1e9d a93d 844d 093d
000000e0: 7d42 e53a b114 afbd ba71 a03d 9183 593d
000000f0: 7594 9fbd c89e a63d dcaa 9fbd 8148 e6bc
00000100: e81f 12bd 59f7 3b3d f864 6a3d 50c9 923d
00000110: e31d 053d 9e3b 85bd 3a58 2f3d b2d8 0e3c
00000120: ec9d 90bd 8f24 62bd 37a3 58bd 96ea 063d
00000130: 526a 5c3c 2aa4 b7bc e83f 1d3c 08f3 86bd
00000140: 7fbd ea3c cb33 293d a720 26bc 20f6 d13c
00000150: 3431 01bd 6c3f 7a3d c6ec 67bd 901e 90bd
00000160: 9681 98bd 3150 19bb bcc7 1f3c 4683 863d
00000170: fba4 a6b7 b974 9f3d d728 82bd f7ae 233d
00000180: 70f1 163d d6f5 4fbd c4eb 383c b16b 69bd
00000190: f773 8b3a 90c8 833d 67dc 433d 83ac 5dbd
000001a0: 28d9 4e3c 38ba d9bc 85fd 97bd c05a a53c
000001b0: 6e60 36bd 1967 973d 1e78 a9bd 2506 603c
000001c0: 19a7 babc 9a3b 4e3d 456b 5bbc 7079 31bd
000001d0: 8a26 9dbd a467 ca3c e5ea 11bd 161d 283d
000001e0: 106a 4e3c 132e 14bd 386f 7d3d bac3 513c
000001f0: c12c 583d 6772 723d c9d2 9cbd 0628 67bd
00000200: 2bc3 85bd bcf0 fd3c ea00 81bd 700a 5fbc
00000210: f8b4 43bd 9feb 80bd 272e 01bd f333 8abd
00000220: 0093 58bd 6115 263d e9e5 7639 16df 83bd
00000230: 73c6 98bd 8ded 13bd abc3 0b3d 91d6 8abd
00000240: 58cd 653d 1251 a0bd 85db 64bd 68f2 823c
00000250: 2b7b 0cbd b821 363d d7ca 993d 143c ad3c
00000260: 3734 623e 96e9 0d3d 83c7 ba3e 51b9 7f3c
00000270: f10e 7cbe ae6c 91bd 16f2 9c3d f488 b33d
00000280: 65e2 69bf bdb1 93bd 2223 c93d 177a c43c
00000290: 6c0d dcbc d214 2ebd 590e 48be e115 4abd
000002a0: 10b4 ddbd b220 b8be c78a 68be 530c 7b3c
000002b0: a1f9 1e3e 0335 803d 9ab6 a43c d3e1 e03b
000002c0: 5fa0 bc3d e94b ccbc 406b b93d cf4f aebd
000002d0: e41f 6e3d f624 d13c c9ab 70bd b3d6 9a3d
000002e0: ae0a 803d f5dd a5bd df20 bf3c f6e4 9cbc
000002f0: b8f9 2c3d 611f babc 50cd 3e3d b67b 883d
00000300: d015 bf3c 711c afbd 636a 393d c588 5c3d
00000310: ec7d 39bd b51c cabe 640c f83e 3f4b 40be
00000320: 45e4 793d 7fb1 d2bd c376 863c c949 f6bc
00000330: 3701 c53d d1a3 4c3d f0de b73d ee64 69bc
00000340: ae1c 983d 5063 2b3e d652 88b8 a4a6 bcbc
00000350: 59a5 8bbe 1718 a2bc 645d 8aba 672a 423d
00000360: da3d 2ebd 4e84 6ebd 4976 103d f891 203d
00000370: b07d 0c3e 379d 063f 0074 c43d 2708 2b3c
00000380: 6523 e1bd b243 0ebd 0b92 11bc d293 8e3d
00000390: 5a8a 1f3c b354 113f de27 1cbc ac1a ddbc
000003a0: 4042 26bc 297c aa3d d332 2e3d 7a95 c03d
000003b0: b7f6 cfbd 39d0 85bd 08e1 31bc e9a3 773c
000003c0: 1197 613e ef25 90bd 2eeb 03bd bf4d 63be
000003d0: 606f ebbd 72b8 65bc abf3 423d 9469 063d
000003e0: 579c 063a 3cc6 603d 0e56 e2bd 7786 14bd
000003f0: 3fe5 853e e25d 75bd d8ac 053e 2d35 3e3d
0.0015426072 -0.11158797 -0.06203277 -0.02077882 0.034689195 -0.06465986 0.005959112 -0.033418514
0.062442854 -0.014571804 0.0003001688 0.069408685 0.03395026 -0.013181655 0.022718268 0.0066528553
-0.03537733 0.015989684 -0.031052345 -0.06281858 -0.08661721 -0.057926394 -0.07223816 0.03868289
0.008612021 -0.050281703 -0.051856313 0.06513352 -0.06870207 -0.018045893 0.0016283989 0.028375447
-0.044755857 -0.05123686 0.057470262 -0.06291236 -0.06457084 0.059774548 0.0467716 -0.06515514
-0.028836057 -0.055608265 -0.073843755 -0.054169387 0.0142458035 -0.029033424 -0.06886918 -0.010412097
-0.07761072 0.059849188 0.047409117 0.03536378 0.07641494 0.040109776 0.08281921 0.03352119
0.0017491129 -0.085488684 0.078341916 0.053103987 -0.07791988 0.08135754 -0.07796261 -0.028110744
-0.03567496 0.045890186 0.057225198 0.071673036 0.032499205 -0.06505512 0.04280875 0.008718656
-0.07061371 -0.055210646 -0.05289003 0.032938562 0.013453083 -0.022417147 0.009597756 -0.06589323
0.028654812 0.04130916 -0.010139621 0.025630057 -0.031541064 0.06109564 -0.05662229 -0.07037079
-0.074465916 -0.0023393745 0.00975221 0.06568007 -1.9865567e-05 0.07785935 -0.06355446 0.03996178
0.036851346 -0.050771557 0.01128668 -0.05698747 0.0010639419 0.06434739 0.047817614 -0.054119598
0.012625016 -0.026578054 -0.07421402 0.020184875 -0.044525556 0.07392711 -0.08274864 0.01367334
-0.022784756 0.05034981 -0.013392274 -0.043328702 -0.07673366 0.024707623 -0.035624404 0.041043364
0.012598529 -0.036176752 0.061873645 0.0128030125 0.052777056 0.059191134 -0.076573916 -0.056434654
-0.06531366 0.03099858 -0.062990025 -0.013613328 -0.047780007 -0.06294941 -0.031538155 -0.0674819
-0.052874565 0.040547732 0.00023546036 -0.06439035 -0.07459726 -0.036115218 0.03412215 -0.067792065
0.056104034 -0.07827963 -0.055873413 0.015984729 -0.03429715 0.04446575 0.07509392 0.021146812
0.22090231 0.034646593 0.3648034 0.015608148 -0.24615075 -0.07100807 0.07663362 0.08766356
-0.91361076 -0.07211635 0.09821154 0.023983998 -0.026861869 -0.042500325 -0.19536723 -0.04933727
-0.1082536 -0.35962445 -0.2270919 0.015322763 0.15524913 0.06260111 0.020106602 0.006862858
0.09210276 -0.02493854 0.090536594 -0.08511316 0.058135882 0.02553032 -0.058757577 0.07560482
0.06252037 -0.080989756 0.023331104 -0.019152146 0.042230338 -0.02272004 0.04658252 0.06664221
0.02332583 -0.08550347 0.045267474 0.05384137 -0.045286104 -0.39475027 0.48446953 -0.18778704
0.06100871 -0.10287761 0.016414052 -0.03006448 0.09619372 0.049960915 0.08978069 -0.014245255
0.07427345 0.16737103 -6.500415e-05 -0.02302868 -0.27274588 -0.019786878 -0.0010556397 0.04740372
-0.042539455 -0.058231644 0.035269056 0.039201707 0.13719821 0.5258364 0.09592438 0.010438955
-0.10993079 -0.034732528 -0.008884917 0.06961788 0.009737575 0.56769866 -0.009530989 -0.026990257
-0.010147631 0.08324463 0.04252894 0.094035104 -0.10154479 -0.06533856 -0.010856874 0.015114763
0.22030284 -0.07038485 -0.032206707 -0.22197627 -0.114958525 -0.014021026 0.04759566 0.03281553
0.0005134991 0.05487655 -0.1105157 -0.03626105 0.26151463 -0.059903987 0.13054216 0.04643743

relational_model.layers.4.bias f4 [150]
00000000: 5334 81bd c813 9d3d e02f aa3d b0b0 a8bd
00000010: 6c36 7dbe 1deb 463d eb2b 52bd af5a 2fbd
00000020: bf19 3b3d e9d3 4f3d 4cd7 e33c 1991 a53d
00000030: 49a4 14bd 6d2b d5bd ba0d bc3d 5839 bbbd
00000040: 2e96 093e 5f07 a03d 35c8 f6bd e99c 173e
00000050: f1c2 873d 8229 05bc 7c77 1fbd aa52 78bd
00000060: 27c6 323d e5e4 cd3c 31d3 e4bd 71ca b2bd
00000070: a9d0 003d ee58 7c3d baa9 d93c 7c04 c1bd
00000080: 748c 66bd e7e9 c93b 90e6 543a 2a5c 903d
00000090: 32e7 47bd caf0 633d a208 5e3d 309e dd3d
000000a0: c6e5 013e e82c 913a e81e 08bd 0ced 293c
000000b0: 4721 4a3c 5607 f2bc fbc9 7abc 4024 e13d
000000c0: 1183 76bd a11a 3abb dd83 25bd 2838 d43d
000000d0: 21fa 923d c2e2 50bd a541 aabc ef6e 473d
000000e0: b78f b93d 25e4 aa3d 3ae8 063e 1797 63bd
000000f0: 5eac d5bd 6ec2 473c d7ba 223e 56a6 193e
00000100: a422 cdbd 1395 93bc 9693 073a 4eb1 0bbd
00000110: 5cea c4bc 9e07 2e3d a0e1 df3d 5ccc 7b3d
00000120: 4578 763d b051 05bd e375 923c da59 fb3c
00000130: 9adc d13d 5a7f 373d 2b35 40be 5a50 4f3d
00000140: 851c 1d3e cfcd e4bd d2f3 f33d a002 973c
00000150: ad1f e43d 4e8f c5bd 6be7 8dbd e893 093d
00000160: d1b4 c1bd f037 073e 1ee5 ce3d 6fe8 5e3d
00000170: 31d6 02bd 8bc1 adbc 47bb 143e 3473 583d
00000180: 9b51 bebc 5dc6 22bd 3a86 3a3d c2dd 80bd
00000190: e9fa 58bc 0277 6a3d 9c21 2f3e b3f5 1f3d
000001a0: 132e 8dbd 5ee3 6a3d be62 a33c c604 a8bd
000001b0: 76d2 783d b1d8 ce3b fa9d 1abd 301f babd
000001c0: 0117 583d 15e9 f23d f9fd d2bd 5022 0fb9
000001d0: 401b bd3d 86c0 b6bd 5131 c1bd b4bb 843d
000001e0: e22d 0b3d c32c cdbc a764 82bd 2761 8dbd
000001f0: 7284 033c 242e 19bd a157 bd3d 013f d4bd
00000200: 675e 293a 4531 debd 5729 96bc e0fe 98bd
00000210: 85a4 8ebd 1b06 d6bc a4f5 59bd 58e1 243e
00000220: 9c68 5d3d 289c 20be 0368 95bc f561 23bd
00000230: 80a9 833d c299 2e3d 0b59 9abd 8558 fdbd
00000240: 1e3d 9a3d 02e9 abbc 1aa8 263e cc4b 7b3d
00000250: 1d89 373d ca82 b1bd
-0.06308808 0.076697886 0.08309913 -0.082368255 -0.24727792 0.048564065 -0.051311415 -0.042811092
0.04567885 0.050739203 0.027812622 0.08084316 -0.036289487 -0.104086734 0.09182306 -0.09141797
0.13436195 0.07813906 -0.12049905 0.1480595 0.06628979 -0.008127572 -0.03893231 -0.06062571
0.043646004 0.02513356 -0.11173094 -0.08730019 0.031448994 0.061608247 0.02657019 -0.094246835
-0.05628629 0.0061619165 0.00081215147 0.07048829 -0.04880447 0.055649556 0.05420745 0.108211875
0.12685308 0.0011076005 -0.0332326 0.010371458 0.0123370355 -0.029544514 -0.015306945 0.10993242
-0.06018359 -0.002839722 -0.040408958 0.103622735 0.071766146 -0.050997503 -0.020783255 0.04868978
0.090606146 0.08344296 0.13174525 -0.055564012 -0.10433267 0.012192352 0.15891586 0.15004858
-0.10016373 -0.01801542 0.00051718333 -0.034104638 -0.024037533 0.042487733 0.109317064 0.06147419
0.06017329 -0.032548606 0.017878478 0.030682493 0.102471545 0.044799186 -0.18770282 0.05061374
0.1534291 -0.111720674 0.119117394 0.018433869 0.11138854 -0.09646474 -0.06928905 0.03358832
-0.09458316 0.13204932 0.101022944 0.054420885 -0.03194255 -0.021210453 0.14524566 0.05284424
-0.023232272 -0.039739955 0.045538165 -0.06292297 -0.013243415 0.0572424 0.17102665 0.039052676
-0.068935536 0.05734574 0.019944545 -0.082040355 0.060747586 0.0063124527 -0.037748314 -0.0908798
0.052756313 0.11860863 -0.10302348 -0.00013650325 0.09233713 -0.0892344 -0.094332345 0.06481114
0.033979304 -0.025045758 -0.06366854 -0.06903296 0.008027183 -0.03739752 0.092452295 -0.103635795
0.00064609054 -0.10849241 -0.01833026 -0.074704885 -0.06964973 -0.026125958 -0.053212777 0.16101587
0.05405484 -0.15684569 -0.018238073 -0.03988834 0.06428814 0.042627104 -0.07536515 -0.123703994
0.075311884 -0.02098513 0.16275063 0.061351582 0.044808496 -0.08667524

relational_model.layers.6.weight f4 [1, 150]
00000000: 9c8c 47bc b9d0 b1bd e84f 8e3e 021a 1e3d
00000010: cc89 803f cc00 95bf 04aa 29be 460e 123e
00000020: e9a0 bebe 09f1 b2be 1cea c3bf 58e3 a13d
00000030: 1a25 473d f51d e63b 4f63 26be 7cfb 4d3c
00000040: 20c7 a93e a843 303e ed92 223c a673 b5bf
00000050: aed9 a23e c41c d4be 2e5c 95bf 4e29 8d3d
00000060: 2aee 5c3e c64c 7dbe b4a3 933c 82ae b4be
00000070: 6678 d93e 2f94 dcbf f020 1ebf 70e9 93bb
00000080: 278b 5bbc 498c d2bd 038f 2a3e ef09 163e
00000090: ed92 44be 68fc 05be a41c 293e e307 903e
000000a0: 0267 4a3e fa51 79bf 40ee ebbe 420e 0cbe
000000b0: 45ae 2abe e87f a13b acf3 a5be ddc4 3d3e
000000c0: 628b 2fbf 3b71 ff3d f4a1 7abe b980 fc3e
000000d0: ea25 393e 4e82 37bf ecd0 80bf 49ba a13e
000000e0: 2da4 2e3e 7ee4 353e f1ce 673e 0125 52bf
000000f0: 7a9a d6ba 2449 3abe 7cb4 993e fc8a 043f
00000100: 1f7d 573b ca8b 37bf ce42 173e e14f 14bf
00000110: 27cd 673d 7f6f eb3d dccf 4d3e 4b8e 14be
00000120: 1c7e 5ebc a4c7 e4be 361f e73d c28d 50bf
00000130: bf12 963e 129a 5fbf 8849 0f3f 6483 4d3e
00000140: e5ac 8a3e 2fb3 af3c 7865 6d3e e706 17bf
00000150: 8d1c a43e 58f8 c43c bb79 ccbe 4dbd 35be
00000160: 5458 af3d 8c5d a03e 9e8d 5e3e 2f66 d13d
00000170: 1d19 16bf 0ba8 ddbe 8780 dc3e 6a30 08be
00000180: 5e35 4a3c 2927 0fbe 6511 09be 6c6a 72bc
00000190: c4e6 2e3e 6395 2e3e 5c48 f43e 559e f5bb
000001a0: 595c 9bbc 4848 debe 48d6 bfbb c45d 523f
000001b0: 4866 0cbe 5949 143e 99a0 4e3e 98bd 50bd
000001c0: 6ae5 fb3d b6f1 443e 0d40 69bf cd06 0fbf
000001d0: e20d c63e df50 c13c 030a 343a fe89 00bf
000001e0: 3f50 a23e b820 163e 7193 94be e393 7cbc
000001f0: 7bcc 3dbd c9b7 f9be 211f 0bbf 0b6a 623c
00000200: d241 83bd 68ea 203d 74a8 25bc 8dbe a03d
00000210: bf34 66bf 89cb 35be a3e8 8abe 5135 0d3f
00000220: 5af7 febe 2aa1 fd3e e80e 383e 2019 493f
00000230: dfef 4b3e e9ae fcbe 680b 833d 0053 7abc
00000240: e03e 0c3e bdd0 fcbd 5b1c a13e 0579 30be
00000250: a085 b93e 34be 82bd
-0.01217952 -0.08682389 0.2779534 0.03859902 1.0042052 -1.1640868 -0.16568762 0.14263257
-0.3723214 -0.3494952 -1.530582 0.079046905 0.048619367 0.007022614 -0.1624882 0.012572166
0.33159733 0.17213309 0.009922725 -1.4175918 0.318067 -0.41428196 -1.1668756 0.06892644
0.21575227 -0.24736318 0.018022396 -0.3528939 0.4247467 -1.7232722 -0.6176901 -0.004513912
-0.013399876 -0.102806635 0.16656117 0.14652227 -0.19196673 -0.13084567 0.16514832 0.28131017
0.19765857 -0.9739071 -0.46080208 -0.13677314 -0.16668041 0.0049285777 -0.3241247 0.18532129
-0.68572056 0.12472769 -0.24475843 0.49316958 0.1808087 -0.71683204 -1.0063758 0.31587437
0.17054816 0.17762944 0.22637536 -0.82087713 -0.0016372942 -0.18191963 0.3002051 0.51774573
0.0032880974 -0.71697676 0.14771578 -0.57934386 0.056592133 0.114958756 0.20098823 -0.14507405
-0.0135798715 -0.44683564 0.1128525 -0.81466305 0.29311177 -0.8734447 0.55971575 0.20069653
0.27085033 0.021447746 0.23183239 -0.5899491 0.32053033 0.0240442 -0.39936623 -0.17747994
0.08561769 0.3132137 0.2173371 0.10224568 -0.5863207 -0.4329227 0.4306681 -0.13299718
0.012341825 -0.13979782 -0.13385542 -0.014795881 0.17080218 0.17049174 0.47711456 -0.0074956813
-0.018964933 -0.4341452 -0.0058544017 0.82174325 -0.13710892 0.14481105 0.2017845 -0.05096206
0.12299617 0.1923283 -0.9111336 -0.5586975 0.38682467 0.023598133 0.0006867947 -0.5021056
0.31701848 0.14660919 -0.2901874 -0.015416118 -0.046337586 -0.4877303 -0.54344374 0.013819228
-0.064090386 0.039286047 -0.010110963 0.07848845 -0.89924234 -0.17753424 -0.27130613 0.5515948
-0.4979809 0.4953702 0.17974436 0.7855396 0.19915722 -0.49352196 0.0639866 -0.015278578
0.1369586 -0.12344501 0.31466946 -0.17233665 0.3623476 -0.063839346

object_model.layers.0.weight f4 [100, 4]
00000000: 40df 64bc 1cf0 0ebe c045 fdbd 94f0 99be
00000010: 4d97 7a3f 058a 8bba 6751 c63f b313 873c
00000020: a251 20bf 20e3 a03e ba6d 073f 10f5 af3e
00000030: f922 373e 11c6 4f3c 6513 2b40 88aa c2bf
00000040: 4b78 eebc 6d90 013e 984b a8be f611 97be
00000050: 0b07 05bf 2c5e 903e 0128 97be 6ee1 93be
00000060: 61ac 723f 8af9 ee3d 6ae4 933f ef7b 613e
00000070: 66df 96bf 3074 f43c 6ceb ad3e 6947 d03d
00000080: d6ac 1a3f 186d b13e 3112 a63e 3a5e 27bf
00000090: 29d7 083f 8f2d ee3d 5bc0 bcbe 21a9 cebe
000000a0: 852c dbbf f427 ac3e fbb8 1d3d c5bd b03e
000000b0: 2e59 83bf 2b01 4dbd d2c5 33be 4df9 563e
000000c0: 5c50 45bf 74f2 1ebc 9677 7e3f 7d41 b5bc
000000d0: 60c3 7b3e d1a9 8bbd c56d 2c3f 17c6 87be
000000e0: 61ac 6abe d915 b23d 0c8a a53e 9256 8c3e
000000f0: 6846 c4be 3888 ea3d a0dd 9dbe 2c00 bebe
00000100: 1cbd 29bf dec1 8cbd 6fec 583f 0a1b 77be
00000110: 2ff8 cb3e ff2d 0c3e 7d5e a53f 036d 5b3e
00000120: e6cc dd3e 47ab a73e 3d75 f53e 99e0 0d3e
00000130: da20 cbbe ff82 28be bc97 183f c917 65be
00000140: 2289 2c3e 2cb6 1b3b e148 c1bf d4fd cdba
00000150: 8e5b 993e fb0d c7be f2e6 2abf 6954 bb3e
00000160: 6283 a8be 4d11 2fbe 6daf 353f 661a f6be
00000170: 8231 5bbf b341 b0be 7224 533f 753e f5bb
00000180: 4c99 803e 6015 bf3d d9ae 9b3f 651f bf3e
00000190: cb3d 853e bce2 c93e ee0b c4be 2998 b4bd
000001a0: 16a8 9cbf 51d9 b63e 8ef4 17bf 02bf 04bb
000001b0: e927 ab3f 815f 47bc a8ff adbf 2415 99bf
000001c0: 0cc7 143f cc1b 653d 56b4 a0be bc63 2ebf
000001d0: f5f6 ff3e 4043 0fbf 32cf 42bf 23f7 e3be
000001e0: 005a 28be c8fe ebbd 9079 763d 765c c6be
000001f0: abeb 1abf 39f3 8cbe d456 2f3f 8d12 11bf
00000200: f9ae 503f ec8a 55be 0ad7 643f f07c e23d
00000210: 54ce c2be 74ff 70be b8f7 cd3d 9cb8 94be
00000220: 3bf5 8e3f 3072 ac3e f671 753b c789 b03d
00000230: b057 053f 5e3b 90be c996 acbf d809 783e
00000240: 0030 17ba 24de 4b3e f880 67be d6d9 edbe
00000250: c8ff f63d 4472 20be 7a12 933e 84c3 1abe
00000260: 3c80 6b3e 9103 e8be 4b64 343f 53d1 04bf
00000270: 0fba 40bf bec4 04be b677 633f b3f2 6dbe
00000280: a82c 63bd 821c 54bd 9503 743e 9ab0 ccbe
00000290: 5b37 e93e 62f9 55be 73d2 663f ec3a 71bc
000002a0: 4f6b 323f e9a7 31bd 7fe8 763e c2b8 cbbe
000002b0: bfb7 483f b59e c6bd 6823 68bf 72a8 193e
000002c0: fe20 b3be d897 85be b848 a2bf 032d 713e
000002d0: d8c5 0cbf a2e3 c1bd b3ab bebf b256 8abe
000002e0: badb b4be 6869 9e3d 8e78 993e 786c 3dbe
000002f0: 338f a63d 92ea ccbc 09d7 84bf 485a 12be
00000300: 661c 1abe ab69 e0bd d50a 8c3f 41af 443e
00000310: a459 803e 9066 53bc 1873 c3bd c630 f53c
00000320: 8f8c 92be 2c15 dcbe c6bc 13bf d1e0 acbe
00000330: 7342 f6be b88c cc3e 9f50 28bf 5f87 853e
00000340: 2c5a 8bbe b487 c9be 9c0e 5abe ce3e 9dbe
00000350: 905f 65be 5dba b2be a6b2 943e 4262 01be
00000360: dd43 2b3f 2e29 b13a 7b3a 1140 1ab0 743c
00000370: d8e0 97bd b278 a1be 64d9 a63e 84bf ecbe
00000380: 5ef2 ddbe 5cf1 73be 99ef 79bf 11ab 953e
00000390: 5d07 a13e bd12 b63d 4310 3dbf 5113 b33e
000003a0: 5783 24be d9d9 a2be d4d7 00bf 8512 11be
000003b0: 7c96 313e d9fe b03e 51f2 e33f 067e abbe
000003c0: aea2 643e a496 0e3c 9e39 d0bf 1fa3 1fbf
000003d0: 4255 bbbc 629b 033e 5d89 e2be 65c2 0fbf
000003e0: 99a7 3abf ef98 453e 0dc1 50bf 5bcf d93d
000003f0: ad7c 3cbf 1fc2 0abd 8ed9 6b3d c5dc 183e
-0.013969243 -0.13958782 -0.123668194 -0.3006636 0.97887117 -0.0010645991 1.5493592 0.016488886
-0.6262456 0.31423283 0.52901804 0.34366655 0.17884435 0.0126815 2.6730587 -1.5208292
-0.029110095 0.1265275 -0.32870173 -0.2950589 -0.5196387 0.28196847 -0.29522708 -0.28882927
0.9479428 0.116686895 1.1554081 0.22019933 -1.1786926 0.029840559 0.33968675 0.101698704
0.60419977 0.34653544 0.32435754 -0.65378153 0.5345331 0.11629783 -0.36865506 -0.4036341
-1.7122961 0.33624232 0.03850649 0.34519783 -1.026159 -0.050049942 -0.17555931 0.20993538
-0.77075744 -0.00970136 0.99401224 -0.022125954 0.24586248 -0.06819499 0.67354995 -0.26518318
-0.2291732 0.08695573 0.32331884 0.27409798 -0.38334966 0.11451763 -0.3083315 -0.37109506
-0.66304183 -0.06872915 0.8473577 -0.24131408 0.39837787 0.13689421 1.291946 0.21428303
0.43320388 0.32747862 0.47941008 0.13855208 -0.396735 -0.16456221 0.5960653 -0.22372355
0.16849187 0.0023759706 -1.5100366 -0.0015715905 0.29952663 -0.38877854 -0.66758645 0.36587837
-0.32912737 -0.17096443 0.70970803 -0.48067015 -0.8562242 -0.34425125 0.82477486 -0.007484252
0.25116956 0.09330249 1.2162734 0.3732864 0.26023707 0.39430797 -0.38290352 -0.08818085
-1.2238796 0.35712674 -0.59357536 -0.002025545 1.3371555 -0.012168766 -1.3593645 -1.1959577
0.5811622 0.055934712 -0.31387585 -0.6812093 0.499931 -0.5596199 -0.76097405 -0.44524488
-0.16440582 -0.11523205 0.060174525 -0.38742417 -0.6051585 -0.27529314 0.68491864 -0.5666893
0.8151699 -0.20853776 0.89390624 0.11058986 -0.3804804 -0.23534948 0.10057014 -0.29047096
1.1168588 0.33680868 0.003745196 0.08620029 0.52086926 -0.28170294 -1.3483516 0.24222505
-0.00057673454 0.19908959 -0.22607791 -0.46455258 0.12060505 -0.15668589 0.28725034 -0.15113646
0.22998136 -0.4531522 0.70465535 -0.51881903 -0.752839 -0.12965676 0.8885454 -0.23237114
-0.05546251 -0.051785 0.23829491 -0.39978486 0.45550045 -0.20895913 0.9016487 -0.014723521
0.6969499 -0.043373022 0.24112128 -0.39789397 0.78405374 -0.0969824 -0.90679026 0.15005663
-0.3498611 -0.2609241 -1.2678442 0.23552327 -0.54989386 -0.09467246 -1.4896148 -0.27019268
-0.35323888 0.077349484 0.29974788 -0.18498409 0.08132782 -0.025014196 -1.0378124 -0.14292252
-0.15049896 -0.109576546 1.0940806 0.19207479 0.2506839 -0.012902871 -0.09543437 0.029930484
-0.28622863 -0.42984903 -0.5770992 -0.3376527 -0.48097572 0.3995111 -0.6574802 0.26079842
-0.27217233 -0.39361346 -0.21294636 -0.3071198 -0.22399735 -0.3490781 0.29042548 -0.12635139
0.66900426 0.0013516301 2.2691944 0.014934564 -0.074159324 -0.31537396 0.3258773 -0.46239865
-0.43348974 -0.2382254 -0.9763122 0.29232076 0.3145093 0.08890293 -0.7385294 0.34975675
-0.16065727 -0.3180683 -0.5032933 -0.14167221 0.17342561 0.34569433 1.7808324 -0.33494586
0.22327682 0.008702908 -1.6267583 -0.6235828 -0.022867803 0.12852243 -0.44245425 -0.56156
-0.72911984 0.19296621 -0.8154457 0.10635253 -0.7362774 -0.033876535 0.057580523 0.14927967

object_model.layers.0.bias f4 [100]
00000000: fe6c bbbe 0cb6 3e3e 58af 1ebe a773 013e
00000010: 5ca1 3d3e 68f9 a9be 5fd2 ae3e bf5e 3d3e
00000020: 38a7 753e 0f3e ce3e 9bbd 993e 9ded 003f
00000030: 06c1 1e3f fe9b b83e 746c abba 0854 e9be
00000040: 5fa3 e43d eec8 c1bd adb4 c3bd 5c31 9dbe
00000050: 53be 7c3e d18f 38bd a5f0 993e f9df 953e
00000060: 7c82 c13e ec97 08bf 1d29 84be b784 f5bd
00000070: 3ebc e53d d090 a9be 8495 c7be c9cd 67bd
00000080: 4651 b03e a2b1 d0be 9043 19bd 0d73 85be
00000090: 8879 ddbe f4e7 c7be 4338 90be 0a92 b03e
000000a0: 3bff aa3e a776 4f3e 9d51 553e 9e62 9a3c
000000b0: 0ff9 44be 7136 2b3e c681 b7be d5e7 87be
000000c0: 49f5 113e 31fb 013e d6d1 e2bd e72c 97bd
000000d0: 6269 f9be 1f55 983d 9769 503e 7c89 f8be
000000e0: 330e 92be f002 fd3d a2cf b03d 7441 9f3e
000000f0: b604 bf3d 11a0 b43e 26ec e13e 3148 f8bd
00000100: 6045 2abe 9315 97be 362e 81be 3935 ca3e
00000110: f165 8abe cf26 b33d 9d91 b83e 33fb b3be
00000120: 96b8 f4be 904d 83be 2d3b 9e3e d86e 04bf
00000130: 6e64 babe 4925 8dbe 457d 953e 0e63 04bc
00000140: a69c 9ebe 104f 623e cbd5 a33b 22da c3be
00000150: 1e3f 93be aa72 f43d 6e84 be3e 29e1 5b3e
00000160: 5b24 9a3e fe7d b23e 34bc 363e 3e3a fdbe
00000170: 4ffb 7c3c 0b88 183d 19b9 04bf bb13 80bd
00000180: b649 cc3e df89 88bd 1c48 0ebe d436 b8be
-0.36606592 0.18624133 -0.15496576 0.12641774 0.18518585 -0.33198094 0.34144875 0.18493174
0.2398957 0.40281722 0.3002747 0.5036257 0.6201328 0.36056513 -0.0013078586 -0.45571923
0.11163973 -0.094621524 -0.095559455 -0.3070172 0.24681978 -0.04505903 0.3006641 0.2927244
0.37794864 -0.53356814 -0.25812617 -0.11988204 0.11217545 -0.33118296 -0.3898126 -0.056592736
0.34437007 -0.40760523 -0.03741795 -0.2606434 -0.43256783 -0.39044154 -0.28167924 0.3448642
0.3339785 0.20260106 0.20831914 0.018845852 -0.19235633 0.16719986 -0.35841197 -0.2654406
0.14253725 0.12693478 -0.11075179 -0.07381611 -0.48713213 0.074381106 0.2035278 -0.48542392
-0.28526458 0.12354076 0.08633353 0.31104624 0.093270704 0.3527837 0.4412548 -0.121231444
-0.16628027 -0.29508647 -0.2523057 0.3949373 -0.270309 0.087476365 0.36048594 -0.35152587
-0.47797078 -0.25645113 0.30904523 -0.51731634 -0.36404747 -0.2756751 0.29197136 -0.008080257
-0.30978888 0.22100472 0.0049998513 -0.3825236 -0.28759092 0.11935933 0.3721041 0.2147261
0.30105862 0.3486175 0.17845231 -0.49458498 0.015440776 0.037239116 -0.51844937 -0.06253763
0.39899987 -0.06666922 -0.13894695 -0.3597933

object_model.layers.2.weight f4 [3, 100]
00000000: 00c8 bcbd bd0c 06bf ecbd 05bd f0e7 94be
00000010: 5a1d 0a3c c8a6 41bb c5b1 febd 7725 013e
00000020: fe90 20be 2c07 aebd dc4f 313e 3afa ef3d
00000030: f4c7 913d dbfc 17be 0046 393d 4079 92bc
00000040: eddd 76be fe8d 42be bb12 a7bd 7cc8 5d3c
00000050: b58a ed3e e2df d53c 0278 24be f2f7 c93d
00000060: 68c4 05bc 881f 7ebe 48cb c83d 629c a13f
00000070: 73aa 993d 703f 1b3d c0ef ac3c 6ab2 87bd
00000080: 4cf1 1dbe d24c 463d c25a 51bd c5b3 01bd
00000090: d22e c7bd 98cf a6bd 4576 bbbb b1f2 19be
000000a0: b00a 19bd 8525 42bd b199 92bd 7c2c dabb
000000b0: 5b87 4d3e 76a6 d33d e229 c1bd ac00 81bf
000000c0: 45f7 ffbd 0174 cd3c 11f0 2fbe 95ec ae3c
000000d0: c8f3 a0bc 9d33 9ebc 548d 74bf e0b1 dabc
000000e0: e407 653d 2399 633d 61ea b53d 9dcd 2ebe
000000f0: 2af8 8f3e 08d7 babd fcc9 823e 20c8 d5bd
00000100: 0823 093c a160 6b3e 2607 853c fd1d a0bd
00000110: b123 7cbd 3777 da3d 5284 4b3d 1db2 98be
00000120: fbee 1fbc 4409 913d bd30 813c b2f1 3a3e
00000130: 6211 1f3d 42f0 d2bd d917 063d 0d92 59bd
00000140: 4593 0dbf 6607 9f3d ca9c 35bc 916e 9fbc
00000150: c26f cdbc f935 383d af86 3bbe bab3 2fbe
00000160: de8d 5a3e 9b09 3cbc d852 ca3d a28f 193d
00000170: f8b1 ae3e 8af3 ce3d dd06 d83d 696d 193d
00000180: ad42 eabe fa26 a1bb 3d82 4d3c 430f ab3d
00000190: 5a34 77bd f017 4dbd 2c27 5cbd 99c4 363e
000001a0: 31ec 4dbd 1c5d 4dbd ab83 cb3d 200e 29be
000001b0: b062 eb3a 2e91 d0bd 038d 04be f5f6 a5bc
000001c0: 6b34 17be b6cc 10be 7034 c03c da4e 25bd
000001d0: bb7b f9bd 6ff7 e8bb 5105 c23d 7fcb df3e
000001e0: 25dd 213e 40b7 f63d 6d77 f5bd 8d67 b6bd
000001f0: 610e 883d 1333 4abe 9732 703e 8e55 dc3f
00000200: 8969 afbd 5c36 f0be 1302 4cbd a913 c23e
00000210: 4421 8d3c 62a5 96bd d695 3f3e 3a3f f63d
00000220: 3e08 6e3d cf78 923d fb2f a7be 7f36 b1bd
00000230: 6763 f8bd d126 943d 69d9 08be 8c5b cf3d
00000240: 4f50 953d 2d53 fd3d dfcc c63d 8d7b 573e
00000250: 7bed acbd f860 523d 45f6 2a3e b76d e2bc
00000260: d281 553d e81e dbbd 96aa 8ebd 3c53 ea3c
00000270: c09c 11bd 8616 d83d 25e9 19be 679b 84bd
00000280: 474a cabc 081e f3bd aecc 503c 97b2 84be
00000290: 917e f63c 352b 253e 288c 9abd b5a4 9ebd
000002a0: 85b8 0ebc 747d fd3d a7c8 e43c 2d1d 313f
000002b0: 2d29 0d3e daa2 f33d 7fff ae3c 679c e0bd
000002c0: 0042 2b3b 6e28 fcbc 2601 a73d cdc9 023e
000002d0: 7d28 fcbd 0e62 183e 9446 15bd f542 703d
000002e0: b2d1 7f3d cf02 90bd 896d 7ebd 244c d6bd
000002f0: 822f cb3d 6dc2 f93c d0ef 3c3d 9900 9c3d
00000300: b53d bc3d 1855 f13d 7474 773e f8e1 e13d
00000310: ef15 ecbc ef3d 29be 93ca 18bf 2911 ae3d
00000320: 7203 573d d9fa eebe d287 85bd 92e5 c1bf
00000330: 3e14 013e 0ac0 12bd 82fa e9bd af56 0abe
00000340: 5c0d 023e 4dc2 873d d204 99bd 4625 8bbd
00000350: 3746 5dbe 0513 4a3d f46a c5bd e3e8 2bbd
00000360: 0527 9abd 12a6 bcbd 8b18 bdbd cbc4 673e
00000370: 849a cf3e 0cfe 0d3c 355b 643d 8ed4 4ebe
00000380: d6fc edbd 64cd 88be d246 343d 9eb5 78bf
00000390: e2c0 d1bc f4c4 933c 7350 ca3d 43ed f1bd
000003a0: 56fd 1abc 60b0 8b3c 82d2 7fbc 3b3f f33d
000003b0: 4c24 b0bc dd6b ac3d 835e bbbc 7c03 b4bd
000003c0: 1513 713d f874 c5bd 6a78 8a3d c03c b83d
000003d0: 76e1 bf3d 1ace 413e 3885 a9bd ffba 1dbf
000003e0: 3802 7ebd 0425 9cbc dc3d 2c3e 3224 153d
000003f0: 746e 08bd 528d d93c eefe 39bf 008b 10bd
-0.092178345 -0.5236319 -0.032651827 -0.29083204 0.0084298495 -0.0029548872 -0.124362506 0.12611948
-0.1568031 -0.08497462 0.1731562 0.11717649 0.07118216 -0.1484255 0.045232773 -0.017880082
-0.24108095 -0.18999478 -0.081578694 0.013536569 0.46394888 0.026107732 -0.16061404 0.09861745
-0.008164503 -0.24816716 0.09804398 1.2625849 0.07503214 0.037902296 0.021110415 -0.06625827
-0.15424079 0.048413105 -0.051111944 -0.031665582 -0.09725727 -0.08145064 -0.005720886 -0.15033986
-0.037363708 -0.047399063 -0.071582206 -0.006658135 0.20071165 0.10334484 -0.09431817 -1.007833
-0.12498335 0.025079729 -0.17181422 0.021353045 -0.019647494 -0.01931172 -0.9552815 -0.026696146
0.05591573 0.055565964 0.08882595 -0.17070623 0.28119022 -0.09123045 0.25544727 -0.104385614
0.0083701685 0.2298608 0.01623876 -0.0781822 -0.061557475 0.1066727 0.049686737 -0.2982339
-0.009761567 0.070818454 0.01577031 0.18256262 0.038834937 -0.10299732 0.032737587 -0.0531178
-0.5530284 0.07765083 -0.011084745 -0.019461902 -0.025077704 0.044973347 -0.18313096 -0.17158404
0.2134318 -0.0114768995 0.098790824 0.037490495 0.34120154 0.10105045 0.10548184 0.037457857
-0.45753995 -0.0049179764 0.012543258 0.0835252 -0.06035266 -0.050071657 -0.053748295 0.17848434
-0.050274078 -0.050137624 0.09937223 -0.16509295 0.0017958488 -0.10183941 -0.12944417 -0.02025936
-0.1476609 -0.14140591 0.023462504 -0.0403584 -0.12181803 -0.0071095745 0.0947367 0.43709943
0.15807016 0.12046671 -0.11985669 -0.089064695 0.066433676 -0.19746046 0.23456798 1.7213609
-0.08565051 -0.46916473 -0.049806666 0.37905625 0.017227776 -0.07355763 0.18709502 0.12023778
0.05811333 0.07151949 -0.32653794 -0.086529724 -0.121283345 0.07233966 -0.13364185 0.10124883
0.07290708 0.1236938 0.09707045 0.21043225 -0.08443733 0.051362008 0.16695507 -0.027640207
0.05212576 -0.10699254 -0.069661304 0.028604142 -0.03554988 0.10551171 -0.15030344 -0.06474953
-0.024693621 -0.118709624 0.012744112 -0.25917503 0.030089648 0.16129763 -0.07546264 -0.07746259
-0.008710985 0.12377444 0.02792771 0.69185144 0.13785239 0.11896296 0.021362064 -0.109673314
0.0026131868 -0.030780997 0.08154516 0.12772293 -0.1231241 0.14881155 -0.03644426 0.058657605
0.06245584 -0.07031786 -0.06211618 -0.104637414 0.09921171 0.030488217 0.04612714 0.076173015
0.09191457 0.117838085 0.24165517 0.11029428 -0.028819053 -0.16527532 -0.59684104 0.08499367
0.05249352 -0.46675757 -0.06520046 -1.5148184 0.12605378 -0.035827674 -0.11424734 -0.1350963
0.12700409 0.06628857 -0.074716225 -0.06794219 -0.21608816 0.049334545 -0.0963954 -0.041970145
-0.07526974 -0.09211363 -0.09233197 0.22633664 0.40547574 0.0086665265 0.055751044 -0.2019827
-0.1162049 -0.267192 0.044012852 -0.97152126 -0.025604669 0.01803825 0.09878626 -0.11812832
-0.009459814 0.017051876 -0.015614154 0.11877295 -0.021501683 0.08419011 -0.022872215 -0.08789727
0.05885609 -0.09641451 0.067612484 0.08995962 0.09369175 0.18926278 -0.082773626 -0.6161346
-0.062013835 -0.01906062 0.16820472 0.03641147 -0.03330846 0.026556645 -0.72654617 -0.03528881

object_model.layers.2.bias f4 [3]
00000000: 29af 3fbc 3ff8 b0bd ad96 20bd
-0.011699476 -0.08641099 -0.039206196
