trained_models/LP_2_600_epoch0.pt (torch_old, 192257 bytes, 11 tensors)

relational_model.layers.0.weight f4 [150, 7]
00000000: 220c 293b e84f 5e3e 5192 02bd 8fc0 ed3c
00000010: b8a5 873e 4af3 c03e 57af 5cbe 2ddb e5bd
00000020: 39a3 8c3e 66b7 253e b6d9 893c de59 06be
00000030: 8b8a 1fbd 4895 153d 6a18 3fbe 4326 aa3e
00000040: 8cd6 4cbe 3a4b 293c 4207 82be 48fd 0b3e
00000050: 3c7a a4be 6a67 ba3d 3d01 843e 4d02 2e3e
00000060: 228e 993e 8376 7fbe 7081 3b3d 9635 29be
00000070: 5698 393e 6469 66be 64c3 d2bd c0bc 6abe
00000080: 9a0d a7be bc3d c1be b838 33bd a2c1 91be
00000090: 768b b33d 3dbd 213e 5b36 8e3e 4ba7 933e
000000a0: 63af 27be 2320 a13e 1ca0 103e 219c 06be
000000b0: a287 77be deb2 6bbe 3e8f e3bc 34ee 3e3e
000000c0: 00ff e8ba 25df 21bb 087a 4d3e ae70 b7be
000000d0: 6e76 35be b6db aebe f253 ccbd ecbc b53d
000000e0: adf4 b33c f901 433d 41ab 87be 869e 9bbe
000000f0: 8858 c4be e09d 39be 0f45 ba3e f01d a13e
00000100: 6c46 8cbd 1e13 f63d 46d8 563d 1574 683e
00000110: 953d b3bd 9cb1 a33d 2cda a9be 58f5 9fbe
00000120: 9347 30be bff0 9bbe 812b 653e e859 603d
00000130: 1a77 373e acc6 b4be 6057 9abc c9b0 78be
00000140: 3157 acbe 6f86 0bbe 182c cb3d 015a 8bbe
00000150: fd8b 3dbe f314 a13e 368a 93be f930 8bbe
00000160: 9593 39be 4b53 6c3e 7883 07bd c0f1 923e
00000170: fb4d b43e 7ee1 9d3e 5e41 cc3e 98b1 873e
00000180: bcd6 a3bd 4938 aa3e 8fe1 a8be 31ca ef3d
00000190: 9544 9c3e ca6c 7e3d cb71 0d3e 26bf f5bd
000001a0: e6db 723e 1fce b13d f004 343e 470e ce3d
000001b0: 9d36 a7bd 8cdd 8fbe 9599 733e 8893 d1bd
000001c0: 9dbb 88be 6ad2 7a3e c9b5 913e f9fb c0bd
000001d0: f47e b93e 6bd5 e9bd 9ec9 0e3e 722a 86be
000001e0: a4c1 d03d 7008 30be 7a35 80be dd8c 43be
000001f0: 9b33 223e cff8 a83e c3b7 843d 60c3 563e
00000200: e792 8ebd 30a4 f73c c6e4 953e 88d4 0dbe
00000210: 5864 b2bd 5828 c03e 52a8 5f3d 340e ff3d
00000220: 0fa2 b13d 3a34 b93e 084e c8be c690 4a3e
00000230: 6fd4 d5bd 6f63 33be 82e5 78be 24af 28be
00000240: 215e 313d 0f92 413e 5d74 a6be 4082 a9be
00000250: 5c8b c53d 3ef4 6c3d db52 0c3e 1fc4 823e
00000260: 4844 bfbe ce52 593e d082 343e 03f1 5dbd
00000270: 3ae7 553d 6639 493b 5dc3 5bbc 369d 903d
00000280: 0b85 a6be e0e2 743e d861 873e 24d4 193e
00000290: 9cdc 7e3e e033 78be b3cd 82bd b8b6 90be
000002a0: b5ed 7ebe 7f4e 583e bbb7 3f3d 939f c0be
000002b0: 73c3 33bd 1b90 babd 6b0a a23e f224 b4be
000002c0: 7aa1 86be bde0 1c3e b036 6bbe 17b7 82be
000002d0: 3a7b 8d3e a7d3 813e 8d44 bcbd f7f4 04be
000002e0: cbfe 443e 89e3 6abe abd2 f0bd 564b 753e
000002f0: da4d 2a3e d314 0e3e 7729 d6bd e5ec 13be
00000300: 7c42 5bbd 2ecd 943e 6b6a 9cbe 84d1 b4bd
00000310: fc1b 86be c1c9 173e a62c 18be e7a5 1a3e
00000320: 90d2 5dbe 5765 9ebd 835b 0fbe 8b24 e4bd
00000330: 3b17 9cbe 8d7c 633e 2503 87bd 168f 363b
00000340: 0f32 a53e af79 5cbe 9ded 54be d22c afbd
00000350: 00b2 33be ed00 7dbe f03d 8abd 5937 8bbe
00000360: db5e 9fbe f32e 253e 03dc 9b3d 4427 7fbd
00000370: 1b38 133d 1da0 0dbe e41c 64bd 34cc e2bd
00000380: 0bf3 113e 3116 8e3c 674a 2cbd c9cd a53e
00000390: da49 193e 1f71 abbe 0670 bdbe f596 ae3e
000003a0: fad5 083e 1d73 733e 520c 92be 4390 a3be
000003b0: 8e80 623e 06e5 4abe 6722 d6bc 3e9d ff3d
000003c0: d673 1bbd ad31 ae3e 7813 5a3d b01b 83be
000003d0: f2e4 513e 3cec 803e e143 c63e 1d4b c73e
000003e0: 4d7d bd3d 7723 45be 89d6 883e 9ad6 66be
000003f0: 910f 54be dd5a 7b3e a185 afbe 7912 03be
0.0025794585 0.2171017 -0.03187782 0.029022483 0.2649362 0.37685615 -0.21551262 -0.11223445
0.2746828 0.16183242 0.016827445 -0.13120219 -0.038950484 0.03651932 -0.18661657 0.33232316
-0.20003718 0.010332877 -0.25396162 0.13670838 -0.32124507 0.09101756 0.25782195 0.16993065
0.2999125 -0.24947552 0.045777738 -0.16524348 0.18124518 -0.22501141 -0.10291174 -0.22923565
-0.32627565 -0.37742412 -0.043755263 -0.28468043 0.087668344 0.15794845 0.27775845 0.28838572
-0.16375498 0.3146983 0.14123577 -0.13145496 -0.24172834 -0.23017451 -0.027778264 0.18645555
-0.0017776191 -0.0024699655 0.20066082 -0.35828155 -0.17720959 -0.34152 -0.09976949 0.088739246
0.021967256 0.047609303 -0.26497844 -0.3039438 -0.38348794 -0.18126631 0.36380813 0.31468153
-0.068493694 0.12015365 0.05245235 0.22700532 -0.0875198 0.07992861 -0.33174264 -0.3124187
-0.17214803 -0.30457112 0.22379877 0.05477324 0.17916527 -0.35307825 -0.018840492 -0.24286188
-0.33660272 -0.13625501 0.099205196 -0.27217105 -0.18510433 0.31461295 -0.28816384 -0.271858
-0.18122704 0.23078649 -0.033084363 0.28700066 0.35215744 0.308361 0.3989362 0.2650268
-0.07999942 0.33246067 -0.32984588 0.11708487 0.30521074 0.062115468 0.1381294 -0.11999349
0.23716697 0.086818926 0.17580009 0.10061317 -0.081647135 -0.28098714 0.23789056 -0.102332175
-0.26705638 0.24494329 0.28459004 -0.0942306 0.3622967 -0.11417659 0.13944098 -0.26204258
0.10193184 -0.17190719 -0.250408 -0.19096704 0.15839998 0.33002326 0.06480362 0.20972967
-0.06961613 0.030229658 0.29276103 -0.13850605 -0.08710545 0.3753078 0.054603882 0.12453881
0.08673488 0.36172658 -0.39122033 0.19781789 -0.10440909 -0.175184 -0.243063 -0.16473061
0.04330266 0.18903373 -0.32510653 -0.33107185 0.09645721 0.057850115 0.13703482 0.25540254
-0.37356782 0.21222994 0.17628026 -0.054184925 0.052222468 0.0030704378 -0.013413277 0.070612356
-0.3252338 0.23914671 0.26441836 0.15022331 0.24888843 -0.24238539 -0.0638689 -0.28264403
-0.24895366 0.21123694 0.04680608 -0.37621745 -0.043887567 -0.09109517 0.31648573 -0.35184437
-0.26295072 0.15320106 -0.2297008 -0.2553031 0.27633077 0.2535679 -0.091927625 -0.12984072
0.19237821 -0.2293836 -0.11758932 0.2395452 0.1663126 0.13875131 -0.104571275 -0.14445837
-0.0535302 0.2906279 -0.3054994 -0.088290244 -0.26193225 0.14823057 -0.14860782 0.15102349
-0.21662354 -0.07734173 -0.13999753 -0.111397825 -0.30486473 0.22215481 -0.06592397 0.0027856282
0.32264754 -0.21530794 -0.20793767 -0.08553471 -0.1754837 -0.24707384 -0.06750095 -0.27190664
-0.31127056 0.16131191 0.07610323 -0.062293306 0.03594218 -0.1383061 -0.055691615 -0.11074105
0.1425287 0.017344566 -0.042063143 0.32383564 0.14969578 -0.33484742 -0.3699953 0.34099546
0.13362876 0.23774381 -0.28525025 -0.31946 0.22119352 -0.19813928 -0.026139451 0.124811634
-0.037952267 0.34022275 0.053241223 -0.2560706 0.20497492 0.25180233 0.38723662 0.38924494
0.09252415 -0.1925181 0.26726177 -0.22542801 -0.20709063 0.2454638 -0.34281638 -0.12800016

relational_model.layers.0.bias f4 [150]
00000000: ae38 6d3d de1a e63d ac12 acbe 0395 5b3e
00000010: 420a 343e f1b7 3e3e 8236 8f3e 9f8a 3b3e
00000020: 0089 bb3e b25a a43c 16dd 19be 61e6 8ebe
00000030: 428e 77be bb55 04bd fe38 adbe b9bb 663e
00000040: 3807 bdbd 7869 903e 556b 52be 50ae 92be
00000050: ce40 543e c3f2 a2be 772a 53bd 0173 043e
00000060: 6148 a73e 1de2 22be 8aca b63c 838d 7ebe
00000070: 4d66 9e3e 1d1c c93d b171 b93e 2ba2 b23e
00000080: dafd a7be 47ef c6bd 0973 6f3e fbd1 70be
00000090: 5495 c1bd 0ee7 b83e fe50 95be ab7c 20be
000000a0: 31d5 8e3c 43f7 203e c891 e43d 03a8 923d
000000b0: d18b 023e 9356 833e 9eae b7bd 7d09 1ebe
000000c0: 5d82 26be 6215 773e 6896 06be 33bb 31be
000000d0: 97c0 c0be aa6b c13e 3a20 663d 7d88 a0be
000000e0: c94e 473d 78be 1539 29d9 f8bd 2491 1b3e
000000f0: 5e13 133d 2198 cebd 4506 24be 8997 bbbe
00000100: e913 343e f2da 963e 1b2c aabe ae45 0cbe
00000110: ac6f 923e 6bb9 943e 5a7d c9bd d880 14be
00000120: 802e b2be be8b 78be 31c2 a6be ded5 013e
00000130: e4ce 68be 1203 30bd f7c3 13be af00 363d
00000140: 9082 8e3e c760 6cbe 9739 173d ceca 3a3e
00000150: f56e 563e 9a43 553e adb6 69be 19b6 acbd
00000160: ba69 95bc b2ae a7bd 7173 b3be 93fc 753e
00000170: 174a 493e 385d fd3d fdc7 c5bd a577 debc
00000180: 9114 88be f5d0 b5be 5e29 193e 3b8f a4be
00000190: 80ef aa3c c844 6abd 1592 5ebe 9b87 bbbe
000001a0: c798 02be 3ccb be3e 0161 a3be b9ed c23e
000001b0: a705 873d 318c a3be a7b7 33be c49b c93e
000001c0: ef30 573d 6423 2bbd 74f9 b6bd ab70 d8bd
000001d0: 0698 a03e 204d 59be bb3f 43be ee61 64be
000001e0: a884 3dbe 980b 84be 910f a6be 6c92 afbd
000001f0: 0149 093e 17f0 113b 7ee9 75be ef01 61be
00000200: 2df8 52be 095d 45be 13f9 1d3e a76c a33b
00000210: 4bc6 e6bd 7721 aebe ab8e 9dbd 4b4d 933e
00000220: ae7a 113e 2822 c33a 711e c73e d89b 33bc
00000230: 3da6 b8be 2652 8b3e 6412 8cbd c33b 553e
00000240: d2a7 a0be 7572 a43d 37b8 803e 7761 c9bd
00000250: 26b5 aabe cec1 bb3e
0.057915382 0.11235593 -0.33607996 0.21443562 0.17582038 0.18624856 0.27971274 0.18314599
0.3662796 0.020062778 -0.15025744 -0.2791014 -0.24175361 -0.03230832 -0.33832544 0.22532548
-0.092298925 0.28205466 -0.20548756 -0.28648615 0.20727846 -0.31825837 -0.05155417 0.12934496
0.32672408 -0.15906568 0.022313375 -0.2485867 0.30937424 0.09819815 0.36219552 0.3488935
-0.3281086 -0.09713607 0.23383726 -0.23517601 -0.0945231 0.3611378 -0.29163355 -0.15672557
0.017435642 0.15719323 0.11160618 0.07160952 0.12748648 0.25651988 -0.089688525 -0.15433307
-0.16260667 0.2412925 -0.13143313 -0.17356567 -0.37646934 0.37777454 0.056183077 -0.31354132
0.04865912 0.00014280702 -0.12150795 0.15192086 0.035907142 -0.1008761 -0.16018017 -0.3663905
0.1758572 0.29463917 -0.33236775 -0.13698456 0.28600824 0.29047713 -0.09838362 -0.14502275
-0.34801102 -0.24272057 -0.3257003 0.1267924 -0.22735173 -0.042971678 -0.14430223 0.044434246
0.27833986 -0.23083793 0.036920156 0.18241426 0.20940764 0.20826569 -0.22823592 -0.0843317
-0.01823889 -0.08187617 -0.35049012 0.2402213 0.1965717 0.12371296 -0.09657285 -0.02715666
-0.2657819 -0.35510984 0.14957187 -0.32140526 0.020866156 -0.0571945 -0.21735413 -0.36626896
-0.12753592 0.3726443 -0.31909946 0.38071993 0.06592875 -0.31942895 -0.17550527 0.39376652
0.0525369 -0.041781798 -0.08934298 -0.10568365 0.31365985 -0.21220827 -0.1906728 -0.22302982
-0.18507636 -0.25790095 -0.3243375 -0.0857285 0.13406755 0.002226835 -0.24014851 -0.21973394
-0.20602484 -0.19273771 0.15427046 0.0049873176 -0.1126829 -0.34009907 -0.076932274 0.28769907
0.14206955 0.0014887499 0.38890412 -0.010962449 -0.3606433 0.27211112 -0.06839445 0.20823579
-0.31378037 0.080296434 0.25140545 -0.09833043 -0.3334133 0.366713

relational_model.layers.2.weight f4 [150, 150]
00000000: 98a8 943d 76d5 a5bd e74b 8b3c be19 a93c
00000010: eaff 14bc f093 213d 018a 91bd 2c82 c63c
00000020: a3ef 493d 3615 ec3c 00d4 6a3d 84fc 563d
00000030: df93 c3bc b442 ea3c 3801 633b 9957 bfbd
00000040: b446 c63d 43ae 413d 089b a23a ad60 33bc
00000050: 3d16 a4ba dc3e 2c3c 915d 35bd 2a16 56bd
00000060: e683 643d dcdf 773c 6c31 5fbd e45b 32bd
00000070: 2e08 3abc 9b08 8b3d 3c2e 6cbc bad3 6d3d
00000080: 3636 adbc 8c91 853d 2884 07bd 2497 22bd
00000090: fa99 ec3c 10a0 51bd 7ed4 4ebc b560 363d
000000a0: 4482 1dbd 30ae 2cbd 934d aebc e491 0dbd
000000b0: e6a9 35bd 85c5 12bd e887 51bd 6d6f b93d
000000c0: c781 593c 38ec 373d f66f 9b3c 56b0 81bd
000000d0: 67a9 80bd a02e 6ebc ceb7 143d a4c1 113d
000000e0: 860e b1ba 1ef5 ae3c 91a2 ebbc 0ad2 363d
000000f0: 721d 2a3d 5f99 9c3d e533 563d bdca 013d
00000100: 68da 20bd ac32 e1bb 6c4e 1cbd e532 2f3d
00000110: c683 603d 51c1 2cbd 724d 0abd 1e96 41bc
00000120: 4e14 1dbd 9064 823b f1d3 8b3d a6c8 183d
00000130: 1b14 97bd d468 9ebd dbe2 94bd f151 b4bd
00000140: e334 4c3d cfa7 e8bc 6417 91bd 9bb9 723d
00000150: 0cb0 10bd df75 bcbd 3b49 943d 3cd0 b3bd
00000160: f44b 9dbd 0bba 2fbd e1c2 db3c 451e b6bd
00000170: 3e43 953d 6d1f 6abd 2ea4 3b3c 255a 86bd
00000180: cd87 853d 7c94 b23d 2348 f13b 877c b03d
00000190: 7669 753d b1d8 af3d ff97 573d f365 15bd
000001a0: 762b 603d 1e10 a8b9 15c8 883d 8927 a7bd
000001b0: ddf0 3f3d b6c6 72bd 3260 a23b f441 623d
000001c0: b8e3 633d 2365 e73b c832 403d 1006 ab3d
000001d0: d19f 243d 533e 363d 98e4 1dba 4372 e53b
000001e0: 719f 93bd 0649 8b3d 9085 9c3d 7b43 b9bd
000001f0: 21cf 4cbd c697 8cba 47bd a5bd e734 d43c
00000200: abbd 0dbd 9085 d23d ae1a 953b 59b5 dfbb
00000210: cc7b 843d a2de 9cbd 5870 263c 0b9c aebd
00000220: 4049 58bd afc2 45bd 75af 1d3d 33b4 47bd
00000230: e87c 81bd 9013 853d ad1d 1ebd c369 8fbd
00000240: 385a 263c d1c2 f63c a947 69bc 24ff d7bc
00000250: 6964 873d c28c 8e3c c883 a23d 65b3 acbd
00000260: 15bb 823c d566 24bd 80f9 a43b 51bd a23c
00000270: 098b 8cbd b973 5c3d c237 27bd 8b47 93bc
00000280: 43d8 bfbc d4b3 41bd ec41 8d3d 09fa 8c3d
00000290: a7b3 83bd 1bdc dabb 087e 7a3d 0744 4ebd
000002a0: b247 703d ccc3 613d 6118 403a 33f9 343d
000002b0: 3a59 a03a 5702 b3bd 4b76 0abd ee6b 853c
000002c0: e048 4cbd fb74 c53d 00ed 843b e1c9 86bd
000002d0: e5da 2b3d 5560 d83c 4b07 bb3d e9d4 83bd
000002e0: f3d7 41bd bbed 27bd d41a f93c c2dc 0b3d
000002f0: 3293 9f3d 01bb a73d d88a 663d 1ab9 72bd
00000300: fe8b ac3b adbb b93c fc1c a2bd 68bc 0e3b
00000310: 13e3 183b 6a58 823c 2998 c23d 01de a4bd
00000320: bbcc 4a3d 1861 01bd 957e d13c 3197 003c
00000330: dea8 483d f5ee 8b3d e7a3 7fbd 9dd6 abbd
00000340: 2dec 22bd 6415 973d fa39 fb3c 828d 833d
00000350: 59e4 e33b 3ec4 5dbd 212b 0cbc f844 1ebd
00000360: a4b9 e6bc 47d0 173c a58e f8bb 9b5c 713c
00000370: 9bf2 68bc f3ef 8a3c 5056 3c3d 1524 913d
00000380: 8e57 9bbd 8c1e e2bc 00a9 733a 80d0 4d3b
00000390: ca7b 6dbd b405 623d 1d7e 183d 97d4 d83d
000003a0: d702 29bd 6ac5 28bb ae39 823d fef1 3abd
000003b0: 8992 ae3d 17d4 b13d 292d 25bc 9ab2 ae3d
000003c0: 6655 62bd 3882 91bd 72dc 073c 25e5 a1bd
000003d0: 2b4f a93d 4b7f 65bd fcc4 07bd 499f ad3c
000003e0: d050 08bd cdcc 44bc c683 0e3d 1a4b 803d
000003f0: 91af dabc d8a8 06bd 7f15 943d 9fc7 8a3d
0.07258719 -0.08097355 0.017003966 0.020642158 -0.009094218 0.039447725 -0.071064 0.024231993
0.0493008 0.028818708 0.057331085 0.05248691 -0.023874221 0.02859626 0.0034638178 -0.0934288
0.09681454 0.04728533 0.0012405822 -0.010948342 -0.0012518835 0.010513034 -0.044278685 -0.05226723
0.05578985 0.015129056 -0.05449049 -0.043544665 -0.011354489 0.06788751 -0.01441532 0.058063246
-0.021144014 0.065219015 -0.03308502 -0.03969492 0.028882015 -0.051178038 -0.012623904 0.04452582
-0.03845431 -0.042158306 -0.021277225 -0.03456296 -0.04435148 -0.0358329 -0.051155 0.09054456
0.01327557 0.04490301 0.018974286 -0.063324615 -0.06282311 -0.014537483 0.036308102 0.03558506
-0.0013508357 0.021357115 -0.028764041 0.044633903 0.041531987 0.07646441 0.052295584 0.031687487
-0.03927079 -0.0068724956 -0.038160726 0.042773146 0.05481317 -0.04217655 -0.033765264 -0.011815576
-0.038349442 0.003979273 0.06827534 0.03730073 -0.07376882 -0.07734838 -0.07269832 -0.088046916
0.049855124 -0.02840033 -0.070845395 0.05925904 -0.03532414 -0.092021696 0.0724053 -0.08779952
-0.076805025 -0.042902034 0.026826324 -0.08892492 0.07288216 -0.057158876 0.011452718 -0.065601625
0.065200426 0.087197274 0.0073633357 0.08617502 0.05991503 0.085862525 0.05263519 -0.03647418
0.054728948 -0.00032055465 0.066787876 -0.081618376 0.046860565 -0.059271537 0.004955315 0.05523868
0.05563709 0.007061617 0.04692343 0.08350766 0.040191475 0.04449303 -0.0006023138 0.0070021464
-0.072081454 0.068010375 0.076426625 -0.09046074 -0.05000222 -0.0010726384 -0.080927424 0.025904132
-0.03460471 0.10279381 0.0045502996 -0.0068270382 0.06468925 -0.07659651 0.010158621 -0.085258566
-0.05280423 -0.048281368 0.038497407 -0.048755836 -0.06322652 0.06497872 -0.03860252 -0.07002594
0.010153346 0.030122193 -0.0142382765 -0.026366778 0.066109486 0.017401103 0.079352915 -0.08432654
0.015958348 -0.04013713 0.0050346255 0.019865664 -0.06862456 0.0538213 -0.04082466 -0.01797845
-0.023418551 -0.047290638 0.06897339 0.06883628 -0.0643075 -0.0066790706 0.06115535 -0.050357845
0.058662124 0.055118367 0.00073278515 0.044182967 0.0012233623 -0.08740681 -0.03380422 0.016286816
-0.049874187 0.09641453 0.004056573 -0.06581474 0.0419568 0.026413122 0.091322504 -0.06437094
-0.047325086 -0.0409982 0.0304083 0.034146078 0.07791747 0.08189965 0.056284755 -0.059258558
0.005265712 0.022672499 -0.079156846 0.002177978 0.0023328706 0.0159113 0.095016785 -0.080501564
0.049511652 -0.031586736 0.025573054 0.007848547 0.04898917 0.06832687 -0.06241217 -0.083905436
-0.039776016 0.07377127 0.030667294 0.06423475 0.0069547114 -0.05414223 -0.008555205 -0.038639992
-0.028164692 0.009265966 -0.007585364 0.0147315515 -0.014217998 0.01696012 0.04598075 0.0708696
-0.07585059 -0.027602457 0.00092948973 0.0031404793 -0.057979383 0.05518122 0.037229646 0.10587423
-0.041262474 -0.0025752434 0.06358658 -0.045640938 0.08524043 0.08683031 -0.010081568 0.08530159
-0.055257224 -0.071049154 0.008292304 -0.07905034 0.08267053 -0.0560296 -0.033146843 0.021194117
-0.033280194 -0.012011719 0.034793638 0.062643245 -0.026695045 -0.032875866 0.072306626 0.06776356

relational_model.layers.2.bias f4 [150]
00000000: 0cd3 10bc c010 81bd daf0 abbc 1345 c53d
00000010: de14 aebb ba01 213d 0435 073d b809 a5bd
00000020: b468 323d e7be e8bc 1f4b bf3d a7ba 363c
00000030: 4ad6 80bd cb73 80bd b091 3c3d f45e 1dbd
00000040: e3fa 653d 58a5 89bd 7bf8 80bc 8604 ab3d
00000050: 3c08 6d3d a0a2 2a3d 693c 4fbd dd8d 89bd
00000060: 6e2e 493c da50 8d3c a44d a2bc dc55 13bc
00000070: 8692 5abd c216 553d a9ba 27bd b477 333d
00000080: 0103 bfbd fd91 41bd e8d8 3e3d 33a1 b03d
00000090: 4250 383c ad4c a53c b300 15bd 090f ba3d
000000a0: 4492 733d 260c b43d 14a7 d03c 6c34 90bd
000000b0: 4d98 a2bd e92c 77bd 28bb 80bd a40a b83d
000000c0: ba83 52bd 553f 293d 7eae 7cbd b89a 823d
000000d0: 439d 183d f6d0 b13d 7cac bdbc 72c0 2fbd
000000e0: 201f 11bd 2546 953d 7867 92bd e0cc 71bd
000000f0: 9e6d 103d 2d38 97bc 6be9 5b3d b741 08bd
00000100: 8c87 683c 991a b13c 32f6 0fbd 8d69 96bd
00000110: a70a 2b3d c1fb 6fbd d9f4 cfbd b9f7 68bd
00000120: ae93 a63d acc2 d4bc 37d2 453d 6c88 b2bc
00000130: 1f24 27bd 94b1 b4bd 7b3c 3d3d 1de9 1e3d
00000140: 9a1f 433d a95f e23d faeb 81bd 1c23 4a3d
00000150: c7db 8abc fb63 cebc a21b a6bb 8062 25bc
00000160: 7fc2 32bd ab26 803d 8875 b93d ffbb 823d
00000170: c032 33bd 806e 973d 1dda 55bb 17a9 c8bc
00000180: aeff 313d 7ebd b1bc 7ddc 793d 7996 65bd
00000190: 9c2a b03d 3fe5 723d 469b 7a3d 1c9c e1bc
000001a0: 3b04 66bd 14e3 5cbd eb9f 1f3d f44e 49bd
000001b0: 91f4 f13c 2906 903d 9fab adbd 0ae0 b53d
000001c0: 341c c03d 7419 153d 5351 8cbd 21c2 30bd
000001d0: 3604 47bd 4189 2bbd a2e4 023d c49f 953d
000001e0: 27a7 7dbd ac5b e83a 2cfa 54bd bbf2 863c
000001f0: 8e79 d03d 8ffc 303d 8df6 99bd 44fd a03d
00000200: ccf8 733d fbe6 853d 00b3 f43a 7275 84bd
00000210: 8efd c33d ee99 4cbd ba3f 1c3d bebf 933d
00000220: 345f ca3b d82f f9bb 3aa6 61bd dd0c 193d
00000230: 473a 313c e5af 3e3d 44df 11bb 43ec 493d
00000240: fd7a 063d 223a 813d 8bb2 623d cb13 2d3d
00000250: 5d53 66bd 0ff6 fcbc
-0.00883938 -0.06302023 -0.02098887 0.096323155 -0.005312546 0.039308287 0.033009544 -0.08058494
0.043556884 -0.028411342 0.093405 0.0111529 -0.062908724 -0.06272086 0.046037376 -0.038420632
0.056147467 -0.0672099 -0.015743485 0.08350472 0.05786918 0.041658998 -0.05059472 -0.067165114
0.012279136 0.017250467 -0.019812413 -0.008992638 -0.053362392 0.052023657 -0.040949497 0.04381533
-0.09326745 -0.047258366 0.046593577 0.08624496 0.011249604 0.020178163 -0.03637762 0.09084899
0.05946566 0.0879138 0.025470294 -0.07041249 -0.07939205 -0.060345564 -0.06285697 0.089864045
-0.051395155 0.041320164 -0.061689846 0.063771665 0.03725935 0.08682434 -0.023153536 -0.04290814
-0.035430074 0.0728877 -0.07148641 -0.059033275 0.03526079 -0.018459404 0.0536894 -0.033265796
0.014192473 0.021619128 -0.0351469 -0.07344351 0.041758206 -0.0585897 -0.10154123 -0.05687687
0.081336364 -0.025971733 0.04829618 -0.021793567 -0.040805932 -0.08822933 0.046200257 0.038796533
0.04763756 0.11053402 -0.06343837 0.04934989 -0.016950501 -0.025194159 -0.005069212 -0.010094285
-0.043642517 0.06257375 0.090556204 0.06383514 -0.04374957 0.07394123 -0.0032631226 -0.02449469
0.043456726 -0.021696802 0.06100129 -0.056051705 0.08601877 0.059300657 0.061183237 -0.027540259
-0.05615638 -0.053927496 0.03897087 -0.04914756 0.029535564 0.07032425 -0.0848 0.08880623
0.09380379 0.036401227 -0.06851449 -0.043153886 -0.048588 -0.041878942 0.031956322 0.073058635
-0.061926987 0.0017727516 -0.051996395 0.016473165 0.10179435 0.04320961 -0.07517729 0.078608066
0.059563443 0.06538197 0.0018669069 -0.064677134 0.09569846 -0.049951486 0.038146712 0.07214306
0.0061759 -0.0076045804 -0.055090167 0.037365783 0.010817117 0.046554465 -0.002225832 0.049297582
0.032832135 0.06309916 0.055346053 0.042255204 -0.056231845 -0.030879049

relational_model.layers.4.weight f4 [150, 150]
00000000: 7c6d 063b db84 a1bd 7376 77bd 1e41 a4bc
00000010: 2f6e 243d 1d67 84bd 99cb f13b dae1 08bd
00000020: 14c4 7f3d a5f0 833c 5874 e939 2426 8e3d
00000030: 1268 3a3d ec74 1ebc 5dfa b33c cd96 e73c
00000040: 8ab5 0ebd ccfc 823c c479 fdbc c223 80bd
00000050: 80dd b0bd 3a44 6dbd aa73 7fbd f879 3f3d
00000060: ef3d 293c 30f4 4dbd e4dc 4dbd d038 933d
00000070: 1195 86bd 1f34 8ebc 0070 d53a a073 e83c
00000080: d14a 27bd bedd 51bd f065 6b3d 3537 79bd
00000090: 00b4 83bd 9466 783d 9493 3f3d 8cf3 84bd
000000a0: 9839 ecbc 4d70 36bd 358f 7abd b8e0 5dbd
000000b0: 8af2 003d 4738 e6bc 490b 8dbd 7c96 26bc
000000c0: dd0d 9ebd 0c24 7b3d 1030 423d 40c7 113d
000000d0: 707f 9c3d e632 823d 2027 a53d 844d 093d
000000e0: c758 bb3c edf3 aabd ba71 a03d e0cd 793d
000000f0: c3b0 98bd c89e a63d 4afc 9ebd 03ff d7bc
00000100: 5172 10bd f47b 823d f864 6a3d 50c9 923d
00000110: c68f 063d 0f4d 7bbd 95eb 853d 81da 363c
00000120: 8d85 8fbd 8f24 62bd 4c7b 49bd 96ea 063d
00000130: 74a3 8d3c 657c b7bc e83f 1d3c add7 84bd
00000140: ad81 eb3c cc4a 2b3d 0254 c7bb bca7 233d
00000150: 4456 fdbc c693 7c3d c6ec 67bd c360 8fbd
00000160: 04c5 61bd 404a 19bb 589d 283c 4683 863d
00000170: dd49 013d eece a23d d728 82bd dc30 253d
00000180: aca6 1a3d 1547 2abd f7d6 3b3c cb6f 68bd
00000190: 395f 473a 90c8 833d 9f21 443d 4d53 1dbd
000001a0: 6128 d63c 5583 d8bc 07df 8fbd 9cfa 133d
000001b0: 5d54 31bd c502 983d 3cf6 a8bd ad1b 643c
000001c0: e67f a2bc 682d 523d cafa b1ba ee3d 2bbd
000001d0: 34aa 91bd c849 cc3c 4952 0dbd 161d 283d
000001e0: 106a 4e3c 4c27 13bd 386f 7d3d d069 533c
000001f0: bc2c 583d f9ad 733d c9d2 9cbd bda8 6ebd
00000200: 2bc3 85bd 34ff 043d ea00 81bd 700a 5fbc
00000210: f8b4 43bd feb3 76bd 272e 01bd 6d38 4fbd
00000220: 2c8e 57bd 5e0c 873d 4c0c ad3c 65ab 22bd
00000230: 73c6 98bd 8ded 13bd 21c4 0c3d 91d6 8abd
00000240: 58cd 653d 01cf 9fbd 93db 64bd 68f2 823c
00000250: e074 0bbd b821 363d c5c2 62bd 914a dd3c
00000260: 5b79 a03d 4dc7 3e3d 69bb 5fbd a644 993c
00000270: d119 9abd ae6c 91bd 630c a33d 2da1 c43d
00000280: 09f7 b2bc 21cc 93bd 4fce cc3d a913 a73d
00000290: 44d1 3b3d aee0 97bd 2c4d 8a3b 710a 50bd
000002a0: ae39 a73c 21c5 1cbd fccf c3bc 1e7c 7c3c
000002b0: 9ee0 c23c 305b b23d 6825 06bd 4db0 bd3b
000002c0: ebc6 a23d 5877 803d 06e8 313d 898b 3fbd
000002d0: 0015 a73d 315e 183c 9818 10bd 17e2 9a3d
000002e0: 8ed9 803d e52e 84bd c5e7 f0bc b316 193d
000002f0: 9a29 2d3d e3ce 603d c6ab 3e3d c14c 4f3d
00000300: e65a 0d3b 76e6 a5bd 3a74 e23b e3cb bf3d
00000310: ec7d 39bd a005 883c 18ce 403a 8fb7 9fbd
00000320: b0ca ef3c eea9 153d 686a 853c 378b e1bc
00000330: 4b94 af3c 34cb 4c3d 5468 343d ed9e 54bd
00000340: 603a 983d b705 a63d 2b37 19bd b075 c4bc
00000350: 4735 9cbd 0896 f53c ffd3 a73a aa0a 933d
00000360: 2fbb 3abd 6326 87bd 24f0 0f3d 3693 643d
00000370: f915 b43d 99d5 9a3d 8937 f33c 6056 263c
00000380: d8a9 b4bd c083 1ebc a8ad 08bd 1117 8e3d
00000390: 4850 b8bc 4aae 313d ec95 d93c 6796 1bbd
000003a0: eae5 fe3b dc76 963d 31e1 88bc 2cd9 de3c
000003b0: e0cb 033d dc85 9abc a743 863c 2136 12bd
000003c0: 693d 893c 0aa4 91bd dea4 82bc 40ce a0bd
000003d0: 8300 753c 6827 d9bb 5814 8a3d 8857 ba3c
000003e0: 40af ec3c 2300 8b3d 89e9 a9bd 36fa 13bd
000003f0: 28b2 b43d d676 c1bc 30c8 8d3d 95ae 3e3d
0.0020512035 -0.07886668 -0.060415696 -0.020050582 0.04014414 -0.0646498 0.007379007 -0.033418514
0.062442854 0.01610596 0.00044527906 0.069408685 0.045509405 -0.009671431 0.021969968 0.02827015
-0.034841098 0.015989684 -0.030941851 -0.0625682 -0.08635998 -0.057926394 -0.062366165 0.046747178
0.0103297075 -0.050281703 -0.050259486 0.071885705 -0.06571401 -0.017358838 0.0016283989 0.028375447
-0.040842835 -0.05123686 0.057470262 -0.060843665 -0.06430817 0.0606447 0.0467716 -0.064917654
-0.028836057 -0.044540692 -0.06117173 -0.054169387 0.031481303 -0.028103007 -0.06886918 -0.010167714
-0.07717488 0.061313674 0.047409117 0.03559041 0.07641494 0.06357364 0.08064103 0.03352119
0.02286948 -0.083473064 0.078341916 0.060987353 -0.074555896 0.08135754 -0.07762964 -0.026366716
-0.03526527 0.063712984 0.057225198 0.071673036 0.032851957 -0.061352786 0.06539074 0.011160494
-0.07007895 -0.055210646 -0.04918985 0.032938562 0.017289855 -0.022398183 0.009597756 -0.064864494
0.028748358 0.04181938 -0.0060830126 0.039954886 -0.030924924 0.061664365 -0.05662229 -0.07000878
-0.05511953 -0.0023390204 0.01029142 0.06568007 0.031564582 0.07949625 -0.06355446 0.0403298
0.037756607 -0.041571695 0.011464826 -0.05674724 0.0007605437 0.06434739 0.047883626 -0.03840952
0.026142301 -0.026429811 -0.07024961 0.03612767 -0.043293346 0.07422403 -0.082500905 0.013922614
-0.019836377 0.051312834 -0.0013578769 -0.041807108 -0.07112542 0.024937525 -0.0345023 0.041043364
0.012598529 -0.03592615 0.061873645 0.012903646 0.052777037 0.059492085 -0.076573916 -0.05826639
-0.06531366 0.032469943 -0.062990025 -0.013613328 -0.047780007 -0.060230248 -0.031538155 -0.05059092
-0.05262582 0.06594156 0.021124028 -0.039714236 -0.07459726 -0.036115218 0.03436673 -0.067792065
0.056104034 -0.07803155 -0.055873465 0.015984729 -0.034047008 0.04446575 -0.055361528 0.027013095
0.07835647 0.046576787 -0.054622088 0.018709492 -0.07524455 -0.07100807 0.07961347 0.09601054
-0.021846311 -0.07216669 0.10000288 0.08158047 0.045853868 -0.07415901 0.0042206254 -0.050791208
0.020413246 -0.038273934 -0.023902886 0.015410451 0.023788746 0.08708799 -0.032750517 0.005788839
0.07948097 0.06272763 0.043434165 -0.04676393 0.08158302 0.009299801 -0.035179704 0.075626545
0.06291495 -0.06454257 -0.029407391 0.037375163 0.042276002 0.054884803 0.046550535 0.050610308
0.0021569072 -0.081005976 0.006910828 0.0936506 -0.045286104 0.016604245 0.0007354929 -0.07798683
0.029271454 0.03653901 0.01628609 -0.027532203 0.021433016 0.049998477 0.044044808 -0.051909376
0.07433009 0.08106559 -0.037406128 -0.023981899 -0.07627349 0.029978767 0.0012804269 0.071797684
-0.04558867 -0.065991186 0.035141125 0.055804454 0.087932535 0.07560272 0.029689567 0.010152429
-0.088214576 -0.009674966 -0.033368737 0.06937993 -0.022499219 0.043379106 0.026560746 -0.03798523
0.0077788727 0.073468894 -0.016708942 0.027203165 0.032176852 -0.018862657 0.016389681 -0.035696153
0.016752915 -0.07111366 -0.015947755 -0.07851839 0.014953735 -0.006627012 0.067421615 0.022746816
0.02889216 0.067871355 -0.082964964 -0.03612729 0.08823043 -0.023616236 0.06922948 0.046553213

relational_model.layers.4.bias f4 [150]
00000000: 867d 09bd 7a50 393d cb88 7c3d 5d97 4ebd
00000010: aa49 75bd 7436 283d 63ae 7bbd 7881 51bd
00000020: 29dd 893d 2d8e 5b3d f37d 77bc bd94 d93d
00000030: e387 81bc c98a 8bbd 2832 643d a3d6 16bd
00000040: a10a cf3d a0e8 5c3d 23e7 9bbd 8ae2 2f3d
00000050: 77ee 043d 8453 bfbc 48fd 44bd af05 bfbc
00000060: ff11 c93b 956b 8f3b 3e35 bebd 8638 2cbd
00000070: bce4 47bc 066b 8e3d 4e84 403d 6e12 96bd
00000080: cffb 5a3c 05f9 a7bc 4877 a3bb 09d9 943d
00000090: 9c10 48bd 37f2 c63c ba8b 893d 9f7a b63d
000000a0: ef3c a53d 90f4 9dbc e128 e2bb 8181 273b
000000b0: 6e5c 69ba 8f33 b83c 011a 2bbd bf9a cf3d
000000c0: ceef 073c 625a a53a 1a62 91bd 0542 a73c
000000d0: 1a9e 203d d2f7 95bd 58f9 98bd a2a1 0cbc
000000e0: bda7 ad3d 6901 3e3d e877 da3d a40d 6bbd
000000f0: d8cf a6bd 66af bc3b c7ee 913d 2532 b63d
00000100: c875 6fbd 2908 e3bc 92bb a6bb a7d8 24bd
00000110: f085 d9bb 90a1 903d 3c57 ac3d 7a3c 333d
00000120: 450b 893d 3b0e 88bd c960 283d a33b bf3c
00000130: fb53 a43c a6c9 2d3d 9dac 86bd 23be 013d
00000140: 90f6 d73d 54f6 91bd c642 a93d 8768 f83c
00000150: c979 093d 2b86 7bbd d005 87bd 359f 3f3c
00000160: fb7b 94bd 2ae5 9d3d c516 013d 5c1d 863d
00000170: e0df 2ebd 285b 1c3a 20f3 8c3d 1abf b33c
00000180: 70d9 ddbb e450 99bd 39ba a93c 7eeb 58bd
00000190: f6d8 4ebc de7a 5e3d 8672 c23d ba7f 343d
000001a0: 3c80 c4bc abd2 563d 8a15 143d a111 d6bc
000001b0: b59d 063d c65f c73c d01c 88bd 0851 60bd
000001c0: dce9 4e3d 9f3b dd3d 7c7c 89bd d7b4 92bc
000001d0: 1f2e aa3c f14c 3dbd 7d31 a3bd dc04 8b3d
000001e0: e086 733d da69 70bc a120 a2bd 87d0 7fbd
000001f0: de60 e53c d303 dabc c4eb 283d b701 b4bd
00000200: 42d9 d23c 44d8 9bbd 83e2 27bb a777 56bd
00000210: 0323 36bd 43e9 14bd be32 0cbd b537 be3d
00000220: e408 403d 6953 78bd f009 bebc 3f0f a63d
00000230: 5ad4 a23d 9439 0c3d 2685 3dbd a1a7 a6bd
00000240: 9f56 b33d 923b 32bd 2b5d c93d c388 383d
00000250: 41de c13b 8eac 85bd
-0.033566974 0.045242764 0.061653893 -0.05043732 -0.059884705 0.041067556 -0.061445605 -0.05114886
0.06731636 0.053602386 -0.015105712 0.10624073 -0.015811866 -0.068135805 0.055711895 -0.036825787
0.10109449 0.053932786 -0.07612445 0.042940654 0.03245398 -0.023355253 -0.04809311 -0.02331814
0.0061361785 0.0043768384 -0.09287499 -0.042046092 -0.012200531 0.06954007 0.047001176 -0.07327734
0.0133657 -0.020504484 -0.0049885847 0.07267959 -0.048843965 0.024285419 0.06716104 0.08910107
0.08068263 -0.019281656 -0.006901846 0.0025559368 -0.0008902018 0.022485523 -0.041772846 0.10136937
0.00829692 0.0012615437 -0.070987895 0.020417223 0.039213277 -0.073226586 -0.074694335 -0.008583458
0.08479259 0.046388064 0.106674016 -0.057386056 -0.08145112 0.005758214 0.07125621 0.08896283
-0.058461934 -0.027713852 -0.005088278 -0.04024568 -0.006638281 0.070620656 0.08415076 0.043758847
0.066916026 -0.06643339 0.041107927 0.023343867 0.020059576 0.042428635 -0.06575892 0.03167547
0.10545075 -0.071270615 0.08264689 0.03032328 0.03356341 -0.06140725 -0.065929055 0.011695673
-0.0725021 0.07709725 0.031515855 0.065485686 -0.042693973 0.0005964511 0.0688231 0.02194171
-0.0067703053 -0.07486132 0.02071868 -0.052958958 -0.01262497 0.054316394 0.094945 0.044067122
-0.023986928 0.052447002 0.036153354 -0.026131453 0.032865245 0.02433766 -0.066461205 -0.054764777
0.050515994 0.108023874 -0.06713197 -0.017908497 0.020773945 -0.046215955 -0.079684235 0.06788036
0.0594548 -0.0146736745 -0.0791638 -0.062454727 0.028000291 -0.026613152 0.04124047 -0.087893896
0.025738362 -0.07609609 -0.002561719 -0.052360203 -0.044466984 -0.03635527 -0.03422808 0.09287969
0.04688348 -0.06062642 -0.023198098 0.08108377 0.07950659 0.0342346 -0.04626956 -0.081374414
0.08756756 -0.043513842 0.098322235 0.0450523 0.0059163873 -0.06527053

relational_model.layers.6.weight f4 [1, 150]
00000000: a915 c53b bd4e 44bd 5ddc 2a3d bf2b 2d3d
00000010: 5ce4 8b3d 04c4 debb e00a a8bd 648d 7c3d
00000020: a765 89bd 87fd 74bc fcc9 b7bc 4907 2f3d
00000030: 473b 613d 1b4b cdbc 24e7 d6bd d66f 903d
00000040: 0eff c03d 00ec b53d 70e6 f73b aa70 4dbd
00000050: cced 393d a8e6 c9bc 7da8 c4bd b0f9 953d
00000060: c391 293d 9de8 9dbc 33d9 49bc e59f 23bd
00000070: 3547 b23d 399b e0bc e007 c8bc 1c5a 0d3d
00000080: ccc6 2d3c 1485 65bd bd9f e33d 9b4c 913d
00000090: d133 abbd d4b6 d4bc e5ce 993d 1c2d 1c3d
000000a0: 4616 823d 18ca 95bc 58b0 19bd 074a b2bd
000000b0: e88f 98bd 5fd7 0b3d ce7d aebd c1fc c13d
000000c0: ecad 5dbd 679f ad3d 60f9 69bd e5f8 703d
000000d0: 28a1 acbb d3e4 8cbd f737 49bd 0151 503d
000000e0: 4d6b af3d baf3 81bc 0ef0 293d 89bb 96bd
000000f0: 235f c7bc 3fab 71bd 191c 433d 8c28 a83d
00000100: d892 f03c 67de 71bd 8570 453d 5037 38bd
00000110: 8079 143d 5bcd 5e3d f04c 613d 9524 5dbd
00000120: a7c7 76bc 2618 62bd c233 df3d d0c1 aebb
00000130: 50b7 543d ed08 48bc 62fc ddba d411 d73d
00000140: 5bf1 953d 80dc d73a d6a6 483d 0ed4 adbd
00000150: 4e71 bf3d 3cb5 cd3c d874 9ebd 9b41 d4bc
00000160: c949 7a3d 3840 633d 582c a13d 4c3f 913d
00000170: 5260 70bc b3cb a3bd cd84 763d 5ea1 b5bd
00000180: 80f2 34bc e651 75bd b7b5 96bd e982 ddbc
00000190: 2de6 f03c fdd2 a23d 7e5c f83c fca8 13bc
000001a0: 1c55 54bd f46a 68bd 3122 eb3a faee 663c
000001b0: d8eb 5abd a5db 7f3d 9e07 5f3c b371 a0bd
000001c0: 2f67 923b bd1d 9a3d 1ff8 b4bd cc1f 29bd
000001d0: 3c0f ac3d 08f0 5b3d 31d4 3c3c 1152 0abd
000001e0: 4a2d d13d ccb2 823c 9434 dbbd 6ec1 6d3c
000001f0: d21e 82bd f940 bbbd bf21 eebc d4b3 20bb
00000200: 075d 5dbd bcb6 203d 7083 33bd c827 593d
00000210: bd47 0dbd e2cc 06bd e9c2 8abd 8da2 dd3d
00000220: 46fe bfbc 5a21 793b 4986 db3d b956 f53c
00000230: b427 833d 0d84 fcbc 9e4f 8e3d 56cb c8bc
00000240: 302e 3f3d d05c 7abd 55b6 e33d 0731 64bd
00000250: 7508 723c 7568 8abd
0.006014545 -0.047926653 0.04171406 0.042278048 0.068306655 -0.006798269 -0.08205199 0.061658278
-0.06708842 -0.014953024 -0.02243518 0.042731557 0.054988172 -0.025060227 -0.10493305 0.07052581
0.09423648 0.08882904 0.007565312 -0.050156273 0.045392796 -0.024646118 -0.09602449 0.07323015
0.041398775 -0.019275958 -0.012319851 -0.03994741 0.08704988 -0.027417766 -0.024417818 0.034509763
0.010606479 -0.056035116 0.11114452 0.070946895 -0.083594926 -0.025966085 0.07510165 0.038128957
0.063519046 -0.018284842 -0.03752169 -0.08705526 -0.07449323 0.03414094 -0.08520089 0.09472037
-0.054120943 0.08477669 -0.05712259 0.058831114 -0.0052682348 -0.06879582 -0.049125638 0.0508585
0.08565388 -0.015863288 0.0414887 -0.07359988 -0.024337357 -0.059001204 0.047634218 0.08210859
0.029366896 -0.05904999 0.04820301 -0.044974625 0.036248684 0.05439506 0.055005014 -0.053989965
-0.015062249 -0.05519881 0.10898544 -0.005333163 0.051932633 -0.012209159 -0.0016936178 0.10501447
0.073214255 0.0016468912 0.048987232 -0.08487712 0.09347783 0.025110833 -0.0773713 -0.02591019
0.061105523 0.055481166 0.07869786 0.07092151 -0.014671402 -0.07997837 0.060185242 -0.08868669
-0.011044145 -0.059892558 -0.07358878 -0.027039962 0.029406631 0.07950399 0.030317541 -0.009012457
-0.05183898 -0.056742623 0.0017939267 0.014095062 -0.053447574 0.06246533 0.013612656 -0.078341864
0.004467867 0.075252034 -0.08836388 -0.04129009 0.08401343 0.05369571 0.0115252 -0.03376967
0.10213716 0.015954398 -0.10703388 0.014511449 -0.06353535 -0.09143252 -0.029068826 -0.0024521248
-0.054043796 0.03923677 -0.04382652 0.053016454 -0.034492243 -0.032910235 -0.067754574 0.1082202
-0.023436677 0.0038014264 0.10718972 0.02994858 0.06404057 -0.030824685 0.069487795 -0.02451102
0.046674907 -0.06112367 0.111187615 -0.05571082 0.014772524 -0.06758205

object_model.layers.0.weight f4 [100, 4]
00000000: 40df 64bc 1cf0 0ebe c045 fdbd 94f0 99be
00000010: 164f 8dbd e1f4 a4bc c7bf b8bd 9daf bf3c
00000020: c207 d0be 4b98 fd3e c236 96be 6d22 ba3e
00000030: 9da7 413e 7234 593d acec 243e 600e e5be
00000040: 60dc 463d 7698 883d 978e bd3e 5995 64be
00000050: 98fe 02bf 30f6 963e be02 9fbe 6ee1 93be
00000060: cf2a 903e bec6 af3d 916b e63c 1f8b 843e
00000070: 089d 323b 6fc0 483d c350 8d3e 3261 003e
00000080: 3d90 db3e 3af4 be3e f548 c93e b285 f1be
00000090: df22 13be 7831 d5bd 9050 78be e1b3 d6be
000000a0: a501 59be 7186 423e a36d 9e3e 6c46 df3e
000000b0: cb06 4fbe 17f8 1dbe ff88 bdbe df32 a93e
000000c0: b9a1 cebd c3f8 69be c020 8abd b31e 26be
000000d0: c2d2 ccbd 0049 37be 7831 963e 66ec c2be
000000e0: 1dc2 c33e c079 ad3d c0e6 bcbe 3bbf b83e
000000f0: 6846 c4be 3888 ea3d a0dd 9dbe 2c00 bebe
00000100: 3dd8 c3be 4ddf 833d f898 333e 1a66 72be
00000110: d274 953e 2001 ae3e 8397 433e 5a42 4e3e
00000120: d26d 20be 66ae af3e d730 fc3d 11e3 1e3e
00000130: c1c1 80be e71e 83be 344b 323e 2cc9 03be
00000140: a219 10be d01f 573e 7a5c dfbd 1c5c 843c
00000150: b5db a7be 7be1 a9be fa6a 44be 21bb e03e
00000160: 1b6b d6be 81b2 c6be 861d 34bd 2269 a2be
00000170: e2f3 34be 9009 d8be 6ea8 c23d 91f9 8e3c
00000180: 0e0a 653e f545 443d 50e9 b13e ec5b e03e
00000190: 903b 5e3e 4289 ee3e f296 b7be 6f8d 00bd
000001a0: 0dd2 e4be 90b4 d13e 61c5 8abe 8c16 a2bd
000001b0: 2cca ec3e ddd3 3dbd 99b0 f3be 784f afbe
000001c0: a728 e03e d718 013f 9980 7bbd d526 8abe
000001d0: e5ae e83e 990c 06bf b08a e4be e6e2 93be
000001e0: 005a 28be c8fe ebbd 9079 763d 765c c6be
000001f0: 0eec b3be 9271 26be 8eef 7bbe deea d5be
00000200: 4ad5 013e e84b bfbe 789f cf3c 7bf2 053e
00000210: 54ce c2be 74ff 70be b8f7 cd3d 9cb8 94be
00000220: 9e69 c13e 3c3c be3e fe2c 64be 1de3 413e
00000230: c7bd 04be 35e5 b3be 1df7 9dbe b895 943e
00000240: 0030 17ba 24de 4b3e f880 67be d6d9 edbe
00000250: c8ff f63d 4472 20be 7a12 933e 84c3 1abe
00000260: 8ca8 433e 5ca6 f7be de96 e63e e746 a8be
00000270: df0f fcbe 0caa 59be 0157 8d3e a7dc c0be
00000280: 69aa e3be 4af1 0ebe 4a09 b43d 4e26 8ebe
00000290: 3d6a de3e cb4e a9be 3f17 c53e ba47 03be
000002a0: afcf c23d 2498 09be b5ae 15be 9a5d b3be
000002b0: cfd2 80be e8f5 10be 1875 bdbe 4dd2 423e
000002c0: df1a 29be ea1b 90be 1e05 95be f33f 883e
000002d0: 6a3d a7be fef9 8dbe e55a f1bd d771 afbe
000002e0: badb b4be 6869 9e3d 8e78 993e 786c 3dbe
000002f0: 787d fa3e 6f4b ae3c 2ef4 d1be d1b9 74bd
00000300: 2180 bebe 3780 d1be ed4b f43e 3189 213e
00000310: f991 5c3c 7a3f 863c 3ce3 b83e 13d7 263e
00000320: 0907 c2be 82b4 b6be 1274 a53d 4e29 0fbe
00000330: a883 283e 4912 833e 5c4d fb3e 1de8 d73e
00000340: 2c5a 8bbe b487 c9be 9c0e 5abe ce3e 9dbe
00000350: a980 bebd e416 e5be c0a4 4b3d 0997 28be
00000360: 62f0 343d a20b 31be 63ef 833e 6565 353d
00000370: d8e0 97bd b278 a1be 64d9 a63e 84bf ecbe
00000380: 1935 babd c976 efbe 5e33 b8be 8631 9e3e
00000390: c8bf 10be 0d9c 043e 21cb 60be b3a7 d33e
000003a0: 26ca 29be 697b d3be 5bc8 143c 974e adbd
000003b0: f3d4 ea3e b754 ec3e 3e9b d73e 0968 b8be
000003c0: 401e 9d3e 2979 2f3d 4eda c0be c4f7 32be
000003d0: 5284 8abe 2605 a53e f499 dfbe 15a1 84be
000003e0: 1655 71be 5683 803e addb 5ebe 8098 0b3e
000003f0: da42 bebe 9539 4cbe c63d 973e 0a7f 653d
-0.013969243 -0.13958782 -0.123668194 -0.3006636 -0.0689985 -0.020136299 -0.090209536 0.023399169
-0.4063092 0.49530253 -0.29338652 0.3635439 0.18911596 0.05302853 0.16105908 -0.4473753
0.04855001 0.066697046 0.3702285 -0.22322597 -0.5116973 0.294847 -0.3105678 -0.28882927
0.2815766 0.08582829 0.028127464 0.2588739 0.0027254242 0.049011644 0.2760068 0.12537077
0.42883483 0.37295705 0.39313474 -0.47172314 -0.14368771 -0.10409826 -0.24249482 -0.41934112
-0.21192034 0.18996598 0.3094302 0.43608415 -0.20217435 -0.1542667 -0.37018582 0.33046624
-0.1008944 -0.22848801 -0.06744528 -0.16222648 -0.10001136 -0.17898941 0.29334617 -0.38070983
0.38234034 0.084704876 -0.36894798 0.36083397 -0.38334966 0.11451763 -0.3083315 -0.37109506
-0.38250914 0.064390756 0.17538822 -0.23671761 0.2919069 0.33985233 0.19100766 0.20142499
-0.15666893 0.34312743 0.12314003 0.15516306 -0.25147822 -0.25609514 0.174115 -0.1286971
-0.14072278 0.2100823 -0.109063104 0.016157202 -0.3278481 -0.3317984 -0.19181433 0.43892768
-0.4187859 -0.38808063 -0.04397347 -0.31720835 -0.17671159 -0.42194796 0.09504782 0.017452987
0.22367117 0.04791828 0.34748316 0.4382013 0.21702409 0.46589094 -0.3585735 -0.03138488
-0.44691506 0.4095807 -0.27103713 -0.07914457 0.46247995 -0.046344627 -0.4759567 -0.34240317
0.43781015 0.5042853 -0.061401937 -0.2698275 0.45445934 -0.5236297 -0.4463706 -0.28884047
-0.16440582 -0.11523205 0.060174525 -0.38742417 -0.35141033 -0.16254261 -0.24603102 -0.41780752
0.1267902 -0.373626 0.025344595 0.1308078 -0.3804804 -0.23534948 0.10057014 -0.29047096
0.37775892 0.3715533 -0.22282788 0.18934293 -0.1296302 -0.3513581 -0.30852595 0.29020476
-0.00057673454 0.19908959 -0.22607791 -0.46455258 0.12060505 -0.15668589 0.28725034 -0.15113646
0.19107264 -0.4836911 0.45036978 -0.32866594 -0.4923086 -0.21256274 0.2760544 -0.37668344
-0.4446595 -0.13959232 0.08790834 -0.277636 0.43440428 -0.33067927 0.38494298 -0.1282033
0.09512269 -0.13436943 -0.14617427 -0.3503235 -0.25160834 -0.14156306 -0.37003398 0.19025536
-0.16514157 -0.28146297 -0.29105467 0.2661129 -0.32664043 -0.2772979 -0.11784915 -0.3426654
-0.35323888 0.077349484 0.29974788 -0.18498409 0.4892385 0.021276204 -0.41006607 -0.05974752
-0.3720713 -0.40918133 0.47714177 0.1577499 0.013462537 0.01638769 0.36110866 0.16292982
-0.37895992 -0.35684592 0.08078779 -0.139806 0.16456473 0.25599888 0.49082458 0.42169276
-0.27217233 -0.39361346 -0.21294636 -0.3071198 -0.09301884 -0.44744027 0.049717665 -0.16463865
0.04417456 -0.17289594 0.25768575 0.04428615 -0.074159324 -0.31537396 0.3258773 -0.46239865
-0.09092159 -0.46770313 -0.3597669 0.30897158 -0.14135659 0.12950154 -0.21952488 0.41338882
-0.1658102 -0.41305092 0.009080972 -0.084622554 0.45865592 0.46158382 0.42110628 -0.36016873
0.3068714 0.042840157 -0.37666553 -0.17477328 -0.27054077 0.3223049 -0.43672144 -0.25904146
-0.23567614 0.251002 -0.21763487 0.13632393 -0.3716038 -0.19943841 0.29539317 0.056029357

object_model.layers.0.bias f4 [100]
00000000: fe6c bbbe 55f5 a83d 0ccd 0fbe 97bc b4bc
00000010: 9d31 413e 1376 a3be 997e d03e fae7 ed3c
00000020: 37aa 393e 044f b73e 1b74 4f3e e4f3 e83e
00000030: e1c1 e23e 6ca5 ad3e 7909 40bd 0854 e9be
00000040: 4ccb f93d eee4 25bd ec6c 02be 9deb 5cbe
00000050: e047 0a3e ec26 dbbb 2cd1 743e dc0a 8c3e
00000060: cb37 d33e 2b2e edbe 82af 7bbe 49e9 cdbd
00000070: 4b34 df3e 2f4d 99be 8495 c7be 5a32 ddbd
00000080: ef58 e03e a2b1 d0be d0d0 99bd b41f 4bbe
00000090: 8879 ddbe f4e7 c7be 4d5a 43be e56a ab3e
000000a0: 9603 bc3e 92f1 3d3e 1673 763e ceda 953c
000000b0: b59f 30be ffcf 2d3e c681 b7be ffd2 1dbe
000000c0: 776c 8b3d ad03 583e 695a d7bd bf07 9fbd
000000d0: 6269 f9be bbbf 1e3e 4cc7 37be 7c89 f8be
000000e0: 137e a3be c1c6 1a3e c1c5 703c 0da0 963e
000000f0: e5a7 e83d 6b4f 9b3e f738 c73e 090a d4bd
00000100: fbcf 79be eded 56be d3fa a7be bbbc 7e3e
00000110: 2e83 6bbe 9205 bc3d 8858 a63e 4c2a 5abe
00000120: bc07 e2be 8315 87be 1bd2 c83e ed3e 06bf
00000130: 6e64 babe 8a75 7ebe 813a a03e e5cf 953d
00000140: 859e 0cbe 8cde 953e 770e 98bd 1fa9 d6be
00000150: a6a3 55be fd99 f93d 7acd a43e 0759 e53d
00000160: bc3e 573e bf3b b23e d88f 8abc 3e3a fdbe
00000170: f193 8fbe 0726 c23c dc90 f0be ad97 91bd
00000180: bfce bb3e c827 d1bd 4de3 85be d436 b8be
-0.36606592 0.08249918 -0.14043063 -0.022062583 0.18866582 -0.3192602 0.40721586 0.02904128
0.18131338 0.35802472 0.20259134 0.45498574 0.44288543 0.3391527 -0.046884034 -0.45571923
0.12196979 -0.040501527 -0.12736863 -0.21574254 0.1350398 -0.0066879895 0.23907918 0.27352035
0.41253504 -0.46324286 -0.2457867 -0.10054261 0.43594584 -0.299417 -0.3898126 -0.108006194
0.4381785 -0.40760523 -0.07510531 -0.19836313 -0.43256783 -0.39044154 -0.19077416 0.33479992
0.36721486 0.18549183 0.2406734 0.01829281 -0.17248423 0.16973875 -0.35841197 -0.1541252
0.068077974 0.21095152 -0.10515291 -0.07765149 -0.48713213 0.15502827 -0.1794712 -0.48542392
-0.31932124 0.15114881 0.014695586 0.29418984 0.11360148 0.3033403 0.38910648 -0.103534766
-0.24395745 -0.20989199 -0.3280855 0.24876682 -0.2299926 0.0918075 0.3248942 -0.21305197
-0.44146526 -0.263836 0.39222798 -0.5243977 -0.36404747 -0.24849525 0.31294635 0.07315043
-0.13732345 0.29271352 -0.07424634 -0.41925904 -0.20863208 0.12187574 0.32188016 0.11198621
0.21020025 0.34811208 -0.016914293 -0.49458498 -0.28042558 0.023699773 -0.4698552 -0.07109008
0.36681172 -0.10212666 -0.2614998 -0.3597933

object_model.layers.2.weight f4 [3, 100]
00000000: 00c8 bcbd a40f 3cbc 08ad b2bc cd72 6abd
00000010: 283b a13d c1f7 6b3b 2145 8dbd f5a6 933d
00000020: b3a5 98bd 4fb0 babc 151f 063e 5007 4f3d
00000030: 6b22 4c3d 5594 93bd 7274 243d 4079 92bc
00000040: b244 3f3d 66a8 8dbd 3cbd 2ebc 46ce 503d
00000050: 39a9 953d 5474 633c 16e6 acbd 9d84 853d
00000060: 1102 c33c 25de bfbd 7915 983c a646 e63c
00000070: ded0 9d3d 4970 44bd c0ef ac3c 5542 003d
00000080: 7ded bebd d24c 463d 82f3 dc3c 558c 45bd
00000090: d22e c7bd 98cf a6bd 7194 65bc 152b d0bd
000000a0: 7059 473c 106a 163d 86d5 0cbd f78a 2ebd
000000b0: d3c9 023e 8f2e 143d e229 c1bd 2fe4 5dbd
000000c0: 7a21 53bd f2a8 563d ebed 4fbd ffa4 df3c
000000d0: c8f3 a0bc 305c bdbd 692a 1ebc e0b1 dabc
000000e0: 8720 093d af1e d03c e679 a83d d155 f1bd
000000f0: b4e4 713d a070 32bd 4097 ce3d 8f71 07bc
00000100: 0590 e13d fb50 b13d f080 813d dd4b b33d
00000110: 7a0e 88bd 200e 473c f612 933d 80bc 33b9
00000120: ab15 593c a727 bb3d c207 363d 1b84 d23b
00000130: 6211 1f3d 3c7e 9c3b 8ff6 853d 6fa6 57bd
00000140: 0bb3 8c3d 99d3 9dbd 4021 ee3c 096a a43d
00000150: 5456 f73c 773c 3abc 633c 0a3d 8bce 89bd
00000160: 56c8 c93c 04d4 01bb c624 433d a28f 193d
00000170: 5445 493c 1499 af3d b23c b43d 022d 943d
00000180: aac4 d8bd 8f1a 4fbd a1e1 8c3c 430f ab3d
00000190: 5a34 77bd 9f18 16bd 8e45 443c cafe 2f3d
000001a0: f53b 15bc 8c64 63bd 645a d43d 4b9f a13c
000001b0: 5688 9f3d cc1e 8fbd 6795 09bd 734c 163d
000001c0: a1bd b3bc 1121 f3bd 052c e93c da4e 25bd
000001d0: b9d3 273d 8fcc 36bc 51e7 023e fd46 9a3d
000001e0: 7fe4 2a3d 7d12 003e 8e5d 17bd 95c8 093d
000001f0: 110d bc3d a9a0 cfbd 21dc 81bd 9d68 5d3d
00000200: b480 74bd 5e1a eabd 1302 4cbd 171d ec3d
00000210: 9b16 a23c 62a5 96bd 4599 c63d 3cca bb3d
00000220: 3e08 6e3d cf78 923d 18dd c0bd 0553 813d
00000230: 71a4 a1bd a932 8d3d bee1 d0bd 1480 363d
00000240: 81a0 9e3d ed5c 33bc dfcc c63d 10f3 96ba
00000250: 6c44 aabc 17b0 a03d 33ef 01bd 3ec0 903b
00000260: d281 553d b519 cbbd 9aec 1bbc 3c53 ea3c
00000270: 2da1 25bd eaa2 ef3d 11c2 fcbd 643c 8d3c
00000280: 8b49 44bc 5dd0 cfbd 093f a43d 12ed 7abd
00000290: ccf2 7b3d fb01 da3d 726f ee3d 75ff 55bd
000002a0: c6e8 7ebc ae25 4e3d 4e87 913d 9c52 5d3d
000002b0: 4529 ea3d b56a c13d 1211 993c de9b e3bc
000002c0: 0042 2b3b da57 013d 7804 f73d 2c5f d23d
000002d0: 4a1c 8fbc 2bee d43c 1ead a7ba f536 d03d
000002e0: cf74 b43d 35c4 67bd 3f1f 46bd a388 2fbd
000002f0: 12d2 cf3b 99e5 4f3d 7aa1 5bba 9900 9c3d
00000300: cc5e 173b 08b0 9c3d 0ee9 1d3d a925 f23d
00000310: aa8f e1bb 7750 9cbd 2b83 81bd 2911 ae3d
00000320: 7203 573d 0c6d 6ebd af2a 5ebd 0b60 97bd
00000330: 5394 8b3d 3ca4 06bd 04f5 a3bd cf83 06bd
00000340: df6d 513d 7ff5 09bd 63c1 56bd cbbc aabd
00000350: 2e42 80bd 487f 003d ee51 f8bd e3e8 2bbd
00000360: 2225 afbc 987e 80bc 01c0 b1bd 2c67 e6bd
00000370: 6062 e13a c431 4ebd 8e1b 933c 0637 b8bd
00000380: 98e7 b4bd 61d9 a8bd c330 72bd d433 7cbc
00000390: 45f5 8abd 3a54 0ebc 7350 ca3d da7f 82bd
000003a0: 954e 033d 60b0 8b3c 5abd a6bd 93f8 4c3b
000003b0: 4c24 b0bc dd6b ac3d f202 7cbc e169 a3bd
000003c0: 9e7d 7cbc fe92 d83b f53c b9bc 8f6f 35bd
000003d0: 463b eabc b155 523d 3885 a9bd 5a37 993d
000003e0: 240f 433c 1b2c abbb f602 893d ecaf 203c
000003f0: 746e 08bd 2225 83bc cb9e 0fbd 008b 10bd
-0.092178345 -0.011478338 -0.021811023 -0.05723839 0.07872611 0.0036005827 -0.06897951 0.07209579
-0.074534796 -0.022789149 0.13097794 0.050544083 0.04983751 -0.072060265 0.040150113 -0.017880082
0.046696372 -0.06916885 -0.010665234 0.050977968 0.07307667 0.013882715 -0.08442323 0.065194346
0.023804696 -0.093685426 0.018564926 0.02810986 0.07705854 -0.047958646 0.021110415 0.03131326
-0.09322641 0.048413105 0.026971582 -0.048229534 -0.09725727 -0.08145064 -0.014012442 -0.10164467
0.01216732 0.036722243 -0.03438332 -0.042612996 0.12772302 0.036177214 -0.09431817 -0.05417269
-0.051545598 0.052407213 -0.050764006 0.027300356 -0.019647494 -0.09246099 -0.009653666 -0.026696146
0.033478286 0.025405256 0.08226375 -0.11783946 0.059056 -0.04356444 0.100874424 -0.008266821
0.11013798 0.08658024 0.06323421 0.08754704 -0.06643386 0.012149364 0.07181351 -0.00017140992
0.013249795 0.091384225 0.044440992 0.0064244396 0.038834937 0.0047757905 0.06541168 -0.052648958
0.06870087 -0.07706375 0.02906859 0.08028037 0.030192532 -0.011366955 0.033748996 -0.06728848
0.02463166 -0.001981021 0.04764249 0.037490495 0.0122845955 0.08574119 0.08800639 0.07235147
-0.10584386 -0.050562438 0.017197432 0.0835252 -0.06035266 -0.036644574 0.011979474 0.042967595
-0.009108533 -0.05551581 0.10368803 0.019729277 0.07789676 -0.06988296 -0.033589747 0.036694
-0.021941008 -0.11871541 0.028463373 -0.0403584 0.0409734 -0.011157169 0.12783553 0.07533071
0.041721817 0.12507053 -0.036954455 0.033638556 0.0918218 -0.10138065 -0.063408144 0.054054845
-0.059693053 -0.114308104 -0.049806666 0.11528986 0.01978617 -0.07355763 0.096972026 0.091694325
0.05811333 0.07151949 -0.0941717 0.06314663 -0.07892693 0.06894428 -0.10199307 0.04455574
0.077454574 -0.010947448 0.09707045 -0.001151653 -0.02078458 0.078460865 -0.03172226 0.0044174483
0.05212576 -0.099170126 -0.009516859 0.028604142 -0.040436912 0.11700995 -0.12341703 0.01724071
-0.011980425 -0.10147164 0.080198355 -0.061261244 0.061510846 0.10644909 0.1164235 -0.052245576
-0.015558427 0.050328903 0.071058854 0.05403386 0.11433653 0.09444181 0.018684898 -0.027784284
0.0026131868 0.031577922 0.12061399 0.10272059 -0.017469544 0.025992474 -0.0012792682 0.10166732
0.08811342 -0.056583602 -0.048369642 -0.042854916 0.006342181 0.05075607 -0.0008378249 0.076173015
0.0023097275 0.07650763 0.038552336 0.11823589 -0.006883581 -0.07632535 -0.063238464 0.08499367
0.05249352 -0.058209464 -0.054239925 -0.073913656 0.068154 -0.03287147 -0.080057174 -0.032840546
0.051130172 -0.03368139 -0.05243052 -0.08336791 -0.06262623 0.031371385 -0.12125002 -0.041970145
-0.021380011 -0.015685365 -0.086792 -0.11250147 0.0017195456 -0.05034043 0.017957475 -0.0899487
-0.088332355 -0.08244587 -0.059128534 -0.015393216 -0.06785063 -0.008687073 0.09878626 -0.06372042
0.032057364 0.017051876 -0.08141585 0.0031276091 -0.021501683 0.08419011 -0.015381562 -0.07979179
-0.015410809 0.0066093197 -0.022612074 -0.044295844 -0.028592717 0.051351253 -0.082773626 0.074812606
0.011905465 -0.0052237636 0.06690018 0.009807568 -0.03330846 -0.016008917 -0.035063546 -0.03528881

object_model.layers.2.bias f4 [3]
00000000: cfe6 bcbd ced8 23bd 0df2 81bc
-0.09223711 -0.040001683 -0.01586249
