trained_models/LP_2_600_epoch100.pt (torch_old, 192257 bytes, 11 tensors)

relational_model.layers.0.weight f4 [150, 7]
0	0xbe3bde00	-0.18346405
1	0x3e2faa2c	0.17154759
2	0xbd67721c	-0.056505308
3	0x3d75d9c3	0.060022127
4	0x3e9d5fc4	0.30737126
5	0x3eac3e27	0.33641168
6	0xbe5caf57	-0.21551262
7	0xbc9ddd49	-0.019270556
8	0x3ea1c4e9	0.31595543
9	0x3e074d20	0.13213015
10	0x3cf1f5bc	0.02953612
11	0xbdd63e10	-0.10461056
12	0xbd6da5a1	-0.058019284
13	0x3d159548	0.03651932
14	0xbe1cb5bb	-0.153037
15	0x3eb3ebe7	0.35140917
16	0xbe63a963	-0.22232585
17	0x3d026805	0.031837482
18	0xbe851b03	-0.2599717
19	0x3e1ad319	0.1511959
20	0xbea47a3c	-0.32124507
21	0x3e0407e9	0.12893642
22	0x3e9784af	0.29593417
23	0x3e07898e	0.13236067
24	0x3e8cbfae	0.2748999
25	0xbe83bd5d	-0.2573041
26	0x3d1940f0	0.037415445
27	0xbe293596	-0.16524348
28	0x3e62fcc0	0.22166729
29	0xbe35d97d	-0.17758746
30	0xbd749fe4	-0.059722796
31	0xbe9132c3	-0.2835904
32	0xbeadb246	-0.33925074
33	0xbecadcc1	-0.39621547
34	0xbd3338b8	-0.043755263
35	0xbeb3d305	-0.35121933
36	0x3c025244	0.007954184
37	0x3e61243b	0.21986477
38	0x3e4a0014	0.19726592
39	0x3e572292	0.21009281
40	0xbda60945	-0.08107237
41	0x3ea12023	0.3146983
42	0x3e6ef364	0.23335034
43	0xbe36c210	-0.17847466
44	0xbe3f5c94	-0.1868766
45	0xbe57c54c	-0.21071357
46	0xbdef9920	-0.11699128
47	0x3e87fe12	0.26561028
48	0xbae8ff00	-0.0017776191
49	0x3d588014	0.05285652
50	0x3e6f72ea	0.2338368
51	0xbebcb34f	-0.36855552
52	0xbe1e3c4b	-0.15452687
53	0xbe9dbf85	-0.3081018
54	0xbe02ba53	-0.1276639
55	0x3db5bcec	0.088739246
56	0x3de0194b	0.10942324
57	0x3d2b1aff	0.041773792
58	0xbe6c8acd	-0.23099823
59	0xbe9e267a	-0.3088873
60	0xbef1646f	-0.47146937
61	0xbd85d26f	-0.06534278
62	0x3eba450f	0.36380813
63	0x3ea2fa59	0.31831625
64	0xbd9611e9	-0.07327635
65	0x3e0983ad	0.13429137
66	0xbdccf7b1	-0.10008181
67	0x3e44866d	0.19191904
68	0xbdf6ad4f	-0.12044775
69	0x3da3b19c	0.07992861
70	0xbed72f30	-0.4202819
71	0xbf3eff59	-0.7460838
72	0xbdb1c43e	-0.08680008
73	0xbe85eea5	-0.26158634
74	0x3e8d69ea	0.2761987
75	0x3ca4729f	0.020074187
76	0x3e37771a	0.17916527
77	0xbeac473b	-0.33648095
78	0xbe239cf9	-0.15977849
79	0xbe35a482	-0.17738536
80	0xbeae2681	-0.3401375
81	0xbe7b48b4	-0.24539453
82	0x3e3a376f	0.18185209
83	0xbe8b5a01	-0.27217105
84	0xbe0b94ce	-0.13630983
85	0x3eace59f	0.33768937
86	0xbe9ef4b8	-0.3104608
87	0xbe51acac	-0.20476025
88	0xbe2f01ab	-0.1709048
89	0x3e719d42	0.23595145
90	0xbd078378	-0.033084363
91	0x3e91ab61	0.28451064
92	0x3ea341e3	0.31886205
93	0x3eb6b07b	0.3568152
94	0x3ea52490	0.32254457
95	0x3e6eae00	0.23308563
96	0xbdb0d9d8	-0.086353004
97	0x3eaa3849	0.33246067
98	0xbed7a71b	-0.4211968
99	0xbe70273a	-0.23452464
100	0x3ebbf13f	0.36707494
101	0x3e849134	0.2589203
102	0x3e3d2221	0.1847005
103	0xbda8fa62	-0.08250882
104	0x3e72dbe6	0.23716697
105	0x3d86ee2f	0.06588399
106	0x3e2b3599	0.16719665
107	0x3e13d72e	0.14437553
108	0xbe17cee0	-0.1482501
109	0xbe8e8111	-0.27832845
110	0x3e366bb7	0.17814527
111	0xbdd19388	-0.102332175
112	0xbe5942a0	-0.21216822
113	0x3e8778b4	0.26459277
114	0x3e9adb15	0.3024527
115	0xbdc9d9d8	-0.098560035
116	0x3eba3006	0.36364764
117	0xbe0e7dcc	-0.13915175
118	0x3e0ec99e	0.13944098
119	0xbe43ff9d	-0.19140477
120	0x3def41ae	0.11682449
121	0xbe3a4868	-0.18191683
122	0xbe7f5aa2	-0.24936917
123	0xbe331232	-0.1748741
124	0x3e13f62a	0.14449373
125	0x3ea8f8cf	0.33002326
126	0x3d139ba9	0.03603712
127	0x3e331c9d	0.17491384
128	0xbd8396ea	-0.06425269
129	0x3cd65288	0.0261624
130	0x3e915a9b	0.2838944
131	0xbe100bdf	-0.14067028
132	0xbdb26458	-0.08710545
133	0x3eca059c	0.39457405
134	0x3d41bac3	0.04729725
135	0x3e11cb2e	0.14237663
136	0x3ce23257	0.027611895
137	0x3eb85944	0.36005604
138	0xbed58994	-0.41706526
139	0x3e4a90c6	0.19781789
140	0xbe5cc8b3	-0.21560936
141	0xbe5dc128	-0.21655715
142	0xbe9445bf	-0.28959462
143	0xbda15c6c	-0.07878956
144	0x3d1286c2	0.035773046
145	0x3e7fdb28	0.24985945
146	0xbea6745d	-0.32510653
147	0xbe93feb7	-0.2890527
148	0x3dd671e7	0.10470944
149	0x3d51e28e	0.05124145
150	0x3e03afbd	0.12860008
151	0x3e819247	0.25306913
152	0xbeca4e8b	-0.3951305
153	0x3e5952ce	0.21222994
154	0x3e71c61c	0.23610729
155	0xbdd07c4f	-0.1017996
156	0x3e177934	0.14792329
157	0x3e2ab0dc	0.16669029
158	0x3de69af9	0.112600274
159	0x3eb0f932	0.3456512
160	0xbea6850b	-0.3252338
161	0x3e9c9db4	0.30589068
162	0x3e9673d1	0.29385236
163	0x3df5b140	0.119966984
164	0x3e4bebd8	0.19914186
165	0xbe5cc146	-0.21558103
166	0xbe02407e	-0.12719914
167	0xbe90b6b8	-0.28264403
168	0xbe5ab048	-0.21356308
169	0x3e61ba8a	0.22043815
170	0x3da712c9	0.0815788
171	0xbeca3c8c	-0.3949932
172	0xbd5071e1	-0.050889853
173	0xbd9ee0b3	-0.07757702
174	0x3ea20a6b	0.31648573
175	0xbecdbc59	-0.4018276
176	0xbe7a7dee	-0.24462101
177	0x3ea2b504	0.3177873
178	0xbe8ad66f	-0.27116725
179	0xbe727838	-0.23678672
180	0x3df803bc	0.12110087
181	0x3e81d3a7	0.2535679
182	0xbe225445	-0.15852459
183	0xbe288144	-0.16455561
184	0x3e8fe4dc	0.28104293
185	0xbe8954ea	-0.26822597
186	0xbddea46c	-0.10871205
187	0x3e14b08a	0.1452047
188	0x3e2a4dda	0.1663126
189	0x3e0ef7ed	0.13961764
190	0xbdfbe9bb	-0.1230044
191	0xbe0e2a05	-0.13883217
192	0xbd5631fe	-0.05229377
193	0x3e932119	0.2873619
194	0xbe9df70f	-0.30852553
195	0xbdb4d184	-0.088290244
196	0xbe9e60c8	-0.30933213
197	0x3defc3c4	0.11707261
198	0xbe186a86	-0.14884385
199	0x3e643061	0.2228408
200	0xbe85390d	-0.2602009
201	0x3c701ee6	0.014655804
202	0xbe0f5b83	-0.13999753
203	0xbe0ffe15	-0.14061768
204	0xbea37b5c	-0.31930053
205	0x3e9750c7	0.29553816
206	0xbc07eccb	-0.008296202
207	0x3d260d37	0.040539946
208	0x3e600165	0.21875532
209	0xbe5c79af	-0.21530794
210	0xbe0937d6	-0.13400206
211	0xbdf5bbd0	-0.11998713
212	0xbda3562c	-0.0797542
213	0xbe55e8b7	-0.20889555
214	0xbe05078c	-0.1299116
215	0xbe2eb8db	-0.17062704
216	0xbe9f5edb	-0.31127056
217	0x3e3d3668	0.18477786
218	0x3d30e0ac	0.043183014
219	0xbccb0979	-0.02478479
220	0x3b3e1f2b	0.0029010277
221	0xbe3b0e4c	-0.18267173
222	0xbb3fa096	-0.0029240004
223	0xbde2cc34	-0.11074105
224	0x3e11e0be	0.14245889
225	0x3ca3c726	0.019992422
226	0xbd23df57	-0.040007915
227	0x3e9e6606	0.30937213
228	0x3e121372	0.1426523
229	0xbeaf385f	-0.34222695
230	0xbebd7006	-0.3699953
231	0x3ee23c10	0.4418645
232	0x3e132d9e	0.1437287
233	0x3e69e434	0.22840959
234	0xbe63dcb4	-0.2225216
235	0xbea98552	-0.33109528
236	0x3eb84d41	0.3599644
237	0xbe4ae506	-0.19813928
238	0x3a2a3d36	0.00064941065
239	0x3db01630	0.08597982
240	0x3c79ec7d	0.015254137
241	0x3e824699	0.25444487
242	0xbc7c8f11	-0.015414969
243	0xbe524f03	-0.20537953
244	0x3e51e4f2	0.20497492
245	0x3e35643a	0.17714015
246	0x3eae4b7a	0.3404196
247	0x3ee0afc7	0.43884107
248	0xbde90d46	-0.11379485
249	0xbe9fdcd7	-0.31223175
250	0x3ebde36e	0.37087578
251	0xbe66d69a	-0.22542801
252	0xbe73cb9d	-0.23808141
253	0x3e569e0f	0.20958732
254	0xbea950f6	-0.3306958
255	0xbe2a38ae	-0.16623184

relational_model.layers.0.bias f4 [150]
0	0x3ded3ddd	0.11584065
1	0x3e15fb33	0.14646606
2	0xbeb441c5	-0.35206428
3	0x3e549f60	0.20763922
4	0x3e5ef051	0.21771361
5	0x3e1dfef5	0.1542929
6	0x3e85b34e	0.2611336
7	0x3e53d21e	0.20685622
8	0x3eaa4c21	0.33261207
9	0x3d8270f8	0.06369203
10	0xbe037852	-0.12838867
11	0xbea29cc4	-0.31760228
12	0xbe7ba599	-0.24574889
13	0xbd8a4f77	-0.06753438
14	0xbea8ff30	-0.33007193
15	0x3e9a02df	0.30080315
16	0xbda70d60	-0.08156848
17	0x3e98627f	0.29762647
18	0xbe594780	-0.21218681
19	0xbe967812	-0.2938848
20	0x3e3796f3	0.17928676
21	0xbe9ffa19	-0.31245497
22	0x3ddc0dd6	0.107448265
23	0x3e4e7be1	0.20164444
24	0x3eae1625	0.3400127
25	0xbe3758b5	-0.17904933
26	0x3d75bd44	0.05999495
27	0xbe8311ae	-0.25599426
28	0x3e894c4a	0.26816016
29	0x3e0220c8	0.12707818
30	0x3e9cefbd	0.30651656
31	0x3ea934b8	0.33048034
32	0xbeaf7540	-0.34269142
33	0xbe07341f	-0.13203476
34	0x3e59ae20	0.2125783
35	0xbe6ba95b	-0.23013823
36	0xbd8fb368	-0.07016641
37	0x3e8de445	0.27713218
38	0xbe9fdc64	-0.31222832
39	0xbe2dc116	-0.16968188
40	0x3d17801e	0.036987416
41	0x3e02b536	0.12764439
42	0x3e051f10	0.1300013
43	0x3dcb79eb	0.099353634
44	0x3daf7545	0.08567289
45	0x3e8f8f2b	0.28038916
46	0xbdd6a9be	-0.104815945
47	0xbe4a9830	-0.19784617
48	0xbe36ce30	-0.17852092
49	0x3e98a464	0.2981292
50	0xbe2e6a22	-0.17032674
51	0xbe36fcf8	-0.17869937
52	0xbeaed664	-0.34147942
53	0x3ec880d0	0.39160776
54	0x3daef381	0.085425384
55	0xbe927609	-0.2860568
56	0x3d2a4bc5	0.041576166
57	0x3de785b2	0.11304797
58	0xbdeeeace	-0.11665879
59	0x3de02d8c	0.109461874
60	0x3cc6e49a	0.024278928
61	0xbd98ed07	-0.074670844
62	0xbddf69a2	-0.1090882
63	0xbec1d7b2	-0.37859875
64	0x3e2dedba	0.16985217
65	0x3e828790	0.2549405
66	0xbec53f17	-0.38524696
67	0xbe12b83d	-0.14328094
68	0x3e85f49d	0.26163188
69	0x3e8e3a77	0.2777898
70	0xbe1d067c	-0.15334505
71	0xbe01a86d	-0.12661906
72	0xbeb4d085	-0.35315338
73	0xbe853c5f	-0.26022622
74	0xbea498ae	-0.32147735
75	0x3dc83ab3	0.09776821
76	0xbe721ae5	-0.23643072
77	0xbd31260a	-0.043249168
78	0xbe67a335	-0.22620852
79	0x3d5de5a1	0.05417407
80	0x3e4aa988	0.19791234
81	0xbe498356	-0.19679007
82	0x3d2268bd	0.039650667
83	0x3e32e9a8	0.17471945
84	0x3e1fe164	0.15613323
85	0x3e46f28f	0.19428466
86	0xbe9b7347	-0.30361387
87	0xbdf21820	-0.11821008
88	0xbdbdcfef	-0.09268176
89	0xbdff0444	-0.124519855
90	0xbe8c75b9	-0.27433565
91	0x3e73e95b	0.23819487
92	0x3e40071f	0.18752716
93	0x3e0b065c	0.13576645
94	0xbdf215fd	-0.118206
95	0xbd97cf37	-0.0741257
96	0xbe90aa45	-0.28254905
97	0xbedfd272	-0.43715245
98	0x3e1ef29b	0.15522234
99	0xbeaf74b5	-0.34268728
100	0x3cac96fc	0.021068089
101	0xbda6c23e	-0.081425175
102	0xbe2d4ff4	-0.16925031
103	0xbf03f80a	-0.5155035
104	0xbe262557	-0.16225182
105	0x3eb51d45	0.35373893
106	0xbeb7e990	-0.35920382
107	0x3ebddc52	0.37082154
108	0x3d025e31	0.03182811
109	0xbeaa3b68	-0.33248448
110	0xbe4ba890	-0.1988852
111	0x3ebfeda3	0.3748599
112	0x3d0a6cbc	0.033795103
113	0xbda082cc	-0.078374475
114	0xbd737e60	-0.059446692
115	0xbe0378bd	-0.12839027
116	0x3e98ee84	0.29869473
117	0xbe4f3ef7	-0.20238863
118	0xbe2dad2c	-0.16960591
119	0xbe2e024e	-0.16993067
120	0xbe835dc5	-0.25657478
121	0xbe8436a9	-0.25822952
122	0xbe9ab8bd	-0.3021907
123	0xbe15b0a2	-0.14618161
124	0x3da355a2	0.079753175
125	0x3d1d2e9b	0.038374525
126	0xbe7d5d59	-0.2474264
127	0xbe79184f	-0.24325679
128	0xbe6f08e5	-0.23343237
129	0xbe5ac82f	-0.21365426
130	0x3e18c457	0.14918648
131	0xbd0b7abc	-0.034052595
132	0xbe1046f5	-0.14089568
133	0xbeb4b6e8	-0.35295796
134	0xbdbf283c	-0.09333846
135	0x3e4c2c04	0.19938666
136	0x3e10724b	0.141061
137	0x3d84e776	0.0648946
138	0x3ede731d	0.434472
139	0xbd6ebaea	-0.058283724
140	0xbef83ef9	-0.48485544
141	0x3e84d1e3	0.2594138
142	0xbe00305e	-0.1251845
143	0x3e63091a	0.2217144
144	0xbe99a2eb	-0.3000711
145	0x3e1bf6b0	0.15230823
146	0x3e4794f3	0.19490413
147	0xbde4b13f	-0.111666195
148	0xbec3c75b	-0.38238034
149	0x3eade646	0.33964747

relational_model.layers.2.weight f4 [150, 150]
0	0x3d706a5b	0.05869518
1	0xbdef1896	-0.11674611
2	0xbe3680fc	-0.17822641
3	0xbb49b956	-0.0030780635
4	0x3deba02c	0.1150516
5	0x3d18539b	0.037189107
6	0xbda48845	-0.08033804
7	0x3c8f3356	0.017480534
8	0x3d619871	0.05507702
9	0xbd1d28c0	-0.03836894
10	0x3e409281	0.18805887
11	0xbd06c601	-0.032903675
12	0xbe2df711	-0.1698878
13	0xbccb67ec	-0.024829827
14	0xbc975a85	-0.01847578
15	0xbdc3dcee	-0.09563623
16	0x3d80d10a	0.06289871
17	0x3d82e820	0.063919306
18	0xbd267f03	-0.04064847
19	0xbd7de7a1	-0.061988477
20	0x3d90d966	0.070727155
21	0xbc7268e8	-0.014795519
22	0x3e2758a9	0.16342415
23	0xbdba1aac	-0.090871185
24	0x3d97d35b	0.0741336
25	0x3d87158d	0.06595907
26	0x3ce1494e	0.027500775
27	0xbd9a4b2e	-0.07533871
28	0x3cbbd205	0.022927294
29	0x3dd42a97	0.10359686
30	0xbbd68061	-0.0065460657
31	0x3d929d17	0.07158869
32	0xbd7ceca9	-0.061749134
33	0x3cc9e748	0.024646416
34	0xbd3c62c3	-0.045992624
35	0xbd201868	-0.039085776
36	0xbd1bccc8	-0.03803709
37	0xbd6c7a30	-0.057733715
38	0xbcc35628	-0.023844793
39	0x3e1af2a0	0.15131617
40	0xbd0cb8fb	-0.0343561
41	0xbd579a89	-0.05263761
42	0x3c0b37c4	0.008497182
43	0xbda006ee	-0.07813822
44	0xbb18105e	-0.0023203115
45	0xbd91fd82	-0.07128431
46	0x3e27bf8d	0.16381665
47	0x3e6ae287	0.22937976
48	0xbbd793c6	-0.0065788953
49	0x3d96e992	0.07368769
50	0xbc5f7d25	-0.013640677
51	0xbd709e03	-0.05874444
52	0xbdbbd7e9	-0.09172041
53	0x3d08e850	0.033424675
54	0x3d6aa8e5	0.057289977
55	0x3ca47c2d	0.020078743
56	0x3daede6b	0.085385166
57	0xbbfe15f8	-0.0077540837
58	0xbaf02037	-0.0018320148
59	0x3c794bea	0.015215853
60	0x3cf03cbc	0.029325835
61	0x3e8501bf	0.25977895
62	0xbdd237d2	-0.10264553
63	0x3d6c8411	0.057743136
64	0x3d9311dd	0.071811415
65	0xbc2b957c	-0.010472652
66	0x3e222947	0.15836059
67	0xbcd8f38a	-0.026483316
68	0x3d4aa04c	0.049469277
69	0xbcf93955	-0.030422846
70	0xbc23036d	-0.009949547
71	0x3dac0531	0.08399428
72	0x3cb1b8b1	0.021694513
73	0xbede3f31	-0.43407586
74	0x3d918555	0.07105509
75	0x3c9e65b0	0.019335598
76	0xbd98d123	-0.07461765
77	0xbec1eb1c	-0.37874687
78	0xbca1aa55	-0.019734541
79	0xbdf153a3	-0.117835306
80	0x3d1b310b	0.037888568
81	0xbdc48c50	-0.09597075
82	0xbe066731	-0.13125302
83	0x3d01a228	0.031648785
84	0xbd306a76	-0.04307028
85	0xbd9b401d	-0.07580588
86	0xbe79919f	-0.24371956
87	0xbd601686	-0.05470898
88	0x3f0b4df1	0.54415804
89	0xbd261ead	-0.0405566
90	0x3b71cdef	0.0036896428
91	0xbc8ebe48	-0.017424718
92	0x3d7c9df5	0.061674077
93	0x3ee0e070	0.43921232
94	0x3d81d2c4	0.063390285
95	0xbe1527e9	-0.14566006
96	0x3e35887f	0.1772785
97	0x3e59e57b	0.21278946
98	0xbc9967c8	-0.018726245
99	0x3d7f661a	0.06235323
100	0x3d893e6d	0.0670136
101	0x3e2de5db	0.16982214
102	0xbdac669b	-0.08418008
103	0x3df11ef1	0.1177348
104	0x3da279b2	0.07933368
105	0x3b319edf	0.0027102751
106	0x3d969f74	0.07354632
107	0xbdc20ea4	-0.09475449
108	0x3d2f37d9	0.04277787
109	0xbd293c1a	-0.041317083
110	0xbcf307db	-0.029666832
111	0x3d2a6e24	0.041608945
112	0x3d0ac11f	0.03387558
113	0xbe4d5c68	-0.20054781
114	0xbd78383b	-0.0606005
115	0x3d64070c	0.055670783
116	0x3d9c1d87	0.076228194
117	0x3d097c3c	0.033565745
118	0x3de840e5	0.11340503
119	0xbec20202	-0.37892157
120	0x3d5e26ff	0.05423641
121	0x3d89b230	0.0672344
122	0x3d7452d6	0.05964931
123	0xbd1b2106	-0.03787329
124	0xbdd63be9	-0.10460646
125	0x3de8bceb	0.11364158
126	0xbddcbf38	-0.107786596
127	0x3c35b1e0	0.011089772
128	0xbd8267be	-0.063674435
129	0x3da3e198	0.08002013
130	0x3ee14a12	0.44001824
131	0xbbbac138	-0.005699303
132	0x3d435271	0.047686044
133	0xbc206bd4	-0.009791333
134	0xbd39892c	-0.045296833
135	0xbdb547fe	-0.08851622
136	0x3ca03668	0.019557193
137	0xbdcf2ff4	-0.10116568
138	0x3cbe1f98	0.023208424
139	0xbd9aefeb	-0.07565292
140	0xbbe44653	-0.006966391
141	0x3cd3e8bd	0.025867814
142	0xbd59844f	-0.053104695
143	0xbdb8035e	-0.08985017
144	0xbe1e24a9	-0.15443672
145	0x3d96f59c	0.07371065
146	0xbd07c89a	-0.033150293
147	0xbd4ec906	-0.05048468
148	0x3de901ac	0.11377272
149	0x3d01842a	0.031620182
150	0x3da0da0d	0.0785409
151	0xbdd2e781	-0.10298062
152	0x3d6ecc3b	0.058300238
153	0xbd8167d4	-0.06318632
154	0x3d903460	0.0704124
155	0x3c9a96c4	0.018870719
156	0xbd9e5fe8	-0.077331364
157	0x3d1af187	0.037827995
158	0xbd0cc9de	-0.034372203
159	0xbd001798	-0.0312725
160	0xbdde151c	-0.1084387
161	0xbd878471	-0.06617058
162	0x3dd64434	0.104622275
163	0x3d67b665	0.05657043
164	0xbe3bfdee	-0.18358585
165	0xbd48d3b7	-0.049030032
166	0x3d3c98cb	0.046044152
167	0xbd38b07b	-0.04509018
168	0x3d44cdf2	0.048047967
169	0x3d25fc60	0.040523887
170	0x3d8b7717	0.06809824
171	0x3d14576f	0.036216196
172	0x3e615319	0.22004355
173	0xbdec0246	-0.11523871
174	0xbd269646	-0.040670656
175	0x3d258ab2	0.040415473
176	0x3da707ae	0.08155762
177	0x3db8f83b	0.09031721
178	0x3c916508	0.01774837
179	0x3c8d8d5a	0.017279316
180	0x3d4ca1fc	0.049959168
181	0x3cd3acdf	0.025839267
182	0x3da81f3d	0.08209083
183	0xbe7643bb	-0.24049275
184	0xbd5dd027	-0.054153588
185	0xbd65f0b1	-0.056137744
186	0x3d443f34	0.047911838
187	0x3d0143f3	0.031558942
188	0x3d90a090	0.07061875
189	0x3db4a4c4	0.08820489
190	0x3c174158	0.009231888
191	0xbd824b8a	-0.06362064
192	0x3dd78300	0.10523033
193	0xbc02ea8e	-0.0079904925
194	0xbd6bfa54	-0.05761178
195	0xbc8f3778	-0.017482504
196	0x3d882754	0.06648126
197	0x3da5226b	0.08063205
198	0x3dc2474a	0.094862536
199	0xbdf10a55	-0.11769549
200	0x3d2df57a	0.042470433
201	0xbda6485d	-0.08119271
202	0x3ccf34c3	0.025293713
203	0xbb71f19f	-0.00369177
204	0x3d21d5bc	0.039510474
205	0x3d7ee2d4	0.06222804
206	0xbcc145c0	-0.02359283
207	0xbe2f1d4e	-0.17101023
208	0xbc51c2ed	-0.012802822
209	0x3d818b60	0.06325412
210	0x3ca8d2a8	0.020608261
211	0x3dea9dff	0.114559166
212	0xbe737173	-0.23773746
213	0xbd266e47	-0.040632512
214	0x3d73aee5	0.059492964
215	0xbd2e9c62	-0.042629607
216	0xbe0bcdb9	-0.13652696
217	0xbdb3100d	-0.08743296
218	0xbc23a731	-0.009988592
219	0x3c840a30	0.016118139
220	0xbce675ac	-0.028132282
221	0x3c94f2f9	0.018182265
222	0x3da836ab	0.08213552
223	0xbe35549e	-0.1770806
224	0xbdb6e3cb	-0.08930167
225	0xbd0737ba	-0.03301213
226	0x3a26640b	0.0006347305
227	0xbe597ee7	-0.21239816
228	0xbce1200f	-0.027481107
229	0x3dd6b50c	0.10483751
230	0x3d047aa3	0.032343518
231	0x3da0c140	0.078493595
232	0xbd856f1f	-0.06515335
233	0xbc5fea47	-0.013666696
234	0x3d8259fd	0.0636482
235	0xbd2da31d	-0.042391885
236	0x3e50b08e	0.2037985
237	0x3dccc28b	0.099980436
238	0x3efd7bbc	0.49508464
239	0x3dc4ca90	0.09608948
240	0xbd9bfbf2	-0.07616414
241	0xbd1cf1bc	-0.038316473
242	0x3bc73e8e	0.006080455
243	0x3ec40dd7	0.3829181
244	0x3ddb42fc	0.10706136
245	0xbe9e9efd	-0.30980673
246	0x3d0993ef	0.033588346
247	0x3c90d854	0.017681278
248	0xbd1d5a3e	-0.03841614
249	0xbc4f60b6	-0.012657335
250	0x3d9c9b40	0.07646799
251	0x3c87e0cd	0.016586686
252	0xbe118371	-0.14210297
253	0xbe109303	-0.1411858
254	0x3d9b5989	0.07585437
255	0x3d942335	0.07233278

relational_model.layers.2.bias f4 [150]
0	0xbaed6dfa	-0.0018114441
1	0xbd87f6f9	-0.06638903
2	0xbd05e7a4	-0.032691613
3	0x3dcaf08b	0.09909161
4	0xbbfef12f	-0.007780216
5	0x3ce9d751	0.028545054
6	0x3d103192	0.035203524
7	0xbda509b8	-0.08058494
8	0x3d06cab6	0.032908164
9	0xbd043696	-0.03227862
10	0x3de7856f	0.11304747
11	0xbbdd726a	-0.006758024
12	0xbd8aace4	-0.067712575
13	0xbd8709b6	-0.06593649
14	0x3d7bccbb	0.061474543
15	0xbd0bd8c7	-0.03414228
16	0x3dc8dcbf	0.09807729
17	0xbdaf2cd3	-0.085534714
18	0xbbc33edb	-0.0059584207
19	0x3dd76745	0.10517744
20	0x3d89e1ea	0.06732543
21	0x3d291dc8	0.041288167
22	0x3d19bc1a	0.037532903
23	0xbd90c240	-0.070683
24	0x3ca25342	0.019815091
25	0xbac82164	-0.001526874
26	0xbd20cb78	-0.039256543
27	0xbc132e57	-0.008983216
28	0xbd5a4a5f	-0.053293582
29	0x3d2da5bf	0.042394396
30	0xbd43cfd8	-0.047805637
31	0x3d00763c	0.031362757
32	0xbdc6fd7e	-0.097163185
33	0xbd46b6ad	-0.048514057
34	0x3d3cf272	0.04612965
35	0x3db06487	0.08612924
36	0x3c0f68fe	0.008753059
37	0x3bd9dcc3	0.0066486313
38	0xbd1500b3	-0.03637762
39	0x3dad3698	0.084576786
40	0x3d6d2679	0.05789802
41	0x3dbe348e	0.09287368
42	0x3cb9728b	0.022637626
43	0xbda98956	-0.08278148
44	0xbdb631cf	-0.08896219
45	0xbd835e0e	-0.06414424
46	0xbd80bb28	-0.06285697
47	0x3dcaae6b	0.09896549
48	0xbd5a66db	-0.053320747
49	0x3d6c9714	0.057761267
50	0xbdb48a0a	-0.08815391
51	0x3da42c7f	0.080162995
52	0x3d17a061	0.037018184
53	0x3dbdac0c	0.09261331
54	0xbcb90a25	-0.022587845
55	0xbd2fc072	-0.04290814
56	0xbca8474b	-0.020541808
57	0x3d9bb60c	0.07603082
58	0xbd9c5dc8	-0.07635075
59	0xbd4768aa	-0.0486838
60	0x3c8a69f4	0.016896226
61	0xbc9b11f9	-0.018929468
62	0x3d440501	0.047856335
63	0xbd27ee17	-0.040998545
64	0x3c11f2f6	0.008908024
65	0x3cd2b02c	0.02571877
66	0xbd2913fc	-0.041278824
67	0xbd99d3f2	-0.075111285
68	0x3d26d4fb	0.040730458
69	0xbd83f8ad	-0.064439155
70	0xbddf73c6	-0.10910754
71	0xbd6b793e	-0.057488672
72	0x3dc64671	0.096814044
73	0xbcf1c4a5	-0.029512713
74	0x3d3b4369	0.045718584
75	0xbcb84cef	-0.022497622
76	0xbcb935e9	-0.022608714
77	0xbdb8b87f	-0.09019565
78	0x3d3b93d6	0.045795284
79	0x3d0be3ac	0.03415267
80	0x3d7c1999	0.06154785
81	0x3df7e776	0.121046945
82	0xbd89a4cc	-0.06720886
83	0x3d4f6ba5	0.050639767
84	0xbbbe5eff	-0.0058096643
85	0xbce8f822	-0.028438631
86	0x3bb65a84	0.0055649895
87	0xbc2ab64f	-0.010419442
88	0xbd39a7e7	-0.04532614
89	0x3d925e31	0.07146872
90	0x3db690de	0.0891435
91	0x3d697c32	0.057003208
92	0xbd245466	-0.04011955
93	0x3da20200	0.07910538
94	0x3be4b254	0.006979266
95	0xbcf6da00	-0.030133247
96	0x3d23b0de	0.039963596
97	0xbca3bff8	-0.019988999
98	0x3d74df85	0.059783477
99	0xbd761ddf	-0.06008708
100	0x3db9bf54	0.09069696
101	0x3d717b8c	0.058955714
102	0x3d5e96d1	0.05434305
103	0xbcff8ec9	-0.031196015
104	0xbd8799f1	-0.06621159
105	0xbd5fdf32	-0.054656215
106	0x3cf0f4de	0.029413637
107	0xbd5d90e6	-0.054093264
108	0x3d0292a8	0.031878144
109	0x3d929f68	0.071593106
110	0xbdae780a	-0.085189894
111	0x3ddc096f	0.10743987
112	0x3ddfed1c	0.10933897
113	0x3d527fc4	0.051391378
114	0xbd87d857	-0.066330604
115	0xbd1d055a	-0.03833518
116	0xbd552630	-0.05203837
117	0xbcd91324	-0.026498385
118	0x3c980b22	0.018559996
119	0x3de78777	0.11305135
120	0xbd82c0d7	-0.063844375
121	0x3c816a08	0.01579763
122	0xbd5f9457	-0.054584827
123	0xbba16453	-0.0049252897
124	0x3dda04ff	0.10645484
125	0x3d568e68	0.052381903
126	0xbdc986a0	-0.09840131
127	0x3dac3b38	0.084097326
128	0x3d0faa9a	0.035074808
129	0x3d94fc1e	0.0727465
130	0x3af4b300	0.0018669069
131	0xbd847572	-0.064677134
132	0x3dce432a	0.10071404
133	0xbd5e8143	-0.054322492
134	0x3d1c3fba	0.038146712
135	0x3da109db	0.07863208
136	0x3c92ba5f	0.017911134
137	0xbc82fdfe	-0.015990254
138	0xbd8bbaca	-0.068227366
139	0x3d5d5ad7	0.05404171
140	0x3c2a3efe	0.010390995
141	0x3d3d4c11	0.04621512
142	0x3c652c55	0.01398762
143	0x3c659fe3	0.014015171
144	0x3d28b397	0.041186895
145	0x3d8c995b	0.06865188
146	0x3d83821f	0.06421303
147	0x3ce855ab	0.028361162
148	0xbd67e6c9	-0.05661658
149	0xbd024a08	-0.031808883

relational_model.layers.4.weight f4 [150, 150]
0	0x3aca314f	0.0015426072
1	0xbda4ddfb	-0.08050152
2	0xbd7e1613	-0.06203277
3	0xbca81de0	-0.020522058
4	0x3d2186d8	0.039435238
5	0xbd846c64	-0.06465986
6	0x3bc344a8	0.005959112
7	0xbd08e1da	-0.033418514
8	0x3d7fc414	0.062442854
9	0x3c6db4e9	0.014508464
10	0x399d5ff9	0.0003001688
11	0x3d8e2624	0.069408685
12	0x3d369778	0.044578046
13	0xbc38a5f5	-0.011270036
14	0x3cb2f98a	0.021847505
15	0x3ce2bfb8	0.02767931
16	0xbd10e7d2	-0.03537733
17	0x3c82fccc	0.015989684
18	0xbcfe617d	-0.031052345
19	0xbd80a707	-0.06281858
20	0xbdb1645d	-0.08661721
21	0xbd6d443a	-0.057926394
22	0xbd7f73aa	-0.062366165
23	0x3d38d263	0.045122515
24	0x3c1fe2f4	0.0097587
25	0xbd4df430	-0.050281703
26	0xbd546749	-0.051856313
27	0x3d91edb5	0.07125417
28	0xbd87c3ae	-0.0662912
29	0xbc94cfb8	-0.018165454
30	0x3ad57000	0.0016283989
31	0x3ce873a0	0.028375447
32	0xbd2a125a	-0.041521408
33	0xbd51ddbe	-0.05123686
34	0x3d6b65f0	0.057470262
35	0xbd7a9396	-0.061175905
36	0xbd83b400	-0.06430817
37	0x3d74d628	0.059774548
38	0x3d3f9394	0.0467716
39	0xbd85700f	-0.06515514
40	0xbcec3998	-0.028836057
41	0xbd382dde	-0.044965617
42	0xbd7cd96c	-0.061730787
43	0xbd5de0b8	-0.054169387
44	0x3cfa7229	0.030572014
45	0xbced79af	-0.028988687
46	0xbd8d0b49	-0.06886918
47	0xbc2aab40	-0.010416806
48	0xbd9ef25f	-0.07761072
49	0x3d75246c	0.059849188
50	0x3d423010	0.047409117
51	0x3d10d99c	0.03536378
52	0x3d9c7f70	0.07641494
53	0x3d80d981	0.062914856
54	0x3da52720	0.08064103
55	0x3d094d84	0.03352119
56	0x3cb8f751	0.022578867
57	0xbdac0035	-0.08398477
58	0x3da071ba	0.078341916
59	0x3d776013	0.060394358
60	0xbd9909f0	-0.074725986
61	0x3da69ec8	0.08135754
62	0xbd9faadc	-0.07796261
63	0xbce53aac	-0.027982078
64	0xbd121fe8	-0.03567496
65	0x3d7f012b	0.062256973
66	0x3d6a64f8	0.057225198
67	0x3d92c950	0.071673036
68	0x3d051de3	0.032499205
69	0xbd7f5c3d	-0.062343825
70	0x3d840fa7	0.06448298
71	0x3c1ca82a	0.009561578
72	0xbd909048	-0.070587695
73	0xbd62248f	-0.055210646
74	0xbd4e7294	-0.05040224
75	0x3d06ea96	0.032938562
76	0x3c8a0a53	0.016850626
77	0xbcb7a42a	-0.022417147
78	0x3c1d3fe8	0.009597756
79	0xbd855a8a	-0.065114096
80	0x3ceabd7f	0.028654812
81	0x3d2933cb	0.04130916
82	0xbbfbffb2	-0.0076903934
83	0x3d20a747	0.039222028
84	0xbd013134	-0.031541064
85	0x3d7a4a37	0.061105933
86	0xbd67ecc6	-0.05662229
87	0xbd901e90	-0.07037079
88	0xbd62224f	-0.0552085
89	0xbb194a40	-0.0023390204
90	0x3c289d58	0.01029142
91	0x3d868346	0.06568007
92	0x3d007263	0.031359088
93	0x3da2bc2d	0.07946048
94	0xbd8228d7	-0.06355446
95	0x3d23aef7	0.03996178
96	0x3d16f170	0.036851346
97	0xbd30e74f	-0.043189343
98	0x3c38ebc4	0.01128668
99	0xbd696bb1	-0.05698747
100	0x3a10a006	0.00055170094
101	0x3d83c890	0.06434739
102	0x3d43dc67	0.047817614
103	0xbd213771	-0.039359514
104	0x3cd0b383	0.025476223
105	0xbcd9ba38	-0.026578054
106	0xbd915bfe	-0.07097624
107	0x3d10ff09	0.03539947
108	0xbd3300e7	-0.043702032
109	0x3d976719	0.07392711
110	0xbda9781e	-0.08274864
111	0x3c600625	0.01367334
112	0xbca6fad5	-0.020383278
113	0x3d512642	0.051061876
114	0xbb23769d	-0.0024942525
115	0xbd317970	-0.043328702
116	0xbd93fe03	-0.07226183
117	0x3cca67a4	0.024707623
118	0xbd11eae5	-0.035624404
119	0x3d281d16	0.041043364
120	0x3c4e6a10	0.012598529
121	0xbd142e13	-0.036176752
122	0x3d7d6f38	0.061873645
123	0x3c532ef2	0.012889611
124	0x3d582cc1	0.052777056
125	0x3d727267	0.059191134
126	0xbd9cd2c9	-0.076573916
127	0xbd6f4a02	-0.05842019
128	0xbd85c32b	-0.06531366
129	0x3d021b39	0.031764243
130	0xbd8100ea	-0.062990025
131	0xbc5f0a70	-0.013613328
132	0xbd43b4f8	-0.047780007
133	0xbd76b3fe	-0.060230248
134	0xbd012e27	-0.031538155
135	0xbd54a759	-0.051917408
136	0xbd589300	-0.052874565
137	0x3d870c5e	0.06594156
138	0x3cad0c4c	0.021124028
139	0xbd24b5fc	-0.040212616
140	0xbd98c673	-0.07459726
141	0xbd13ed8d	-0.036115218
142	0x3d0bc3ab	0.03412215
143	0xbd8ad691	-0.067792065
144	0x3d65cd58	0.056104034
145	0xbda05112	-0.07827963
146	0xbd64db85	-0.055873413
147	0x3c82f268	0.015984729
148	0xbd0c7b2b	-0.03429715
149	0x3d3621b8	0.04446575
150	0x3d972f0b	0.073820196
151	0x3cf7c543	0.030245429
152	0x3e10392e	0.14084312
153	0x3d156d9c	0.036481485
154	0x3e919518	0.28434062
155	0x3c81d525	0.015848706
156	0xbdc40abf	-0.09572362
157	0xbd916cae	-0.07100807
158	0x3d9ce626	0.07661085
159	0x3df73b43	0.1207185
160	0xbd6fd994	-0.058557108
161	0xbd93b1bd	-0.07211635
162	0x3dd64967	0.10463219
163	0x3dcf1d97	0.10113066
164	0xbd6102c6	-0.054934286
165	0xbd93d49d	-0.07218287
166	0xbdcead47	-0.10091644
167	0xbd4a15e1	-0.04933727
168	0x3b7741ca	0.0037728422
169	0xbdaa9540	-0.083292484
170	0xbe6300fb	-0.22168343
171	0x3c7c3809	0.015394219
172	0x3def730e	0.11691867
173	0x3de0ae8f	0.109707944
174	0x3cce7534	0.025202371
175	0x3be0e1c8	0.0068628527
176	0x3db51f11	0.08843816
177	0x3d803905	0.062608756
178	0x3d42c3dd	0.04755007
179	0xbd0de7aa	-0.03464476
180	0x3da636c5	0.08115915
181	0x3cd124f6	0.02553032
182	0xbc635890	-0.013876095
183	0x3d9ad6b3	0.07560482
184	0x3d800aae	0.06252037
185	0xbd94791b	-0.072496615
186	0xbd37049b	-0.044682126
187	0x3d37cde8	0.044874102
188	0x3d2d299a	0.042276002
189	0x3d2f50db	0.04280172
190	0x3d3ec301	0.04657269
191	0x3ccce00c	0.025009178
192	0xbacd9754	-0.0015685358
193	0xbdaf1c71	-0.08550347
194	0x3b266c2f	0.0025394072
195	0x3df0cb89	0.11757571
196	0xbd397dec	-0.045286104
197	0xbe0ddeb0	-0.1385448
198	0x3d0a9a68	0.03383866
199	0xbdd67f7c	-0.104735345
200	0x3d79e445	0.06100871
201	0x3c29b7b6	0.0103587415
202	0x3c838d46	0.016058575
203	0xbd8cfc0c	-0.068840116
204	0x3d045d52	0.03231556
205	0x3d4ccb34	0.049998477
206	0x3ce666b4	0.028125145
207	0xbc6ee071	-0.014579878
208	0x3d981cae	0.07427345
209	0x3d75b236	0.05998441
210	0xbe098145	-0.13428219
211	0xbcc63c64	-0.024198718
212	0xbe0308a0	-0.12796259
213	0x3d27ab0f	0.04093462
214	0x3ca5cefe	0.020240303
215	0x3db92447	0.090401225
216	0xbd2e3dde	-0.04253947
217	0xbd8713ca	-0.06595571
218	0x3d1076ae	0.03526943
219	0x3d8a0455	0.067391075
220	0x3dd87262	0.10568692
221	0x3e606474	0.2191332
222	0x3d0f286e	0.034950666
223	0x3c265660	0.010152429
224	0xbe269867	-0.16269074
225	0xbc134a1a	-0.008989835
226	0x3da59b67	0.08086281
227	0x3d8e93d2	0.06961788
228	0xbcb85048	-0.022499219
229	0x3ef289b5	0.47370687
230	0x3c79ff12	0.015258567
231	0xbd178eb3	-0.037001323
232	0x3b653589	0.0034974536
233	0x3dbf5b1e	0.09343551
234	0x3d552af7	0.052042928
235	0x3d5107ee	0.051032953
236	0x3bf188c0	0.007371038
237	0xbcc6dbf1	-0.024274798
238	0x3d0d4f5f	0.034499522
239	0xbd50450c	-0.0508471
240	0x3c18db6e	0.00932966
241	0xbd91b3c4	-0.07114366
242	0xbccf4550	-0.025301605
243	0xbe89af5c	-0.268916
244	0xbbd6b93c	-0.0065528434
245	0xbc2be294	-0.010491032
246	0x3d9191d0	0.0710789
247	0x3d150f2e	0.03639143
248	0x3ce66de8	0.02812858
249	0x3d8bb9b6	0.06822531
250	0xbe5d2538	-0.21596229
251	0xbd14a067	-0.036285784
252	0x3e3a3c9e	0.18187186
253	0xbb42c076	-0.0029716766
254	0x3d8da063	0.06915357
255	0x3d3e352d	0.04643743

relational_model.layers.4.bias f4 [150]
0	0xbd0af9cd	-0.033929635
1	0x3d5364b8	0.051609725
2	0x3db64673	0.08900156
3	0xbd500273	-0.050783586
4	0xbd797d4c	-0.060910508
5	0x3d8c7b69	0.06859476
6	0xbd5486ef	-0.051886495
7	0xbd54adf1	-0.051923696
8	0x3d989ebf	0.074521534
9	0x3d83b109	0.06430251
10	0xbc8434ef	-0.016138522
11	0x3dd443a8	0.10364467
12	0xbd1339f4	-0.03594394
13	0xbd951763	-0.07279851
14	0x3d8850a8	0.06656009
15	0xbd16d6a3	-0.036825787
16	0x3deea140	0.1165185
17	0x3d805702	0.062665954
18	0xbdcc51e7	-0.09976559
19	0x3d2ce82f	0.042213615
20	0x3ced0289	0.028931873
21	0xbbeac132	-0.007164144
22	0xbd265a34	-0.04061337
23	0xbcdaa20e	-0.026688602
24	0x3d062401	0.03274918
25	0x3c9041b6	0.017609458
26	0xbdc1d294	-0.09463993
27	0xbd35b652	-0.044363327
28	0xbb640443	-0.003479258
29	0x3d8d50fc	0.06900212
30	0x3d459c63	0.048244845
31	0xbd96126e	-0.07327734
32	0xbd2c8fbc	-0.042129263
33	0xbc27c520	-0.010239869
34	0xbb2a208c	-0.002595934
35	0x3d930afa	0.07179828
36	0xbd29c7c0	-0.041450262
37	0x3d058c6e	0.032604627
38	0x3d8452c9	0.064611025
39	0x3def011c	0.116701335
40	0x3dd9ea50	0.10640395
41	0xbc7c2368	-0.015389301
42	0xbb42466f	-0.0029644032
43	0x3c34e98f	0.011042013
44	0x3bf785e5	0.0075538033
45	0x3b515649	0.00319423
46	0xbcb20799	-0.021732138
47	0x3e03fefc	0.12890238
48	0x3bfddb57	0.0077470946
49	0x3a91035a	0.0011063621
50	0xbd7ee563	-0.06223048
51	0x3d13c55f	0.0360769
52	0x3d98599b	0.07438966
53	0xbd7105b5	-0.058843333
54	0xbdb024c5	-0.08600763
55	0x3c701374	0.0146530755
56	0x3dba244d	0.09088955
57	0x3d3ce4f8	0.0461168
58	0x3e014a8a	0.1262609
59	0xbd4e5d80	-0.050382137
60	0xbdd5ac5e	-0.10433267
61	0x3c58c466	0.013230419
62	0x3dbbb2a2	0.09164931
63	0x3dca6275	0.098820604
64	0xbd6f7af2	-0.05846686
65	0xbcc56cde	-0.024099763
66	0x3b9e1170	0.004823856
67	0xbd0fd945	-0.035119314
68	0xbc84312f	-0.016136734
69	0x3d8ee35c	0.06976959
70	0x3dd42059	0.10357732
71	0x3d4f59e8	0.05062285
72	0x3d878077	0.066162996
73	0xbd0f9bac	-0.03506057
74	0x3d227dc8	0.039670736
75	0x3cbfcab5	0.023412088
76	0x3cf2f443	0.029657489
77	0x3d872197	0.06598204
78	0xbe691171	-0.2276056
79	0x3d639f8f	0.05557209
80	0x3df737d4	0.12071195
81	0xbda2257c	-0.07917306
82	0x3de46713	0.11152472
83	0x3d0b8a68	0.03406754
84	0x3d2ba758	0.04190764
85	0xbd8e14ac	-0.069375366
86	0xbd743f78	-0.05963084
87	0x3caf749b	0.021417907
88	0xbdc1b4d1	-0.09458316
89	0x3dbb43df	0.09143805
90	0x3d74c09f	0.05975401
91	0x3d828965	0.06373862
92	0xbd3dbc41	-0.04632211
93	0x3b215e89	0.0024622998
94	0x3d9edf76	0.077574655
95	0x3cf88d97	0.030340953
96	0xbbddd368	-0.0067695864
97	0xbd88a35a	-0.06671782
98	0x3ce46e17	0.027884526
99	0xbd5c76b8	-0.053824157
100	0xbc237c9f	-0.009978442
101	0x3d671466	0.056415938
102	0x3def4954	0.11683908
103	0x3d324fd4	0.04353316
104	0xbcc8d458	-0.024515316
105	0x3d84dae5	0.06487063
106	0x3d11028f	0.03540283
107	0xbc9a8ea2	-0.01886684
108	0x3d20fee6	0.03930559
109	0x3cdb585f	0.026775537
110	0xbd29756b	-0.041371744
111	0xbd84fb88	-0.06493288
112	0x3d88e2e6	0.066839024
113	0x3ddde463	0.10834577
114	0xbd831de6	-0.06402187
115	0xbc4c5f83	-0.012473944
116	0x3cedbd60	0.029020965
117	0xbd7d23ff	-0.061801907
118	0xbdbfeea7	-0.09371691
119	0x3d98c9f3	0.07460394
120	0x3da4f4b5	0.08054487
121	0xbc96efdf	-0.018424926
122	0xbd927fad	-0.071532585
123	0xbd8d6124	-0.06903294
124	0x3c038439	0.00802713
125	0xbca78047	-0.02044691
126	0x3d4593d8	0.048236698
127	0xbdb73d15	-0.08947197
128	0x3ccfd3d9	0.025369572
129	0xbd9e1fb5	-0.077208914
130	0xbb39e526	-0.0028365343
131	0xbd50bef7	-0.05096337
132	0xbd043269	-0.032274637
133	0xbcf15f50	-0.029464394
134	0xbcc04758	-0.02347152
135	0x3ddd434b	0.10803851
136	0x3d45e5b3	0.04831476
137	0xbe26586d	-0.1624467
138	0xbcb77194	-0.022393025
139	0x3d9f822e	0.07788502
140	0x3d9e741e	0.07736991
141	0x3d8180ca	0.06323393
142	0xbd3d8526	-0.04626956
143	0xbdb6899a	-0.08912964
144	0x3dc36f0e	0.095426664
145	0xbd08109e	-0.033218972
146	0x3de8f78c	0.11375341
147	0x3d58f703	0.052969944
148	0x3d286d8c	0.041120097
149	0xbd85ac8e	-0.06527053

relational_model.layers.6.weight f4 [1, 150]
0	0x3bba73c0	0.005690068
1	0xbddef144	-0.108858615
2	0x3e01f74a	0.1269199
3	0x3d2c011b	0.04199324
4	0x3d89d8db	0.06730815
5	0xbe9f39e7	-0.31098863
6	0xbe120afc	-0.14262003
7	0x3e11e36d	0.14246912
8	0xbe4139dd	-0.1886973
9	0xbe5c988e	-0.2154257
10	0xbca1b37f	-0.01973891
11	0x3df7ac50	0.12093413
12	0x3dd97cb5	0.10619489
13	0xbcb7185c	-0.022350483
14	0xbe3afd73	-0.18260746
15	0x3d906fd6	0.07052581
16	0x3e26b081	0.16278268
17	0x3e467779	0.19381513
18	0xbca86899	-0.020557689
19	0xbd4b8ef6	-0.049696885
20	0x3d97498d	0.073870756
21	0xbe2a3494	-0.1662162
22	0xbe8470cf	-0.25867316
23	0x3d97dc26	0.07415037
24	0x3dcd161d	0.100139834
25	0xbe394b1d	-0.1809506
26	0xbc123c6a	-0.008925537
27	0xbd1beb9e	-0.0380665
28	0x3e11dff3	0.14245586
29	0xbcdd1276	-0.026986342
30	0xbe11d46d	-0.1424119
31	0x3d0d5a1c	0.034509763
32	0x3c8aec3a	0.016958345
33	0xbe0d4874	-0.1379717
34	0x3e5dc181	0.21655847
35	0x3e1d1f04	0.15343863
36	0xbe1bae26	-0.15203151
37	0xbe03d9dc	-0.12876076
38	0x3e47629f	0.19471215
39	0x3e0bdc0d	0.13658161
40	0x3e18a06e	0.14904949
41	0xbe06c5e7	-0.13161431
42	0xbe1d4d72	-0.15361574
43	0xbe293e53	-0.16527681
44	0xbe2727ca	-0.16323772
45	0x3747a3a6	1.1899427e-05
46	0xbe7c4869	-0.24636997
47	0x3e83384b	0.25628886
48	0xbd5b5f0f	-0.05355745
49	0x3e27eabb	0.16398136
50	0xbe379e72	-0.17931536
51	0x3e49ec05	0.1971894
52	0x3e413eb3	0.18871574
53	0xbe7077b7	-0.23483168
54	0xbcf3e90d	-0.029774213
55	0x3e1376e1	0.14400817
56	0x3e470dd7	0.19438873
57	0xbc7ff446	-0.015622204
58	0x3dd5afde	0.10433935
59	0xbe4c8296	-0.1997169
60	0xbad69a7a	-0.0016372942
61	0xbe2178da	-0.15768757
62	0x3dbed8c8	0.093186915
63	0x3e118a3d	0.1421289
64	0x3cf09165	0.029366205
65	0xbe2f590f	-0.17123817
66	0x3e3d8baf	0.18510316
67	0xbe1bc950	-0.15213513
68	0x3d6a7dab	0.057248753
69	0x3e274f2f	0.163388
70	0x3de577af	0.112044685
71	0xbe1f24fc	-0.15541452
72	0xbc6c94ac	-0.014439743
73	0xbe6fcd90	-0.2341826
74	0x3e4fb8ac	0.2028529
75	0xbe7721c9	-0.24133982
76	0x3dbebfd3	0.09313931
77	0xbeb88478	-0.36038566
78	0x3e37402d	0.17895575
79	0x3e9280ae	0.286138
80	0x3df68228	0.12036544
81	0xbd00e4ab	-0.031468075
82	0x3e0ac21f	0.13550614
83	0xbe4e3be6	-0.20140037
84	0x3e06f5d1	0.13179709
85	0x3cc2cec7	0.02378024
86	0xbe2fac19	-0.17155494
87	0xbe39b77f	-0.18136404
88	0x3daf5854	0.08561769
89	0x3dc77cc3	0.09740593
90	0x3e28ae36	0.16472706
91	0x3e274d66	0.16338119
92	0xbc95b959	-0.018276857
93	0xbe246466	-0.16053924
94	0x3de90019	0.11376972
95	0xbe18c76f	-0.14919828
96	0xbc34f34e	-0.0110443365
97	0xbe249cb5	-0.16075404
98	0xbe2fe5f4	-0.17177564
99	0xbcd76e6c	-0.02629777
100	0x3e55e73f	0.20888995
101	0x3e504e64	0.20342404
102	0x3dd7c6d9	0.10535974
103	0xbc0bf813	-0.008543032
104	0xbd519bee	-0.051174097
105	0xbe77eace	-0.24210665
106	0x3b140656	0.0022586784
107	0x3cc67788	0.024226919
108	0xbe080ccf	-0.13286136
109	0x3e3a7b8f	0.18211196
110	0x3e1ef7a1	0.1552415
111	0xbda05598	-0.07828826
112	0x3e2d8fd6	0.169494
113	0x3e258205	0.1616288
114	0xbe3f5ff6	-0.1868895
115	0xbe0d9ec8	-0.13830101
116	0x3e058bae	0.13041565
117	0x3d5040ac	0.050842926
118	0x3abc6735	0.001437402
119	0xbe936279	-0.28786066
120	0x3e484ef6	0.19561371
121	0x3e299eb7	0.16564451
122	0xbe3c9dc9	-0.18419565
123	0xbc7c93ec	-0.015416127
124	0xbd3dcc7b	-0.046337586
125	0xbe50bd1a	-0.20384637
126	0xbe0579c8	-0.13034737
127	0x3b5c63f4	0.0033628913
128	0xbd5b3099	-0.053513143
129	0x3d1c47bf	0.03815436
130	0xbd322f0f	-0.04350191
131	0x3e112204	0.14173132
132	0xbe54bfc2	-0.20776275
133	0xbe1bfd44	-0.15233332
134	0xbe1a606e	-0.15075848
135	0x3e40cc3b	0.18827908
136	0xbe14dabc	-0.14536566
137	0x3dca2ef7	0.09872239
138	0x3e4f545d	0.20247026
139	0x3d901695	0.07035557
140	0x3e1680dc	0.14697593
141	0xbeae0cfe	-0.33994287
142	0x3d8e4f9e	0.069487795
143	0xbcbbd907	-0.022930635
144	0x3e221e59	0.15831889
145	0xbe16be08	-0.14720929
146	0x3e289d0a	0.16466156
147	0xbe3253d8	-0.17414796
148	0x3e258f0d	0.16167851
149	0xbd8a6875	-0.06758205

object_model.layers.0.weight f4 [100, 4]
0	0xbc64df40	-0.013969243
1	0xbe0ef01c	-0.13958782
2	0xbdfd45c0	-0.123668194
3	0xbe99f094	-0.3006636
4	0x3e7833fc	0.2423858
5	0x3c63c94a	0.0139029715
6	0x3f95a3c9	1.1690608
7	0x3d1edc07	0.038784053
8	0xbe88a400	-0.26687622
9	0x3ed9275e	0.42412847
10	0x3f1629cc	0.58657527
11	0x3eaf8cce	0.34287113
12	0x3eadc9f5	0.33943143
13	0xb885e8f1	-6.385323e-05
14	0x4024cb7d	2.57492
15	0xbfb4d649	-1.4127895
16	0x3cd94a15	0.026524583
17	0x3dd35ff8	0.10321039
18	0xbea0c800	-0.31402588
19	0xbe803f2f	-0.25048205
20	0xbf05070b	-0.5196387
21	0x3e905e2c	0.28196847
22	0xbe972801	-0.29522708
23	0xbe93e16e	-0.28882927
24	0x3e975664	0.29558098
25	0x3de28de3	0.11062219
26	0x3f2eb95f	0.68251604
27	0x3e78795b	0.24265043
28	0xbb7ce679	-0.003858952
29	0xbcc5ae4e	-0.024130967
30	0x3ef40378	0.47658896
31	0x3db53225	0.08847455
32	0x3edd2465	0.4319183
33	0x3e90f3d4	0.28311026
34	0x3ea22df6	0.3167569
35	0xbed67a24	-0.4189006
36	0xbe16c374	-0.14722997
37	0xbd7f300b	-0.062301677
38	0xbef68a83	-0.4815255
39	0xbed982ea	-0.42482692
40	0xbd9f2bb2	-0.07772006
41	0x3e7e35f1	0.24825265
42	0x3e0264c7	0.12733756
43	0x3ec75088	0.38928628
44	0xbe100cb0	-0.1406734
45	0xbe1a665c	-0.1507811
46	0xbe02c06b	-0.12768714
47	0x3e960505	0.29300705
48	0x3dbed0e6	0.09317188
49	0xbd8b73a8	-0.06809169
50	0x3f8451fb	1.0337518
51	0xbd836f97	-0.064177684
52	0xbd70dc88	-0.058804065
53	0xbe26484f	-0.16238521
54	0x3f0b23a8	0.5435128
55	0xbe972ceb	-0.29526457
56	0x3ef77b67	0.48336336
57	0x3da71d48	0.08159882
58	0x3db72113	0.08941855
59	0x3eaa9bf9	0.33322123
60	0xbec44668	-0.38334966
61	0x3dea8838	0.11451763
62	0xbe9ddda0	-0.3083315
63	0xbebe002c	-0.37109506
64	0xbec1cbf0	-0.37850904
65	0xbbb5caf7	-0.005547877
66	0x3f2b9fe7	0.67040867
67	0xbe33c900	-0.17557144
68	0x3efb69ba	0.491041
69	0x3e7ae9b7	0.24503218
70	0x3fa63f71	1.2988111
71	0x3e4953a3	0.19660811
72	0xbde9d476	-0.11417477
73	0x3eb07b54	0.34469092
74	0x3e906653	0.28203067
75	0x3e073e77	0.13207422
76	0xbeb9f22a	-0.3631757
77	0xbe37f6d0	-0.17965245
78	0x3f20ae22	0.62765706
79	0xbe6517c9	-0.22372355
80	0xbce7a54d	-0.028277064
81	0x3cf6f59d	0.030146414
82	0xbf9537ca	-1.165765
83	0x3ca591b9	0.020211088
84	0xbeb4d575	-0.35319105
85	0xbea56142	-0.32300764
86	0xbf00e191	-0.5034419
87	0x3ed43dd2	0.41453415
88	0xbeefe91a	-0.4685753
89	0xbe92e3dc	-0.28689468
90	0x3e69385c	0.22775406
91	0xbee0f4dc	-0.43936813
92	0xbe09df02	-0.13463977
93	0xbeb1f2e0	-0.3475561
94	0x3f454896	0.7706388
95	0xba033317	-0.00050048664
96	0x3e76a315	0.24085648
97	0x3d81f93c	0.06346366
98	0x3f3bbb26	0.7333244
99	0x3ed396ee	0.41326088
100	0x3e44da66	0.19223937
101	0x3edc45f0	0.43022108
102	0xbeb54edc	-0.35411727
103	0xbdbcad9d	-0.092128016
104	0xbf26840c	-0.6504524
105	0x3ec7b4e8	0.39005208
106	0xbd890ead	-0.06692252
107	0xbe2b8ecc	-0.16753691
108	0x3fab77f0	1.3395977
109	0xbbc25fba	-0.0059318217
110	0xbfa4b6c4	-1.2868276
111	0xbf6e8b2b	-0.93181103
112	0x3f1efdba	0.62105906
113	0x3e5e839b	0.21729891
114	0xbed496ca	-0.41521293
115	0xbf0c8a61	-0.5489865
116	0x3ed603ca	0.41799766
117	0xbf0d4ae0	-0.55192375
118	0xbf0eeb64	-0.5582793
119	0xbe9978d7	-0.29975006
120	0xbe285a00	-0.16440582
121	0xbdebfec8	-0.11523205
122	0x3d767990	0.060174525
123	0xbec65c76	-0.38742417
124	0xbe1cd5c5	-0.15315922
125	0xbe75c2a7	-0.24000035
126	0x3f369fd9	0.7133766
127	0xbf13094b	-0.57436055
128	0xbd388346	-0.045047067
129	0xbea8f564	-0.32999718
130	0x3f136cb1	0.57587725
131	0x3e08345f	0.13301228
132	0xbec2ce54	-0.3804804
133	0xbe70ff74	-0.23534948
134	0x3dcdf7b8	0.10057014
135	0xbe94b89c	-0.29047096
136	0x3ed9ecc2	0.42563444
137	0x3ecfff54	0.40624487
138	0xbe3ead72	-0.18620852
139	0x3e1c2e4e	0.15252039
140	0xbe6ffc5f	-0.23436116
141	0xbe8fb777	-0.2806966
142	0xbfa50968	-1.2893496
143	0x3e91464d	0.28373948
144	0xba173000	-0.00057673454
145	0x3e4bde24	0.19908959
146	0xbe6780f8	-0.22607791
147	0xbeedd9d6	-0.46455258
148	0x3df6ffc8	0.12060505
149	0xbe207244	-0.15668589
150	0x3e93127a	0.28725034
151	0xbe1ac384	-0.15113646
152	0x3e3c4775	0.18386634
153	0xbee6624a	-0.44996864
154	0x3f434d29	0.7628961
155	0xbea8031a	-0.32814866
156	0xbefe75cd	-0.4969925
157	0xbe2f6cd8	-0.17131364
158	0x3f874d12	1.0570395
159	0xbe91fd03	-0.28513345
160	0xbee64367	-0.449733
161	0xbdf123d6	-0.11774413
162	0xbe863fb1	-0.26220468
163	0xbea0e675	-0.31425825
164	0x3eeeecef	0.4666514
165	0xbe70a568	-0.23500597
166	0x3f6a1013	0.9143078
167	0xbd65797c	-0.05602406
168	0x3d8531fe	0.06503676
169	0xbe0bb3d2	-0.13642815
170	0xbe832ce1	-0.25620177
171	0xbebd1788	-0.36932015
172	0xbe493e0d	-0.19652577
173	0xbdd5cafe	-0.10439108
174	0xbf418ec5	-0.75608474
175	0x3e2bb049	0.16766466
176	0xbe6d7540	-0.23189259
177	0xbeab062e	-0.33403152
178	0xbf9ebf1e	-1.2402074
179	0x3e60a411	0.21937586
180	0xbe8a327b	-0.2699164
181	0xbdd723f2	-0.10504903
182	0xbfb0a49e	-1.3800237
183	0xbe9390c0	-0.28821373
184	0xbeb4dbba	-0.35323888
185	0x3d9e6968	0.077349484
186	0x3e99788e	0.29974788
187	0xbe3d6c78	-0.18498409
188	0x3f16c46d	0.5889347
189	0xbc12db2e	-0.008963389
190	0xbf71c774	-0.94444966
191	0xbe13b221	-0.1442342
192	0xbed527aa	-0.41631824
193	0xbe6c459a	-0.23073426
194	0x3f5693ba	0.8381916
195	0x3e3ff957	0.1874746
196	0xbd04a251	-0.03238136
197	0x3d01ad2b	0.031659286
198	0xb9e82c77	-0.00044283617
199	0x3e0723f8	0.13197315
200	0xbec39c3e	-0.3820514
201	0xbeb6eebe	-0.3572902
202	0xbe68ac51	-0.22721983
203	0xbe4f6141	-0.20251943
204	0x3d8b6083	0.068055175
205	0x3e8f03a4	0.27932465
206	0xbe8f121a	-0.27943498
207	0x3ebc0c0d	0.36727944
208	0xbe8b5a2c	-0.27217233
209	0xbec987b4	-0.39361346
210	0xbe5a0e9c	-0.21294636
211	0xbe9d3ece	-0.3071198
212	0xbd6e4022	-0.05816663
213	0xbec5e5d6	-0.38651913
214	0x3e7423a4	0.23841721
215	0xbe462313	-0.19349317
216	0x3f0be521	0.546465
217	0x3bfdb898	0.0077429526
218	0x401118d8	2.2671413
219	0x3cde7c55	0.027158896
220	0xbd97e0d8	-0.074159324
221	0xbea178b2	-0.31537396
222	0x3ea6d964	0.3258773
223	0xbeecbf84	-0.46239865
224	0x3b7a739a	0.0038215877
225	0xbee2fba7	-0.4433262
226	0xbf56528d	-0.8371971
227	0x3e975b51	0.29561856
228	0xbe232066	-0.15930328
229	0x3e1d2ca4	0.1534906
230	0xbf18859d	-0.5957888
231	0x3ec730f3	0.38904533
232	0xbde04887	-0.109513335
233	0xbec28fde	-0.38000387
234	0xbf1a070b	-0.60166997
235	0xbe104601	-0.14089204
236	0x3ee7d609	0.45280483
237	0x3ec05be3	0.37570104
238	0x3fa0cbee	1.2562234
239	0xbead29d2	-0.3382097
240	0x3e66874f	0.22512554
241	0x3c5a5993	0.01332702
242	0xbfbc1431	-1.4693662
243	0xbee9a544	-0.456339
244	0xbe97a9b0	-0.2962165
245	0x3e952b80	0.2913475
246	0xbed11980	-0.40839767
247	0xbe87aac2	-0.26497465
248	0xbe546f31	-0.20745541
249	0x3e801a4b	0.2502006
250	0xbf179122	-0.5920583
251	0x3de29110	0.11062825
252	0xbf00bad7	-0.50285095
253	0xbde8822d	-0.11352954
254	0x3df74485	0.12073616
255	0x3ddb8cfe	0.107202515

object_model.layers.0.bias f4 [100]
0	0xbebb6cfe	-0.36606592
1	0x3e19ee50	0.15032315
2	0xbe13d574	-0.14436895
3	0x3df468ec	0.11934075
4	0x3e3910b6	0.18072781
5	0xbea9f968	-0.33198094
6	0x3ec43953	0.38324985
7	0x3d618cb0	0.05506581
8	0x3e4ae599	0.19814147
9	0x3eccf5f0	0.40031385
10	0x3e3354a7	0.17512761
11	0x3edda999	0.43293455
12	0x3f020877	0.50794166
13	0x3eb87493	0.3602644
14	0xbd789d3e	-0.060696833
15	0xbee95408	-0.45571923
16	0x3daef74a	0.085432604
17	0xba57773a	-0.0008219365
18	0xbdffbbc0	-0.12486982
19	0xbe95815f	-0.29200265
20	0x3e37f5a7	0.17964803
21	0xbc6f2ded	-0.014598352
22	0x3e88d3ee	0.2672419
23	0x3e86ee2a	0.2635358
24	0x3ec7acbe	0.3899898
25	0xbefb8e2c	-0.49131906
26	0xbe56e57c	-0.20985979
27	0xbdc19b1b	-0.09453412
28	0x3ed5094e	0.4160866
29	0xbe9d9f95	-0.30785814
30	0xbec79584	-0.3898126
31	0xbc040114	-0.008056898
32	0x3ed15c92	0.40890938
33	0xbed0b1a2	-0.40760523
34	0xbd82ade6	-0.06380825
35	0xbe5170a9	-0.20453133
36	0xbedd7988	-0.43256783
37	0xbec7e7f4	-0.39044154
38	0xbe7b8611	-0.24562861
39	0x3ea93ec8	0.3305571
40	0x3ec7847f	0.38968274
41	0x3e60c141	0.2194872
42	0x3e7a610e	0.24451086
43	0x3c46d3a6	0.012135422
44	0xbe332338	-0.17493904
45	0x3e47684c	0.1947338
46	0xbeb781c6	-0.35841197
47	0xbe87a25e	-0.26491064
48	0x3e0b39bf	0.13596247
49	0x3e408219	0.18799628
50	0xbdad8eca	-0.084745005
51	0xbdd0ea6c	-0.102009624
52	0xbef96962	-0.48713213
53	0x3e229ecc	0.15880889
54	0x3e36fd31	0.17870022
55	0xbef8897c	-0.48542392
56	0xbe96c032	-0.29443508
57	0x3e034de7	0.12822686
58	0x3d5c355f	0.053761836
59	0x3eae08e1	0.3399115
60	0x3da687a4	0.0813134
61	0x3eaf04f8	0.34183478
62	0x3ebe74b9	0.37198427
63	0xbdf51b65	-0.11968116
64	0xbe707894	-0.23483497
65	0xbe432735	-0.19057925
66	0xbe93aa1f	-0.2884073
67	0x3ec6631a	0.38747483
68	0xbe8a65e5	-0.27030864
69	0x3d9bd16c	0.076083034
70	0x3ea1c112	0.31592613
71	0xbe8a8fdb	-0.27062878
72	0xbedbbdf9	-0.42918375
73	0xbe6a3410	-0.22871423
74	0x3ebb1f11	0.3654714
75	0xbf18751f	-0.5955371
76	0xbeba646e	-0.36404747
77	0xbe844b9a	-0.2583893
78	0x3e956689	0.2917979
79	0x3d00ebfb	0.03147505
80	0xbe858a2d	-0.26081982
81	0x3e8df346	0.27724665
82	0xbd116f32	-0.035506435
83	0xbebe7ad9	-0.372031
84	0xbe852b78	-0.26009727
85	0x3e0c19a6	0.13681659
86	0x3ea4c550	0.32181787
87	0x3e428fc9	0.19000162
88	0x3e64a8e0	0.22330046
89	0x3ea6d924	0.3258754
90	0x3deaae22	0.114589944
91	0xbefd3a3e	-0.49458498
92	0xbb54f97e	-0.0032497342
93	0x3b9e7679	0.0048359004
94	0xbf081370	-0.5315466
95	0xbdb335d4	-0.08750501
96	0x3ec472a1	0.38368705
97	0xbc2eb0d4	-0.010662276
98	0xbe81e580	-0.25370407
99	0xbeb836d4	-0.3597933
