trained_models/LP_2_600_epoch400.pt (torch_old, 192257 bytes, 11 tensors)

relational_model.layers.0.weight f4 [150, 7]
-0.30482695 0.20285721 -0.06429616 0.016356112 0.3548711 0.3508634 -0.21551262 0.07759754
0.30901247 0.13792035 -0.021281932 -0.17349204 -0.09209889 0.03651932 0.03475428 0.47391737
-0.26295245 0.03621461 -0.26068524 0.2331248 -0.32124507 0.135937 0.28973418 0.09548018
0.24270533 -0.29531577 -0.015982626 -0.16524348 0.25171402 -0.1422184 -0.04225841 -0.28462437
-0.32181516 -0.3867195 -0.043755263 -0.42169514 0.03416504 0.23303212 0.15839097 0.17548539
-0.041909456 0.3146983 0.21710438 -0.2564923 -0.21339385 -0.29082245 -0.21446867 0.36154246
-0.0017776191 0.15000007 0.21282896 -0.3087392 -0.08315923 -0.3371845 -0.06937109 0.088739246
0.24448226 0.06578039 -0.16800423 -0.22161888 -0.49027395 0.011074524 0.36380813 0.32853496
-0.12113519 0.17514904 -0.18730164 0.13123628 -0.1322876 0.07992861 -0.3996438 -0.64713997
-0.045239165 -0.23080052 0.33495006 0.05363568 0.17916527 -0.45038643 -0.3849225 -0.12905817
-0.31430957 -0.08803377 0.29309386 -0.27217105 -0.15725075 0.45410812 -0.3081521 -0.23873171
-0.16378273 0.26746032 -0.033084363 0.31170428 0.22486417 0.32271683 0.34228924 0.16620895
-0.23048599 0.33246067 -0.49097735 -0.19826502 0.40544674 0.24896163 0.1839923 -0.105767734
0.23716697 0.0734148 0.08816472 0.20192449 -0.18280888 -0.36695692 0.1316862 -0.102332175
-0.26816237 0.240396 0.34829605 -0.16543573 0.36429366 -0.11933936 0.13944098 -0.20003535
0.01712549 -0.1221726 -0.19345923 -0.1972868 0.18908522 0.33002326 0.008998924 0.1894065
-0.02214729 -0.0091435285 0.2951475 -0.10662853 -0.08710545 0.417888 0.016097864 0.16107096
-0.0060130097 0.33834365 -0.4355732 0.19781789 -0.20656924 -0.19812948 -0.31552944 -0.0314901
0.0029177517 0.25919616 -0.32510653 -0.25692192 0.021695292 0.089972116 0.18873997 0.26967767
-0.36509854 0.21222994 0.19991034 -0.14396343 0.29639325 0.14255689 0.09397212 0.36818627
-0.3252338 0.36929235 0.2505538 0.12506174 0.18187514 -0.25912854 -0.17313868 -0.28264403
-0.17547607 0.21144423 0.14085634 -0.38387853 -0.08406305 -0.030799853 0.31648573 -0.46801442
-0.18378466 0.39318594 -0.33785185 -0.17855369 0.10152666 0.2535679 -0.21646911 -0.11386936
0.41124746 -0.31873232 -0.0684029 0.10698762 0.1663126 0.21167807 -0.1399752 -0.08157055
0.0045249234 0.2573812 -0.25553364 -0.088290244 -0.32648838 0.093355246 -0.10745348 0.28572744
-0.30033797 0.09068707 -0.13999753 -0.2531439 -0.3430895 0.47585577 -0.04851137 0.05536051
0.10903585 -0.21530794 0.056930527 -0.20871106 0.011721683 0.006609897 -0.24193549 -0.04978223
-0.31127056 0.22719026 -0.0844178 0.011778053 -0.025678389 -0.3100388 -0.022462277 -0.11074105
0.16636164 -0.08509181 0.0109905545 0.3235189 0.13231893 -0.34487924 -0.3699953 0.4056981
-0.01713756 0.5425608 -0.26385516 -0.4238133 0.26781398 -0.19813928 0.048617188 0.0010313509
0.05501034 0.27086142 -0.094000116 -0.18083693 0.20497492 0.1617228 0.30707347 0.3901421
-0.20184731 -0.5206535 0.32250154 -0.22542801 -0.19766213 0.22666374 -0.3128641 -0.08845003
00000000: 4712 9cbe cdb9 4f3e b5ad 83bd 41fd 853c
00000010: aab1 b53e 5ea4 b33e 57af 5cbe 76eb 9e3d
00000020: e236 9e3e fe3a 0d3e 7257 aebc e6a7 31be
00000030: 589e bcbd 4895 153d 815a 0e3d 4ca5 f23e
00000040: b4a1 86be c555 143d 8978 85be 44b8 6e3e
00000050: 3c7a a4be 1233 0b3e 0a58 943e 1d8b c33d
00000060: bf87 783e a133 97be ffed 82bc 9635 29be
00000070: a9e0 803e b3a1 11be 2817 2dbd 49ba 91be
00000080: f5c4 a4be 1900 c6be b838 33bd 6de8 d7be
00000090: a4f0 0b3d f99f 6e3e 3e31 223e 71b2 333e
000000a0: 40a9 2bbd 2320 a13e 9c50 5e3e f552 83be
000000b0: eb83 5abe aee6 94be ad9d 5bbe 181c b93e
000000c0: 00ff e8ba 9e99 193e d6ef 593e 1013 9ebe
000000d0: 634f aabd 72a3 acbe 6e12 8ebd ecbc b53d
000000e0: 8f59 7a3e deb7 863d 4d09 2cbe 0ff0 62be
000000f0: 3005 fbbe ec71 353c 0f45 ba3e bc35 a83e
00000100: ba15 f8bd 455a 333e 00cc 3fbe ce62 063e
00000110: 6776 07be 9cb1 a33d 1d9e ccbe f7aa 25bf
00000120: b44c 39bd f956 6cbe 937e ab3e 16b1 5b3d
00000130: 1a77 373e 0d99 e6be 9014 c5be d327 04be
00000140: 2fed a0be 0d4b b4bd 6610 963e 015a 8bbe
00000150: 5706 21be dc80 e83e 1dc6 9dbe 1676 74be
00000160: a9b6 27be 8ff0 883e 7883 07bd b497 9f3e
00000170: cb42 663e 243b a53e 8940 af3e ae32 2a3e
00000180: 8504 6cbe 4938 aa3e 6261 fbbe fc05 4bbe
00000190: b796 cf3e ccef 7e3e 7a68 3c3e c19c d8bd
000001a0: e6db 723e 805a 963d b48f b43d 4bc5 4e3e
000001b0: 4032 3bbe c7e1 bbbe bfd8 063e 8893 d1bd
000001c0: 944c 89be 5e2a 763e dc53 b23e fc67 29be
000001d0: b384 ba3e 3268 f4bd 9ec9 0e3e 11d6 4cbe
000001e0: c14a 8c3c a135 fabd 2d1a 46be 8d05 4abe
000001f0: 8e9f 413e cff8 a83e 3970 133c c7f3 413e
00000200: 3c6e b5bc bdce 15bc 931d 973e 0f60 dabd
00000210: 5864 b2bd 6af5 d53e abdf 833c c9ef 243e
00000220: c808 c5bb 613b ad3e 7303 dfbe c690 4a3e
00000230: e386 53be 74e2 4abe 138d a1be c3fb 00bd
00000240: c037 3f3b 5cb5 843e 5d74 a6be 458b 83be
00000250: 53ba b13c 4d43 b83d 0d45 413e 3113 8a3e
00000260: 32ee babe ce52 593e 4cb5 4c3e 266b 13be
00000270: dbc0 973e 6ffa 113e 7474 c03d e982 bc3e
00000280: 0b85 a6be e313 bd3e 9648 803e 2f10 003e
00000290: 7a3d 3a3e 7fac 84be 444b 31be b8b6 90be
000002a0: 00b0 33be d684 583e a53c 103e ba8b c4be
000002b0: 4029 acbd f94f fcbc 6b0a a23e 969f efbe
000002c0: 0c32 3cbe ab4f c93e ebfa acbe c7d6 36be
000002d0: 36ed cf3d a7d3 813e 14aa 5dbe 5734 e9bd
000002e0: 078f d23e e230 a3be d216 8cbd 531c db3d
000002f0: da4d 2a3e 23c2 583e a955 0fbe 760e a7bd
00000300: cf45 943b 78c7 833e 4ed5 82be 84d1 b4bd
00000310: 7c29 a7be 0931 bf3d 9210 dcbd de4a 923e
00000320: e6c5 99be 24ba b93d 835b 0fbe 149c 81be
00000330: 6da9 afbe 5ea3 f33e dcb3 46bd b4c1 623d
00000340: 304e df3d af79 5cbe fc2f 693d 5ab8 55be
00000350: 4d0c 403c d697 d83b f0bd 77be 74e8 4bbd
00000360: db5e 9fbe 90a4 683e 3de3 acbd bcf8 403c
00000370: 7c5b d2bc 68bd 9ebe cf02 b8bc 34cc e2bd
00000380: b55a 2a3e 9d44 aebd ba11 343c 45a4 a53e
00000390: 9d7e 073e 0394 b0be 0670 bdbe a9b7 cf3e
000003a0: 1164 8cbc 44e5 0a3f 0618 87be 0ffe d8be
000003b0: ea1e 893e 06e5 4abe d122 473d 652e 873a
000003c0: 8652 613d 59ae 8a3e 2283 c0bd 512d 39be
000003d0: f2e4 513e a99a 253e bc38 9d3e b5c0 c73e
000003e0: 10b1 4ebe 8c49 05bf ec1e a53e 9ad6 66be
000003f0: f167 4abe 8a1a 683e b92f a0be 4a25 b5bd

relational_model.layers.0.bias f4 [150]
0.11419419 0.15969922 -0.26436865 0.2542232 0.18972732 0.057039727 0.27951333 0.19492978
0.30378518 0.08150864 -0.22218998 -0.3792948 -0.3026796 -0.03628721 -0.32595643 0.35479915
-0.09259639 0.28489676 -0.2397835 -0.26472706 0.1364622 -0.32290494 0.08773922 0.2651589
0.31947592 -0.24123023 0.026159512 -0.2953236 0.21109429 0.049309034 0.21144466 0.32776946
-0.30263677 -0.06244295 0.15018672 -0.17406295 -0.08257147 0.13892317 -0.31578937 -0.26247987
0.030281931 0.10066325 0.14975765 0.08004197 -0.09816809 0.32381538 -0.24251866 -0.17274554
-0.15973724 0.3287879 -0.18792474 -0.24406499 -0.318241 0.4617254 0.11839079 -0.2781105
-0.013174019 0.06315254 -0.1525076 -0.03128915 0.0057132524 -0.090379864 -0.1465388 -0.3704848
0.12946759 0.1501301 -0.4634895 -0.055414893 0.1680538 0.2562892 -0.18793485 -0.14907558
-0.40877962 -0.21478209 -0.35569456 0.024893451 -0.23643072 -0.07537271 -0.25910237 0.028740212
0.1604432 -0.14982863 0.07264222 0.13525721 0.06334974 0.20729193 -0.43786916 -0.1607302
-0.11262512 -0.17112449 -0.31064308 0.16958709 0.11912564 0.16553795 -0.24973825 -0.058504693
-0.25074148 -0.5457697 0.13070291 -0.43915403 -0.038964838 -0.07374088 -0.1655714 -0.66073334
-0.11517734 0.26928294 -0.3706741 0.33545002 0.03527224 -0.392419 -0.21314168 0.3303707
-0.22678216 -0.07739683 -0.056647908 -0.13893245 0.28061792 -0.18814974 -0.21501338 -0.12789866
-0.3010145 -0.29164773 -0.2869205 -0.20350772 0.053622533 0.011894829 -0.2888496 -0.27097094
-0.2501972 -0.23074304 0.13567112 -0.047328968 -0.17729932 -0.40464997 -0.13013238 0.048116956
0.005772077 0.1159748 0.44535798 -0.07575735 -0.42031753 0.24063915 -0.19769922 0.26352856
-0.25148714 0.072679006 0.17472436 -0.13668574 -0.36509562 0.312106
00000000: a5de e93d 3188 233e 545b 87be 8b29 823e
00000010: e147 423e 7da2 693d 5f1c 8f3e ac9b 473e
00000020: bb89 9b3e 00ee a63d c585 63be ee32 c2be
00000030: d2f8 9abe e6a1 14bd c3e3 a6be 3ca8 b53e
00000040: 2da3 bdbd fddd 913e ce89 75be 4e8a 87be
00000050: bfbc 0b3e cc53 a5be 9fb0 b33d e8c2 873e
00000060: 5992 a33e 0f05 77be 794c d63c a834 97be
00000070: 1a29 583e 45f8 493d f384 583e 66d1 a73e
00000080: 35f3 9abe 2ec4 7fbd 8cca 193e 8f3d 32be
00000090: 3b1b a9bd e041 0e3e 25af a1be c363 86be
000000a0: d011 f83c 8928 ce3d 125a 193e 0bed a33d
000000b0: 5a0c c9bd 21cb a53e d056 78be 35e4 30be
000000c0: 2992 23be e356 a83e 586f 40be 2cec 79be
000000d0: 7cf0 a2be 4667 ec3e df76 f23d 8064 8ebe
000000e0: d7d7 57bc 1e56 813d f42a 1cbe 0d29 00bd
000000f0: 3c36 bb3b 1419 b9bd 440e 16be 2fb0 bdbe
00000100: 2793 043e b4bb 193e 7f4e edbe bafa 62bd
00000110: 4c16 2c3e 5738 833e fe71 40be 45a7 18be
00000120: 904b d1be d6ef 5bbe 991d b6be 5aed cb3c
00000130: e51a 72be 025d 9abd 11a9 84be 9870 eb3c
00000140: 394b 243e ad6c 19be 72c5 943d de80 0a3e
00000150: 82bd 813d 5644 543e 6330 e0be 7596 24be
00000160: 00a8 e6bd 423b 2fbe 9c0c 9fbe 3da8 2d3e
00000170: 25f8 f33d c882 293e 62bb 7fbe 9ea2 6fbd
00000180: 3061 80be 90b7 0bbf fcd6 053e ccd8 e0be
00000190: 9899 1fbd 7505 97bd 8d8b 29be d225 29bf
000001a0: 19e2 ebbd 74df 893e ffc8 bdbe 1bc0 ab3e
000001b0: a079 103d 25eb c8be d041 5abe 5926 a93e
000001c0: 9539 68be 3b82 9ebd a307 68bd 4f44 0ebe
000001d0: 27ad 8f3e 53aa 40be 782c 5cbe def7 02be
000001e0: 931e 9abe da52 95be 3ee7 92be 5464 50be
000001f0: 4da3 5b3d 87e2 423c 18e4 93be b4bc 8abe
00000200: d919 80be e747 6cbe 5fed 0a3e 05dc 41bd
00000210: f48d 35be 482e cfbe 6c41 05be 4916 453d
00000220: b123 bd3b 3284 ed3d f605 e43e ab26 9bbd
00000230: dc33 d7be 1c6a 763e aa71 4abe 37ed 863e
00000240: ecc2 80be bbd8 943d f1ea 323e 59f7 0bbe
00000250: d0ed babe 5ccc 9f3e

relational_model.layers.2.weight f4 [150, 150]
0.07913435 -0.12035969 -0.01120509 0.0008087679 0.106457636 -0.0024688218 -0.13758288 -0.09898014
0.12019965 -0.07618824 0.2321798 -0.06298059 -0.2768115 -0.021125033 -0.041626863 -0.11908137
-0.018792989 0.08437681 -0.019568913 -0.0895125 0.158196 -0.03891653 0.16115732 -0.10397673
0.015488882 0.04450565 0.0130297765 -0.12848923 0.031903375 0.01890546 0.041577175 0.058209147
-0.0606292 0.151962 -0.06573536 -0.04517288 -0.016789235 -0.18733807 -0.06720013 0.12456828
-0.060969863 -0.1305899 -0.0018675212 -0.07965388 0.029189514 -0.0879148 0.22347386 0.28203452
-0.028952086 -0.028970491 0.0013285294 -0.0084250895 -0.21631168 -0.010649313 -0.03255089 -0.03491721
0.15140773 -0.012494876 -0.010438891 -0.0021443327 -0.19588925 0.397117 -0.10785952 0.27111292
0.042903982 -0.01441863 0.35006613 -0.041233778 0.040483642 -0.024044998 0.020790461 0.040783957
0.075918965 -0.50842744 0.053047106 -0.005491306 -0.07461765 -0.26624647 -0.034908682 0.026005423
0.03472253 -0.15706156 -0.14865972 0.0013493956 -0.084449574 -0.15398099 -0.2827587 -0.075379066
0.78252727 -0.016842587 -0.2531767 0.015833097 0.07554015 0.13715534 0.1968215 -0.17752403
0.22853447 0.20510843 -0.009980689 0.10105393 0.07527513 0.30328932 -0.113983996 0.35254514
-0.058654927 -0.008152429 0.07118397 -0.11047146 0.05967933 0.07094243 -0.0047718408 0.02170117
0.04590717 -0.17312832 -0.20628658 0.09691557 0.06702301 0.111364596 0.12695634 -0.35346898
0.016201045 0.12256876 0.044429816 -0.04985712 -0.124901734 0.06701886 -0.122731045 -0.018194556
-0.060748264 0.044156227 0.06988196 -0.016319318 0.068670936 -0.025720898 -0.035505343 -0.09555872
0.012365666 0.35814494 -0.028475367 -0.8716035 -0.016544191 0.0075180233 -0.042462528 -0.17033009
-0.2567198 0.07017742 -0.3642356 -0.12177938 0.090823315 0.04618396 0.018269904 -0.1348828
0.36901245 -0.07003472 0.047251243 0.050474342 -0.20186229 0.026865767 -0.07130575 -0.066009864
-0.061321136 -0.0074322564 0.17845508 -0.0011673006 -0.17611203 -0.07915135 0.10846575 -0.059807397
0.04507655 0.047280174 0.03164216 0.045820523 0.1764091 -0.16477369 -0.05274975 0.050617337
0.066117465 0.09690875 -0.0025522267 -0.20245816 0.02711002 -0.048607647 0.10408026 -0.16835509
-0.08817175 -0.10429026 0.032294292 0.021136248 0.064086474 0.103533156 -0.06388157 -0.063431226
0.10642138 -0.022717819 -0.11905666 -0.066146664 0.017822877 0.07819512 0.089349255 -0.17363155
0.051747434 -0.12599905 0.16840768 -0.004902087 0.02589151 0.06161219 -0.031438906 -0.21242318
-0.033865467 0.068573035 0.0030464486 0.12130908 -0.3168445 -0.024540769 0.026389636 -0.048820943
-0.44496962 -0.04579743 -0.014582424 -0.010894888 -0.03413761 0.03907512 0.023165103 -0.17379773
-0.10741703 -0.041751392 0.0006347303 -0.28807366 -0.04220076 0.0043180184 -0.006280324 0.10192188
-0.075905606 -0.045182582 0.055300623 0.09865897 0.36716112 0.13158044 0.56067646 0.102151014
-0.040116105 -0.081871964 -0.011536553 0.2702739 0.10790049 -0.32623813 0.037383627 -0.62954164
-0.06721114 -0.002464856 0.11001195 0.045660138 -0.007093827 0.04002069 -0.13552986 0.044244435
00000000: 3111 a23d 247f f6bd 8e95 37bc 7f03 543a
00000010: 7606 da3d f5cb 21bb 87e2 0cbe 1ab6 cabd
00000020: 3c2b f63d 9408 9cbd 8bc0 6d3e f8fb 80bd
00000030: 3dba 8dbe 680e adbc ee80 2abd efe0 f3bd
00000040: c1f3 99bc c0cd ac3d fc4e a0bc 5452 b7bd
00000050: 22fe 213e f066 1fbd 6d06 253e c0f1 d4bd
00000060: 14c5 7d3c 8e4b 363d d87a 553c ae92 03be
00000070: 1dad 023d a0df 9a3c d44c 2a3d b76c 6e3d
00000080: 5356 78bd ed9b 1b3e 43a0 86bd 3307 39bd
00000090: 9489 89bc 8dd5 3fbe 39a0 89bd a81d ff3d
000000a0: 89bb 79bd 5cb9 05be 9dc7 f4ba 9321 a3bd
000000b0: d91e ef3c ad0c b4bd 55d6 643e d466 903e
000000c0: ed2c edbc 8653 edbc 0d22 ae3a 6309 0abc
000000d0: cf80 5dbe 757a 2ebc 1554 05bd 5905 0fbd
000000e0: a10a 1b3e 4fb7 4cbc e207 2bbc ef87 0cbb
000000f0: 3197 48be eb52 cb3e 74e5 dcbd 50cf 8a3e
00000100: 16bc 2f3d 1e3c 6cbc de3b b33e c0e4 28bd
00000110: 2dd2 253d 04fa c4bc c250 aa3c 140d 273d
00000120: 677b 9b3d 4d28 02bf ec47 593d 6af0 b3bb
00000130: 23d1 98bd 7551 88be 68fc 0ebd 5309 d53c
00000140: 3639 0e3d bfd4 20be 413a 18be 34de b03a
00000150: e6f3 acbd 31ad 1dbe c0c5 90be 5760 9abd
00000160: b553 483f 77f9 89bc 60a0 81be 69b4 813c
00000170: cbb4 9a3d 7372 0c3e 938b 493e dcc8 35be
00000180: f104 6a3e f207 523e 0b86 23bc 5df5 ce3d
00000190: d929 9a3d bd48 9b3e 7170 e9bd cc80 b43e
000001a0: 2640 70bd c491 05bc e7c8 913d dc3e e2bd
000001b0: 5072 743d 444a 913d 1a5d 9cbb a7c6 b13c
000001c0: 2809 3c3d 8d48 31be ca3c 53be ac7b c63d
000001d0: 5c43 893d 1f13 e43d d800 023e e3f9 b4be
000001e0: 0eb8 843c 5405 fb3d 0afc 353d fb36 4cbd
000001f0: 7bcc ffbd 2f41 893d 6a5a fbbd c00c 95bc
00000200: 2cd3 78bd 29dd 343d 461e 8f3d 17b0 85bc
00000210: 59a3 8c3d a2b4 d2bc 0d6e 11bd 4ab4 c3bd
00000220: 5d99 4a3c c65e b73e 2c45 e9bc 6821 5fbf
00000230: af87 87bc c059 f63b 30ed 2dbd 036b 2ebe
00000240: c770 83be 2eb9 8f3d 177d babe 7867 f9bd
00000250: 9301 ba3d 642b 3d3d c4aa 953c b71e 0abe
00000260: 33ef bc3e 5d6e 8fbd 858a 413d 2fbe 4e3d
00000270: fdb4 4ebe 9915 dc3c c008 92bd 2e30 87bd
00000280: df2b 7bbd 498a f3bb eebc 363e 1c00 99ba
00000290: b656 34be 1a1a a2bd 4b23 de3d 9af8 74bd
000002a0: 30a2 383d dba8 413d 369b 013d 4dae 3b3d
000002b0: 96a4 343e 6fba 28be 1f10 58bd 2054 4f3d
000002c0: 9868 873d 1878 c63d 4243 27bb 3151 4fbe
000002d0: d515 de3c d018 47bd 0828 d53d 4765 2cbe
000002e0: 6493 b4bd 2296 d5bd 0547 043d ed25 ad3c
000002f0: c53f 833d 3109 d43d 57d4 82bd 3be8 81bd
00000300: 74f3 d93d b81a babc fad3 f3bd e777 87bd
00000310: 4801 923c c324 a03d befc b63d 78cc 31be
00000320: 1ef5 533d e505 01be 1073 2c3e b0a1 a0bb
00000330: 6f1a d43c 105d 7c3d 15c6 00bd 7685 59be
00000340: 84b6 0abd 0570 8c3d eda6 473b e570 f83d
00000350: 7139 a2be b909 c9bc 142f d83c 78f8 47bd
00000360: 0fd3 e3be 1696 3bbd 1feb 6ebc 7980 32bc
00000370: e1d3 0bbd 3c0d 203d bec4 bd3c 08f8 31be
00000380: 76fd dbbd 8203 2bbd 0864 263a 647e 93be
00000390: b4da 2cbd 2a7e 8d3b 2dcb cdbb 6bbc d03d
000003a0: 6674 9bbd 5f11 39bd e882 623d b70d ca3d
000003b0: 8bfc bb3e 06bd 063e 7e88 0f3f 8d34 d13d
000003c0: c950 24bd 7dac a7bd cf03 3dbc 5761 8a3e
000003d0: effa dc3d af08 a7be 931f 193d a429 21bf
000003e0: ffa5 89bd 6c89 21bb f24d e13d 2006 3b3d
000003f0: 5573 e8bb bcec 233d 57c8 0abe a739 353d

relational_model.layers.2.bias f4 [150]
-0.0319303 -0.1027005 -0.060812205 0.13269849 0.021119399 0.02398387 0.024845451 -0.08058494
0.025052879 -0.04924329 0.14336123 -0.006758024 -0.10291369 -0.07690697 0.0654644 -0.06350147
0.11686568 -0.085534714 0.015932636 0.09062842 0.08959628 0.014633586 0.10878981 -0.10215329
0.013123677 -0.0015270003 -0.11532538 -0.0088867545 -0.061300017 0.020125039 -0.07614265 0.031362757
-0.12891525 -0.048514057 0.04612965 0.11459422 0.040673725 0.0015856893 -0.047564384 0.10558539
0.052901484 0.124450944 0.033052072 -0.08278148 -0.08334353 -0.076875396 -0.06285697 0.06514034
-0.081556186 0.07061226 -0.08815391 0.09758934 0.01252348 0.108799145 -0.03504159 -0.04877959
-0.01033398 0.06919582 -0.07635075 -0.023881033 0.042725276 -0.035441432 0.041522983 -0.057102248
-0.010772994 4.6725807e-05 -0.04127884 -0.080968186 0.039013483 -0.07888573 -0.14281268 -0.07565535
0.15639019 -0.051719032 0.04186423 -0.048827805 -0.055405024 -0.09019565 0.026462452 0.036319256
0.09642822 0.14428039 -0.072333634 0.020859765 -0.0071285334 -0.039365422 -0.010394601 0.035085913
-0.10726106 0.10633381 0.07475489 0.042069267 -0.023393432 0.09392386 0.00441659 -0.020653496
0.03605733 -0.020922711 0.04382544 -0.0879491 0.09221267 0.047042158 0.05630549 -0.038162157
-0.055544496 -0.054656215 0.0027431927 -0.08393688 0.065561734 0.09735376 -0.10463093 0.053625666
0.1108759 0.045793056 -0.081329875 -0.014103191 -0.059286725 0.021566391 0.01459352 0.19284126
-0.06959263 0.048938513 -0.054584827 -0.017927872 0.09708305 0.052180365 -0.09840131 0.06478916
0.035074793 0.055886365 -0.018231848 -0.064677134 0.10994189 -0.073337734 0.038146712 0.10461068
0.006413378 -0.042707976 -0.04887576 0.060955804 -0.017784052 0.030204507 0.0026247967 -0.013012076
0.06799271 0.032376245 0.0703995 0.02836096 -0.078055814 -0.031808883
00000000: 59c9 02bd a454 d2bd 3816 79bd 1de2 073e
00000010: 9702 ad3c d279 c43c b088 cb3c b809 a5bd
00000020: b23b cd3c 55b3 49bd 49cd 123e 6a72 ddbb
00000030: 6ac4 d2bd 6781 9dbd 3312 863d 0f0d 82bd
00000040: 4657 ef3d d32c afbd 2985 823c 659b b93d
00000050: 417e b73d b5c1 6f3c 31cd de3d be35 d1bd
00000060: b104 573c a125 c8ba b62f ecbd c099 11bc
00000070: ba15 7bbd 44dd a43c adf0 9bbd 3c76 003d
00000080: 5c02 04be adb6 46bd 72f2 3c3d 60b0 ea3d
00000090: 7e99 263d e7d6 cf3a dfd2 42bd 273d d83d
000000a0: 3aaf 583d 23e0 fe3d 9c61 073d 5689 a9bd
000000b0: 03b0 aabd d970 9dbd 28bb 80bd 4c68 853d
000000c0: ee06 a7bd 299d 903d 0a8a b4bd ebdc c73d
000000d0: 482f 4d3c 16d2 de3d c587 0fbd 1bcd 47bd
000000e0: db4f 29bc 8ab6 8d3d c85d 9cbd 28a2 c3bc
000000f0: b300 2f3d 092b 11bd 0114 2a3d 0ce4 69bd
00000100: 3681 30bc 74fb 4338 0014 29bd a6d2 a5bd
00000110: 9acc 1f3d d78e a1bd 7d3d 12be 31f1 9abd
00000120: c024 203e 56d7 53bd d479 2b3d aaff 47bd
00000130: 61f0 62bd 7fb8 b8bd c9c7 d83c 80c3 143d
00000140: 297c c53d 3dbe 133e a823 94bd 19e2 aa3c
00000150: 7996 e9bb a33d 21bd 1e4e 2abc 3fb6 0f3d
00000160: b0ab dbbd 8ac5 d93d 1719 993d d350 2c3d
00000170: 95a3 bfbc 275b c03d 0bb9 903b 8531 a9bc
00000180: dab0 133d 1b66 abbc 4e82 333d a81e b4bd
00000190: ffd9 bc3d 47af 403d 96a0 663d ec4f 1cbd
000001a0: a082 63bd 32df 5fbd 23c7 333b 19e7 abbd
000001b0: 3b45 863d 6861 c73d be48 d6bd 96a6 5b3d
000001c0: e712 e33d 8091 3b3d 4790 a6bd 1211 67bc
000001d0: a3d6 72bd 00ac b03c a919 6f3c 2e78 453e
000001e0: 9586 8ebd c073 483d 5794 5fbd 79dd 92bc
000001f0: 7ad3 c63d 14bb 553d a086 c9bd 2eb0 843d
00000200: 96aa 0f3d 1ae9 643d f55a 95bc 7275 84bd
00000210: 3729 e13d 1832 96bd ba3f 1c3d 203e d63d
00000220: 5027 d23b 8fee 2ebd f331 48bd cbac 793d
00000230: dcaf 91bc 716f f73c c804 2c3b 9a30 55bc
00000240: c33f 8b3d f49c 043d 9d2d 903d 3e55 e83c
00000250: badb 9fbd 084a 02bd

relational_model.layers.4.weight f4 [150, 150]
0.0015426072 -0.09881142 -0.06203277 -0.02077882 0.03807375 -0.06465986 0.005959112 -0.033418514
0.062442854 -0.003484979 0.0003001688 0.069408685 0.03395026 -0.013181655 0.022718268 0.015467397
-0.03537733 0.015989684 -0.031052345 -0.06281858 -0.08661721 -0.057926394 -0.07223816 0.041337293
0.008612021 -0.050281703 -0.051856313 0.06513352 -0.06870207 -0.018045893 0.0016283989 0.028375447
-0.04431909 -0.05123686 0.057470262 -0.06291236 -0.06457084 0.059774548 0.0467716 -0.06515514
-0.028836057 -0.055608265 -0.073843755 -0.054169387 0.024591748 -0.029033424 -0.06886918 -0.010412097
-0.07761072 0.059849188 0.047409117 0.03536378 0.07641494 0.05018677 0.08281921 0.03352119
0.013995581 -0.085488684 0.078341916 0.061186653 -0.07791988 0.08135754 -0.07796261 -0.028110744
-0.03567496 0.045890186 0.057225198 0.071673036 0.032499205 -0.06505512 0.05144276 0.008718656
-0.07061371 -0.055210646 -0.05289003 0.032938562 0.013453083 -0.022417147 0.009597756 -0.06497955
0.028654812 0.04130916 -0.010139621 0.025630057 -0.031541064 0.06109564 -0.05662229 -0.07037079
-0.074465916 -0.0023393745 0.00975221 0.06568007 0.013835323 0.07785935 -0.06355446 0.03996178
0.036851346 -0.050771557 0.01128668 -0.05698747 0.0010639419 0.06434739 0.047817614 -0.053634237
0.019381324 -0.026578054 -0.07421402 0.032755215 -0.04368269 0.07392711 -0.08274864 0.01367334
-0.022784756 0.05034981 -0.013392274 -0.043328702 -0.07673366 0.024707623 -0.035624404 0.041043364
0.012598529 -0.036176752 0.061873645 0.0128030125 0.052777056 0.059191134 -0.076573916 -0.056434654
-0.06531366 0.03099858 -0.062990025 -0.013613328 -0.047780007 -0.06294941 -0.031538155 -0.06357906
-0.052874565 0.045333844 0.00023546036 -0.05562787 -0.07459726 -0.036115218 0.03412215 -0.067792065
0.056104034 -0.07827963 -0.055873413 0.015984729 -0.03429715 0.04446575 0.09101627 0.022511682
0.17073724 0.04582276 0.37793136 0.015608148 -0.1844546 -0.07100807 0.07663362 0.09950247
-0.35436538 -0.07211635 0.085785754 0.034306224 -0.027925057 -0.049870834 -0.1846993 -0.04933727
-0.08960818 -0.25063485 -0.21042347 0.015322763 0.14397126 0.087792605 0.015814355 0.006862858
0.106862105 -0.0034873784 0.10529002 -0.073449805 0.058135882 0.02553032 -0.042861003 0.07560482
0.06252037 -0.0689383 0.012368888 -0.019174326 0.042230338 -0.032941867 0.046573333 0.063506514
0.030074306 -0.08550347 0.035440624 0.072462 -0.045286104 -0.33945265 0.48966813 -0.19150811
0.06100871 -0.09922697 0.016414052 -0.025541956 0.045948826 0.049960915 0.07858993 -0.014573202
0.07427345 0.1465609 0.005603377 -0.02302868 -0.23797294 0.012780305 -0.0010556397 0.07000203
-0.042539455 -0.06604414 0.035269056 0.04893723 0.13069364 0.5766602 0.089436755 0.010438955
-0.14336473 -0.034732528 0.018800482 0.06961788 0.009737575 0.6072487 0.0013891434 -0.02145867
-0.003551935 0.07662527 0.05787386 0.101592146 -0.09754117 -0.03824582 0.0002081336 0.022001669
0.1854927 -0.07180187 -0.02733601 -0.2344288 -0.11443892 -0.063201584 0.046661854 0.02825471
0.00820542 0.05487655 -0.13452321 -0.036263008 0.21046796 -0.0519 0.10973139 0.04643743
00000000: 4f31 ca3a a45d cabd 1316 7ebd 5838 aabc
00000010: 38f3 1b3d 646c 84bd a844 c33b dae1 08bd
00000020: 14c4 7f3d 3f64 64bb f95f 9d39 2426 8e3d
00000030: 6e0f 0b3d def7 57bc a91b ba3c f76a 7d3c
00000040: d2e7 10bd ccfc 823c 7d61 febc 07a7 80bd
00000050: 5d64 b1bd 3a44 6dbd 9af1 93bd 4b51 293d
00000060: 6f19 0d3c 30f4 4dbd 4967 54bd b964 853d
00000070: acb3 8cbd fbd4 93bc 0070 d53a a073 e83c
00000080: ef87 35bd bedd 51bd f065 6b3d 32d8 80bd
00000090: b73d 84bd 28d6 743d 9493 3f3d 0f70 85bd
000000a0: 9839 ecbc 7ec5 63bd 653b 97bd b8e0 5dbd
000000b0: a274 c93c 81d7 edbc 490b 8dbd 8097 2abc
000000c0: 5ff2 9ebd 6c24 753d 1030 423d 9cd9 103d
000000d0: 707f 9c3d a490 4d3d 1e9d a93d 844d 093d
000000e0: b94d 653c b114 afbd ba71 a03d db9e 7a3d
000000f0: 7594 9fbd c89e a63d dcaa 9fbd 8148 e6bc
00000100: e81f 12bd 59f7 3b3d f864 6a3d 50c9 923d
00000110: e31d 053d 9e3b 85bd a5b5 523d b2d8 0e3c
00000120: ec9d 90bd 8f24 62bd 37a3 58bd 96ea 063d
00000130: 526a 5c3c 2aa4 b7bc e83f 1d3c 0014 85bd
00000140: 7fbd ea3c cb33 293d a720 26bc 20f6 d13c
00000150: 3431 01bd 6c3f 7a3d c6ec 67bd 901e 90bd
00000160: 9681 98bd 3150 19bb bcc7 1f3c 4683 863d
00000170: 8dad 623c b974 9f3d d728 82bd f7ae 233d
00000180: 70f1 163d d6f5 4fbd c4eb 383c b16b 69bd
00000190: f773 8b3a 90c8 833d 67dc 433d 93af 5bbd
000001a0: 95c5 9e3c 38ba d9bc 85fd 97bd 552a 063d
000001b0: 9fec 32bd 1967 973d 1e78 a9bd 2506 603c
000001c0: 19a7 babc 9a3b 4e3d 456b 5bbc 7079 31bd
000001d0: 8a26 9dbd a467 ca3c e5ea 11bd 161d 283d
000001e0: 106a 4e3c 132e 14bd 386f 7d3d bac3 513c
000001f0: c12c 583d 6772 723d c9d2 9cbd 0628 67bd
00000200: 2bc3 85bd bcf0 fd3c ea00 81bd 700a 5fbc
00000210: f8b4 43bd 9feb 80bd 272e 01bd bd35 82bd
00000220: 0093 58bd fbaf 393d e9e5 7639 0dda 63bd
00000230: 73c6 98bd 8ded 13bd abc3 0b3d 91d6 8abd
00000240: 58cd 653d 1251 a0bd 85db 64bd 68f2 823c
00000250: 2b7b 0cbd b821 363d bd66 ba3d 6b6a b83c
00000260: bed5 2e3e a5b0 3b3d 3880 c13e 51b9 7f3c
00000270: abe1 3cbe ae6c 91bd 16f2 9c3d f3c7 cb3d
00000280: 616f b5be bdb1 93bd 71b0 af3d af84 0c3d
00000290: 17c3 e4bc 5c45 4cbd d021 3dbe e115 4abd
000002a0: 7e84 b7bd 3653 80be 4079 57be 530c 7b3c
000002b0: 346d 133e 9ccc b33d 1b8d 813c d3e1 e03b
000002c0: 85da da3d 808c 64bb 4ba2 d73d da6c 96bd
000002d0: e41f 6e3d f624 d13c 058f 2fbd b3d6 9a3d
000002e0: ae0a 803d 862f 8dbd e0a6 4a3c 7a13 9dbc
000002f0: b8f9 2c3d 0dee 06bd aec3 3e3d b40f 823d
00000300: 645e f63c 711c afbd 302a 113d f566 943d
00000310: ec7d 39bd bdcc adbe c8b5 fa3e b41a 44be
00000320: 45e4 793d 8237 cbbd c376 863c 5d3d d1bc
00000330: d634 3c3d d1a3 4c3d c2f3 a03d 70c4 6ebc
00000340: ae1c 983d 1014 163e 889c b73b a4a6 bcbc
00000350: 2eaf 73be 7c64 513c 645d 8aba 395d 8f3d
00000360: da3d 2ebd 2642 87bd 4976 103d 6872 483d
00000370: 8ed4 053e 01a0 133f 9e2a b73d 2708 2b3c
00000380: 34ce 12be b243 0ebd 7803 9a3c d293 8e3d
00000390: 5a8a 1f3c a774 1b3f eb13 b63a 18ca afbc
000003a0: 95c7 68bb b6ed 9c3d 240d 6d3d 8b0f d03d
000003b0: aac3 c7bd a6a7 1cbd 703e 5a39 d83c b43c
000003c0: ccf1 3d3e dc0c 93bd c5ef dfbc 1a0e 70be
000003d0: f45e eabd d56f 81bd 8020 3f3d 6c76 e73c
000003e0: 0770 063c 3cc6 603d 74c0 09be 8588 14bd
000003f0: ea84 573e 1895 54bd daba e03d 2d35 3e3d

relational_model.layers.4.bias f4 [150]
-0.049261298 0.08076814 0.07944933 -0.08243991 -0.19487861 0.057494976 -0.049260266 -0.041631233
0.056929182 0.0579252 -0.02453214 0.071762934 -0.038817726 -0.08436743 0.09040483 -0.09141797
0.12569296 0.07088648 -0.1136705 0.12738155 0.053017046 -0.007075747 -0.029518431 -0.0592031
0.036457513 0.030593153 -0.11173094 -0.07009795 0.022515707 0.06947789 0.035883453 -0.094246835
-0.04230822 0.0073442357 -0.006549607 0.06621476 -0.053659547 0.054423098 0.054125726 0.1100735
0.11852299 0.0052124234 -0.02399153 0.017024113 0.019579243 -0.028214445 -0.016666425 0.11336658
-0.033215765 -0.015380573 -0.037089992 0.0906289 0.07148251 -0.049172282 -0.046642635 0.04236887
0.083461784 0.065457486 0.12605941 -0.04821558 -0.10433267 0.014105244 0.14403072 0.13015015
-0.09753674 -0.007631929 -0.006972106 -0.02030384 -0.024037642 0.039316103 0.10230408 0.06485515
0.06199652 -0.03196967 0.014001196 0.027992574 0.08538783 0.050106753 -0.19762999 0.048932943
0.13584493 -0.11133268 0.11534132 0.025514025 0.09634167 -0.09646474 -0.066661246 0.041375514
-0.09458316 0.119838275 0.09116979 0.04879414 -0.028427863 -0.016701821 0.13350868 0.048494745
-0.023232272 -0.041032083 0.046202935 -0.06292297 -0.014676331 0.047802154 0.14777239 0.04329528
-0.027194643 0.055309348 0.020061987 -0.07905374 0.06308509 0.0032550825 -0.041566014 -0.0908798
0.05352053 0.105498746 -0.09035704 -0.005000425 0.07583101 -0.0892344 -0.094332345 0.067623205
0.036356695 -0.030609228 -0.063783064 -0.06903296 0.008027183 -0.02933206 0.084626876 -0.103635795
0.00064609054 -0.10849241 -0.01833026 -0.07122715 -0.06120493 -0.029200519 -0.035522006 0.13127363
0.051834106 -0.1692731 -0.029782528 -0.03372707 0.059618276 0.043353543 -0.07536515 -0.123703994
0.06952327 -0.02073097 0.14678572 0.0641506 0.04161361 -0.08667524
00000000: 37c6 49bd c469 a53d 55b6 a23d 41d6 a8bd
00000010: 428e 47be da7f 6b3d 22c5 49bd 8385 2abd
00000020: 932e 693d f942 6d3d a0f7 c8bc 72f8 923d
00000030: 56ff 1ebd d5c8 acbd 2b26 b93d 5839 bbbd
00000040: a8b5 003e ee2c 913d 14cc e8bd 4f70 023e
00000050: 6728 593d abdb e7bb a3d0 f1bc f37e 72bd
00000060: 7954 153d 7e9e fa3c 31d3 e4bd 848f 8fbd
00000070: dc72 b83c 6d4a 8e3d 87fa 123d 7c04 c1bd
00000080: 624b 2dbd eaa7 f03b 169e d6bb 9b9b 873d
00000090: 1dca 5bbd c1ea 5e3d f0b2 5d3d 376e e13d
000000a0: 2ebc f23d facc aa3b e389 c4bc 2776 8b3c
000000b0: a664 a03c fb21 e7bc 0788 88bc bd2c e83d
000000c0: 410d 08bd cdfe 7bbc adeb 17bd a59b b93d
000000d0: 6c65 923d e068 49bd 590c 3fbd fb8a 2d3d
000000e0: 03ee aa3d 930e 863d b815 013e b37d 45bd
000000f0: 5eac d5bd ae19 673c ca7c 133e 1546 053e
00000100: 58c1 c7bd 4315 fabb 4476 e4bb 3d54 a6bc
00000110: 97ea c4bc ec09 213d cd84 d13d c7d2 843d
00000120: 10f0 7d3d a1f2 02bd 4665 653c af50 e53c
00000130: d1df ae3d bd3c 4d3d 845f 4abe e96d 483d
00000140: ef1a 0b3e 6302 e4bd 1238 ec3d ca02 d13c
00000150: c84e c53d 4e8f c5bd b185 88bd 5f79 293d
00000160: d1b4 c1bd c56d f53d 3ab7 ba3d 5ddc 473d
00000170: 8de1 e8bc 42d2 88bc 80b6 083e 6da2 463d
00000180: 9b51 bebc 4211 28bd 4a3f 3d3d c2dd 80bd
00000190: fe74 70bc 31cc 433d a551 173e 6456 313d
000001a0: 4dc7 debc 0e8c 623d 0959 a43c ede6 a1bd
000001b0: c132 813d 3953 553b 2041 2abd 301f babd
000001c0: 5838 5b3d ba0f d83d 1d0d b9bd 9bda a3bb
000001d0: 4a4d 9b3d 86c0 b6bd 5131 c1bd 097e 8a3d
000001e0: c2ea 143d 34c0 fabc b2a0 82bd 2761 8dbd
000001f0: 7284 033c ca49 f0bc db50 ad3d 013f d4bd
00000200: 675e 293a 4531 debd 5729 96bc 8adf 91bd
00000210: 05b2 7abd ed35 efbc 867f 11bd 986c 063e
00000220: 0050 543d ed55 2dbe 7dfa f3bc 6525 0abd
00000230: 4b32 743d 7c93 313d 0b59 9abd 8558 fdbd
00000240: 3762 8e3d ffd3 a9bc ff4e 163e 6461 833d
00000250: 0873 2a3d ca82 b1bd

relational_model.layers.6.weight f4 [1, 150]
-0.014382475 -0.11150824 0.28276983 0.038589265 0.799456 -1.1244866 -0.1599901 0.16921696
-0.3941916 -0.3382169 -1.2686741 0.09517671 0.07304465 -0.021452926 -0.17835175 0.012572166
0.32266054 0.19359699 -0.015312007 -1.232172 0.29045442 -0.35956204 -1.056196 0.06917708
0.2655774 -0.2779453 0.018022396 -0.15410209 0.4537758 -1.6461614 -0.5663286 -0.004513912
0.016957643 -0.12765019 0.19984123 0.16393664 -0.17876664 -0.15555874 0.18643755 0.29453146
0.21989729 -0.93042654 -0.4347716 -0.15598047 -0.17868379 0.00671788 -0.33580902 0.20480105
-0.5180095 0.11442791 -0.26139233 0.5212271 0.2050064 -0.6937543 -0.70322233 0.35111734
0.18774256 0.036902033 0.22906199 -0.7473085 -0.0016372942 -0.20159408 0.31760326 0.504699
0.005308697 -0.6540161 0.17052436 -0.50864357 0.056592133 0.13903154 0.22602136 -0.16339692
-0.014113385 -0.45200703 0.15356207 -0.79958934 0.31000048 -0.85803884 0.524303 0.22951552
0.27705422 0.021037256 0.2469799 -0.564863 0.32940084 0.0240442 -0.2748388 -0.20894857
0.08561769 0.33271417 0.23296154 0.1317058 -0.5992011 -0.41245252 0.43821022 -0.14741647
0.012341825 -0.16537374 -0.16818659 -0.014795881 0.19002566 0.19311845 0.49238276 -0.0082888575
-0.050030794 -0.44558313 -0.005881416 0.72752964 -0.15789561 0.16441402 0.23420659 -0.05096206
0.15489414 0.18926819 -0.7051888 -0.5276264 0.38488105 0.023598133 0.0006867947 -0.5270525
0.28621286 0.1721394 -0.27861643 -0.015416118 -0.046337586 -0.46917275 -0.53577554 0.013819228
-0.064090386 0.039286047 -0.010110963 0.11655068 -0.7644658 -0.2129221 -0.22443816 0.48517284
-0.49103278 0.47762752 0.17882107 0.68610406 0.20146166 -0.47925907 0.0639866 -0.015278578
0.15696445 -0.1473525 0.32838985 -0.20356417 0.38803673 -0.063839346
00000000: 79a4 6bbc 6f5e e4bd 35c7 903e c70f 1e3d
00000010: 26a9 4c3f 2def 8fbf 72d4 23be 3647 2d3e
00000020: 7bd3 c9be c42a adbe ea63 a2bf 02ec c23d
00000030: 6f98 953d 0cbe afbc d7a1 36be 7cfb 4d3c
00000040: c333 a53e 4a3e 463e 36df 7abc d0b7 9dbf
00000050: 71b6 943e 8418 b8be 6e31 87bf b7ac 8d3d
00000060: c3f9 873e d94e 8ebe b4a3 933c f0cc 1dbe
00000070: 4d55 e83e 6bb5 d2bf e9fa 10bf 70e9 93bb
00000080: c1ea 8a3c bbb6 02be 2ea3 4c3e 02df 273e
00000090: 9a0e 37be ca4a 1fbe 7ce9 3e3e d4cc 963e
000000a0: c12c 613e 6f30 6ebf 629a debe 58b9 1fbe
000000b0: e2f8 36be a921 dc3b 29ef abbe 5eb7 513e
000000c0: 459c 04bf 2e59 ea3d 37d5 85be 246f 053f
000000d0: 33ed 513e e299 31bf 6106 34bf a7c5 b33e
000000e0: 963f 403e 9626 173d 3a8f 6a3e 9c4f 3fbf
000000f0: 7a9a d6ba ae6e 4ebe e59c a23e f433 013f
00000100: 94f4 ad3b 996d 27bf f09d 2e3e 7736 02bf
00000110: 27cd 673d 495e 0e3e 2572 673e 8651 27be
00000120: d43b 67bc 776d e7be 603f 1d3e e3b1 4cbf
00000130: 62b8 9e3e 6fa8 5bbf b938 063f 1e06 6b3e
00000140: 0dda 8d3e 5356 ac3c 4de8 7c3e dd9a 10bf
00000150: 3aa7 a83e 58f8 c43c acb7 8cbe 9df6 55be
00000160: 5458 af3d 8359 aa3e 788d 6e3e e3dd 063e
00000170: 3e65 19bf fa2c d3be 175d e03e 58f4 16be
00000180: 5e35 4a3c bc57 29be 1b39 2cbe 6c6a 72bc
00000190: 1696 423e d8c0 453e 9819 fc3e fdcd 07bc
000001a0: 17ed 4cbd 7923 e4be e5b8 c0bb 623f 3a3f
000001b0: 63af 21be 265c 283e dad3 6f3e 98bd 50bd
000001c0: 929c 1e3e 85cf 413e 4187 34bf 8612 07bf
000001d0: 210f c53e df50 c13c 030a 343a eaec 06bf
000001e0: 7e8a 923e 5045 303e d0a6 8ebe e393 7cbc
000001f0: 7bcc 3dbd 6937 f0be 9628 09bf 0b6a 623c
00000200: d241 83bd 68ea 203d 74a8 25bc 1fb2 ee3d
00000210: 08b4 43bf 4008 5abe 1ed3 65be 9368 f83e
00000220: a668 fbbe 988b f43e df1c 373e 84a4 2f3f
00000230: f74b 4e3e 7261 f5be 680b 833d 0053 7abc
00000240: 4abb 203e 93e3 16be b722 a83e 2073 50be
00000250: c0ac c63e 34be 82bd

object_model.layers.0.weight f4 [100, 4]
-0.013969243 -0.13958782 -0.123668194 -0.3006636 0.9287902 -0.0027928303 1.5294347 0.017807383
-0.6018606 0.31905288 0.5466443 0.34598312 0.18011437 0.014449768 2.644923 -1.5208292
0.0011498 0.119667426 -0.32535246 -0.29329446 -0.5196387 0.28196847 -0.29522708 -0.28882927
0.8808663 0.121605024 1.0839667 0.224203 -1.136043 0.02974258 0.34252262 0.104507886
0.5097428 0.34598708 0.35492745 -0.6501702 0.472819 0.099822074 -0.3409186 -0.44250417
-1.6568948 0.32991123 0.048592024 0.35184127 -0.9687319 -0.06195583 -0.16778082 0.22111015
-0.74424297 -0.01536432 0.9853028 -0.023625975 0.2578557 -0.07425182 0.66536546 -0.27854866
-0.19877262 0.076988585 0.2813979 0.2868211 -0.38334966 0.11451763 -0.3083315 -0.37109506
-0.66280633 -0.064896174 0.8356557 -0.23571779 0.41856164 0.13526124 1.3011988 0.21036482
0.3667662 0.32666975 0.4735252 0.14285617 -0.396735 -0.16456221 0.5960653 -0.22372355
0.16089453 0.0009433958 -1.4624622 -0.0024853759 0.25894895 -0.38783282 -0.64547175 0.37448233
-0.3816067 -0.17257985 0.6526396 -0.47114336 -0.8225757 -0.34941036 0.8290698 -0.0056740227
0.23458606 0.09449058 1.1077315 0.38037562 0.26303065 0.40560776 -0.3923995 -0.079868935
-1.2794831 0.34168482 -0.5917614 0.00016157258 1.3934635 -0.012565256 -1.3447953 -1.1959577
0.711535 0.09417294 -0.32525542 -0.6812093 0.4966746 -0.55120134 -0.6758328 -0.42110538
-0.16440582 -0.11523205 0.060174525 -0.38742417 -0.5449913 -0.2644322 0.63431275 -0.5666893
0.75101954 -0.23021257 0.8647885 0.11535687 -0.3804804 -0.23534948 0.10057014 -0.29047096
1.0633337 0.33152533 0.0007445055 0.097193725 0.5017167 -0.3002556 -1.3097419 0.2519744
-0.00057673454 0.19908959 -0.22607791 -0.46455258 0.12060505 -0.15668589 0.28725034 -0.15113646
0.123656124 -0.44754115 0.67206615 -0.4834761 -0.72473514 -0.12583767 0.9003367 -0.23522754
-0.036463078 -0.03625407 0.17121248 -0.40856308 0.49772802 -0.20386893 0.8846201 -0.02435744
0.67888117 -0.02743484 0.17986822 -0.41495734 0.7473282 -0.09581717 -0.89370894 0.15777625
-0.31545806 -0.2577795 -1.2180917 0.23576562 -0.49940643 -0.093790434 -1.4785783 -0.26824018
-0.35323888 0.077349484 0.29974788 -0.18498409 0.18456426 -0.025476404 -1.0116558 -0.15148385
-0.19648752 -0.11110899 1.0798517 0.19365254 0.24521449 -0.0055288654 -0.08784001 0.054532878
-0.3934142 -0.39622453 -0.55480105 -0.3057836 -0.37238127 0.37825942 -0.6692586 0.27450034
-0.27217233 -0.39361346 -0.21294636 -0.3071198 -0.21983173 -0.34661013 0.2790512 -0.15360165
0.7188123 0.0034491408 2.2574458 0.013407524 -0.074159324 -0.31537396 0.3258773 -0.46239865
-0.38767034 -0.24036469 -0.9853406 0.29404607 0.28878543 0.093307234 -0.71858656 0.3577401
-0.12546399 -0.32430685 -0.45951822 -0.14557447 0.19542205 0.3438021 1.7521976 -0.33990076
0.25117463 0.009343123 -1.5971266 -0.6102118 -0.022064127 0.12846005 -0.37259802 -0.5497535
-0.6794233 0.20333493 -0.8025226 0.10568091 -0.7240563 -0.035904218 0.06537608 0.15312111
00000000: 40df 64bc 1cf0 0ebe c045 fdbd 94f0 99be
00000010: 32c5 6d3f eb07 37bb 84c4 c33f cae0 913c
00000020: 8913 1abf e65a a33e e1f0 0b3f b324 b13e
00000030: e76f 383e b8be 6c3c 6b46 2940 88aa c2bf
00000040: e3b4 963a 3214 f53d 9994 a6be b12a 96be
00000050: 0b07 05bf 2c5e 903e 0128 97be 6ee1 93be
00000060: 7480 613f 0e0c f93d 6cbf 8a3f 7995 653e
00000070: db69 91bf b6a6 f33c 205f af3e 3b08 d63d
00000080: 817e 023f 3825 b13e 0db9 b53e 8e71 26bf
00000090: 5515 f23e 846f cc3d e28c aebe e88f e2be
000000a0: 2115 d4bf 20ea a83e 6e08 473d 8a24 b43e
000000b0: d0fe 77bf 65c5 7dbd bcce 2bbe b36a 623e
000000c0: b586 3ebf a1ba 7bbc ce3c 7c3f 438b c1bc
000000d0: aa05 843e 5711 98bd 6455 2a3f ee9d 8ebe
000000e0: 0d8b 4bbe 31ac 9d3d 6313 903e 37da 923e
000000f0: 6846 c4be 3888 ea3d a0dd 9dbe 2c00 bebe
00000100: adad 29bf 49e8 84bd 88ed 553f 0160 71be
00000110: b64d d63e ec81 0a3e af8d a63f e069 573e
00000120: c8c8 bb3e 4241 a73e e571 f23e e348 123e
00000130: da20 cbbe ff82 28be bc97 183f c917 65be
00000140: 89c1 243e 384e 773a f631 bbbf b0e1 22bb
00000150: f594 843e 0692 c6be a33d 25bf 26bc bf3e
00000160: f461 c3be c6b8 30be 6413 273f b439 f1be
00000170: 5294 52bf eae5 b2be eb3d 543f 27ed b9bb
00000180: 5437 703e 4784 c13d 25ca 8d3f 98c0 c23e
00000190: f4ab 863e d2ab cf3e 96e8 c8be 5392 a3bd
000001a0: 1ac6 a3bf 50f1 ae3e ad7d 17bf cf6b 2939
000001b0: 035d b23f 81de 4dbc 4122 acbf 2415 99bf
000001c0: 2827 363f bedd c03d e187 a6be bc63 2ebf
000001d0: 224c fe3e 881b 0dbf 6103 2dbf 209b d7be
000001e0: 005a 28be c8fe ebbd 9079 763d 765c c6be
000001f0: 8d84 0bbf a863 87be 5262 223f 8d12 11bf
00000200: d142 403f d8bc 6bbe c762 5d3f 3940 ec3d
00000210: 54ce c2be 74ff 70be b8f7 cd3d 9cb8 94be
00000220: 521b 883f b0bd a93e eb2a 433a 810d c73d
00000230: 8170 003f 1abb 99be 9fa5 a7bf ca02 813e
00000240: 0030 17ba 24de 4b3e f880 67be d6d9 edbe
00000250: c8ff f63d 4472 20be 7a12 933e 84c3 1abe
00000260: 6c3f fd3d 1d24 e5be 870c 2c3f 2e8a f7be
00000270: 3e88 39bf 97db 00be 777c 663f 7ddf 70be
00000280: 4f5a 15bd 267f 14bd 5352 2f3e 2e2f d1be
00000290: 35d6 fe3e 04c3 50be 7676 623f 4189 c7bc
000002a0: 28cb 2d3f 08bf e0bc 602f 383e 4a75 d4be
000002b0: e750 3f3f cb3b c4bd 1cca 64bf 1990 213e
000002c0: b883 a1be adfb 83be 6eea 9bbf 8b6c 713e
000002d0: 33b2 ffbe 3315 c0bd 0e42 bdbf c756 89be
000002e0: badb b4be 6869 9e3d 8e78 993e 786c 3dbe
000002f0: 6afe 3c3e e4b3 d0bc f07d 81bf 951e 1bbe
00000300: 0634 49be 1c8d e3bd 9538 8a3f da4c 463e
00000310: 8219 7b3e 7c2b b5bb 77e5 b3bd de5d 5f3d
00000320: 966d c9be f1dd cabe 7107 0ebf ab8f 9cbe
00000330: c2a8 bebe 38ab c13e 8854 2bbf 4f8b 8c3e
00000340: 2c5a 8bbe b487 c9be 9c0e 5abe ce3e 9dbe
00000350: 921b 61be e276 b1be cddf 8e3e c049 1dbe
00000360: 1504 383f fb0a 623b fe79 1040 3bab 5b3c
00000370: d8e0 97bd b278 a1be 64d9 a63e 84bf ecbe
00000380: ba7c c6be 2922 76be 483f 7cbf 358d 963e
00000390: afdb 933e dd17 bf3d 4af5 37bf b629 b73e
000003a0: a279 00be 8c0b a6be f945 ebbe 7911 15be
000003b0: b81c 483e d406 b03e 0348 e03f 7907 aebe
000003c0: f699 803e e613 193c a56e ccbf d736 1cbf
000003d0: d4bf b4bc 088b 033e 2bc5 bebe a5bc 0cbf
000003e0: afee 2dbf 0837 503e 1f72 4dbf 3c6f d83d
000003f0: c15b 39bf 4d10 13bd e5e3 853d c8cb 1c3e

object_model.layers.0.bias f4 [100]
-0.36606592 0.18335637 -0.15877993 0.12449384 0.19026598 -0.33198094 0.34895772 0.17515863
0.2502992 0.4148261 0.2942476 0.5052153 0.61276597 0.36127692 0.0014975014 -0.45571923
0.10700853 -0.088110015 -0.092012 -0.3070172 0.23948155 -0.041802198 0.30484468 0.291111
0.38576096 -0.5224913 -0.22291635 -0.12355481 0.15937792 -0.3190301 -0.3898126 -0.066386275
0.34759107 -0.40760523 -0.04559156 -0.2615126 -0.43256783 -0.39044154 -0.2691581 0.34272066
0.3610446 0.20796105 0.23934335 0.008787214 -0.19406861 0.16742146 -0.35841197 -0.26816845
0.14020899 0.15162154 -0.09282189 -0.091112636 -0.48713213 0.10390259 0.19851138 -0.48542392
-0.29058978 0.12503952 0.08112136 0.30971444 0.091945834 0.36139196 0.43418777 -0.12523712
-0.16886894 -0.29000357 -0.251037 0.3891256 -0.270309 0.08349417 0.36673164 -0.33678067
-0.46986786 -0.25352493 0.3187767 -0.5131055 -0.36404747 -0.2775353 0.29790875 -0.00778549
-0.30978888 0.22807188 0.0051872805 -0.37170938 -0.2601343 0.11830987 0.3673645 0.21339953
0.29269823 0.35065794 0.1692648 -0.49458498 0.011580827 0.04067227 -0.48970523 -0.056051992
0.39497632 -0.04906248 -0.14683314 -0.3597933
00000000: fe6c bbbe c6c1 3b3e 3597 22be a0f6 fe3d
00000010: 16d5 423e 68f9 a9be 96aa b23e c95c 333e
00000020: 3727 803e 1664 d43e 9fa7 963e ca55 013f
00000030: 3bde 1c3f 4af9 b83e cf47 c43a 0854 e9be
00000040: 4a27 db3d 0673 b4bd ca70 bcbd 5c31 9dbe
00000050: a73a 753e c838 2bbd 9a14 9c3e 800c 953e
00000060: 7682 c53e fdc1 05bf 2f44 64be 4e0a fdbd
00000070: f733 233e ea57 a3be 8495 c7be 87f5 87bd
00000080: 75f7 b13e a2b1 d0be 37be 3abd fbe4 85be
00000090: 8879 ddbe f4e7 c7be 17cf 89be 1579 af3e
000000a0: d6da b83e bef3 543e 6c16 753e 3ff8 0f3c
000000b0: ecb9 46be 8870 2b3e c681 b7be 604d 89be
000000c0: f292 0f3e ad42 1b3e 6719 bebd 4399 babd
000000d0: 6269 f9be e2ca d43d 9146 4b3e 7c89 f8be
000000e0: 2fc8 94be 5c0a 003e f522 a63d e492 9e3e
000000f0: 194e bc3d 5e08 b93e dc4d de3e 293e 00be
00000100: fbeb 2cbe 597b 94be ec87 80be 783b c73e
00000110: f165 8abe fefe aa3d 40c4 bb3e 846e acbe
00000120: 8592 f0be 05ce 81be b336 a33e e25a 03bf
00000130: 6e64 babe 1b19 8ebe 7f87 983e 6c1d ffbb
00000140: a69c 9ebe ad8b 693e 10fa a93b b150 bebe
00000150: 5330 85be 724c f23d 3317 bc3e 6885 5a3e
00000160: 8bdc 953e 7089 b33e c053 2d3e 3e3a fdbe
00000170: 82bd 3d3c f797 263d a5ba fabe c696 65bd
00000180: 563a ca3e bdf5 48bd 6d5b 16be d436 b8be

object_model.layers.2.weight f4 [3, 100]
-0.092178345 -0.5096733 -0.033659093 -0.27605364 0.013707574 -0.0029548872 -0.119974606 0.117962405
-0.14600095 -0.079802416 0.16819735 0.11205037 0.06807012 -0.14581046 0.044451777 -0.017880082
-0.23799242 -0.18444481 -0.07650969 0.013536569 0.45371968 0.026859885 -0.15524109 0.091675654
-0.0069320695 -0.23109396 0.10711345 1.2735039 0.08197653 0.030642767 0.021110415 -0.06263024
-0.14919916 0.048413105 -0.042311944 -0.03363638 -0.09725727 -0.08145064 0.0076643797 -0.1477626
-0.032489043 -0.046502687 -0.064630575 -0.0056789448 0.1954752 0.09640576 -0.09431817 -1.0356135
-0.12389268 0.026669327 -0.13592333 0.014243042 -0.019647494 -0.020117903 -0.95018107 -0.026696146
0.05161716 0.053505007 0.10425754 -0.16930664 0.2752216 -0.08807656 0.24625835 -0.10776289
0.008254002 0.2034498 0.0218188 -0.0729522 -0.061557475 0.1019914 0.048833493 -0.2392047
-0.008190132 0.07149526 0.006144978 0.22063209 0.038834937 -0.09498427 0.033107385 -0.052541476
-0.5530284 0.07489612 -0.0105560925 -0.02068383 0.04765123 0.04042472 -0.17336729 -0.1678736
0.21017303 -0.01639439 0.09582465 0.037490495 0.3814646 0.10002803 0.035752796 0.0388407
-0.43864062 -0.012926152 0.007966795 0.0835252 -0.06035266 -0.05383714 -0.05157534 0.21724404
-0.042258266 -0.050137624 0.097744554 -0.15172748 0.0026482614 -0.10348744 -0.122096635 -0.0153534915
-0.13234213 -0.14494684 0.023024572 -0.0403584 -0.08348236 -0.010060432 0.09618073 0.43709943
0.15735975 0.1156558 -0.09838946 -0.07934648 0.066989854 -0.1280552 0.2061613 1.6161919
-0.096579 -0.38631535 -0.049806666 0.32269502 0.014276679 -0.07355763 0.17698732 0.114230014
0.05811333 0.07151949 -0.2458569 -0.067628406 -0.117528245 0.07967694 -0.1336434 0.096842095
0.06947354 0.10158167 0.09707045 0.06390648 -0.08425915 0.053896055 0.09653542 -0.02775155
0.05212576 -0.104406804 -0.06960265 0.028604142 -0.03795593 0.10418268 -0.123893015 -0.05554913
-0.03358842 -0.12078958 0.019389456 -0.26014474 0.02922146 0.15255736 -0.076699205 -0.06779764
-0.008710985 0.096124575 0.029890647 0.6003898 0.1307306 0.11392603 0.02722125 -0.1063101
0.0026131868 -0.030376477 0.083065085 0.12310049 -0.1231241 0.13915637 -0.036896124 0.05236085
0.019597962 -0.05283026 -0.064190224 -0.1011067 0.095457025 0.025840484 0.043489587 0.076173015
0.13263246 0.11428888 0.15401153 0.10795915 -0.025999546 -0.16259411 -0.5936551 0.08499367
0.05249352 -0.46560448 -0.06140412 -1.5047961 0.12656721 -0.035827674 -0.11104109 -0.13118953
0.12868106 0.06402225 -0.07242965 -0.06725193 -0.20829383 0.049877632 -0.09568462 -0.041970145
-0.07886871 -0.09053176 -0.09331124 0.22633664 0.38594452 0.007897672 0.05799326 -0.20295095
-0.11364211 -0.2835382 0.04780936 -0.98558 -0.0282896 0.019675722 0.09878626 -0.11112203
-0.006548792 0.017051876 -0.015305641 0.11688849 -0.021501683 0.08419011 -0.022265902 -0.08501495
0.05921303 -0.09944097 0.06768711 0.08677061 0.09148384 0.17632027 -0.082773626 -0.4844524
-0.05931932 -0.018322725 0.16575706 0.030856576 -0.03330846 0.019887598 -0.73690385 -0.03528881
00000000: 00c8 bcbd f379 02bf 1ede 09bd e756 8dbe
00000010: bc95 603c c8a6 41bb 3fb5 f5bd 4696 f13d
00000020: 4681 15be 736f a3bd ed3b 2c3e aa7a e53d
00000030: 5968 8b3d 564f 15be 1113 363d 4079 92bc
00000040: 49b4 73be 1adf 3cbe 1db1 9cbd 7cc8 5d3c
00000050: f24d e83e 4309 dc3c 85f7 1ebe 72c0 bb3d
00000060: 6a26 e3bb e5a3 6cbe 4c5e db3d 2d02 a33f
00000070: 50e3 a73d 8a06 fb3c c0ef ac3c 4944 80bd
00000080: aac7 18be d24c 463d 4a4f 2dbd 4dc6 09bd
00000090: d22e c7bd 98cf a6bd 7a25 fb3b 144f 17be
000000a0: 3b13 05bd 9a79 3ebd 095d 84bd 7116 babb
000000b0: a72a 483e 6270 c53d e229 c1bd fc8e 84bf
000000c0: 72bb fdbd a279 da3c 7c2f 0bbe a65b 693c
000000d0: c8f3 a0bc 4dce a4bc 113f 73bf e0b1 dabc
000000e0: 846c 533d 1128 5b3d fa84 d53d b85e 2dbe
000000f0: d8e9 8c3e 7c61 b4bd 262b 7c3e cab2 dcbd
00000100: cb3b 073c 2555 503e 57bd b23c f767 95bd
00000110: b123 7cbd dee0 d03d a105 483d 14f2 74be
00000120: e72f 06bc 1b6c 923d d05b c93b 61ed 613e
00000130: 6211 1f3d 1d87 c2bd 9c9b 073d bb35 57bd
00000140: 4593 0dbf 2363 993d 76f3 2cbc 2371 a9bc
00000150: f02d 433d 6494 253d 3287 31be 0fe7 2bbe
00000160: 9937 573e 874d 86bc b73f c43d a28f 193d
00000170: 544f c33e 7fdb cc3d 8671 123d 6d17 1f3d
00000180: 8195 e0be 36c8 53bc 2987 023c 430f ab3d
00000190: 5a34 77bd 5584 5cbd aa40 53bd 3975 5e3e
000001a0: 0117 2dbd 1c5d 4dbd 4c2e c83d 735e 1bbe
000001b0: 748e 2d3b 39f1 d3bd cd0d fabd 368d 7bbc
000001c0: b284 07be f26c 14be 079e bc3c da4e 25bd
000001d0: cdf8 aabd 83d4 24bc 67fa c43d 7fcb df3e
000001e0: ea22 213e f3dc ec3d 6a80 c9bd 6880 a2bd
000001f0: fa31 893d e720 03be f31b 533e 60df ce3f
00000200: 36cb c5bd 20cb c5be 1302 4cbd 4838 a53e
00000210: bbe8 693c 62a5 96bd 2a3c 353e 6df1 e93d
00000220: 3e08 6e3d cf78 923d e9c1 7bbe c380 8abd
00000230: a6b2 f0bd aa2d a33d d1d9 08be 2655 c63d
00000240: 2548 8e3d 0d0a d03d dfcc c63d 67e1 823d
00000250: 1090 acbd 1cc2 5c3d 5db4 c53d 3857 e3bc
00000260: d281 553d 3cd3 d5bd d68b 8ebd 3c53 ea3c
00000270: ad77 1bbd bb5d d53d 9fbb fdbd 7c87 63bd
00000280: 0394 09bd 8760 f7bd a3d6 9e3c b131 85be
00000290: d861 ef3c ff37 1c3e 7914 9dbd 7dd9 8abd
000002a0: 85b8 0ebc f6dc c43d 3bdd f43c 25b3 193f
000002b0: 3ede 053e 0d52 e93d 19ff de3c 1cb9 d9bd
000002c0: 0042 2b3b 17d8 f8bc 071e aa3d 1c1c fc3d
000002d0: 7d28 fcbd 027f 0e3e 6420 17bd 5578 563d
000002e0: e88b a03c 8b64 58bd 2a76 83bd 0811 cfbd
000002f0: f97e c33d 6caf d33c 2322 323d 9900 9c3d
00000300: ced0 073e 4a10 ea3d 33b5 1d3e b019 dd3d
00000310: 00fd d4bc 127f 26be c8f9 17bf 2911 ae3d
00000320: 7203 573d b663 eebe e382 7bbd 299d c0bf
00000330: d69a 013e 0ac0 12bd 8369 e3bd 8c56 06be
00000340: f8c4 033e 191e 833d ff55 94bd 61bb 89bd
00000350: fa4a 55be 7d4c 4c3d 4cf6 c3bd e3e8 2bbd
00000360: eb85 a1bd b768 b9bd f719 bfbd cbc4 673e
00000370: 859a c53e 3d65 013c 578a 6d3d 60d2 4fbe
00000380: 32bd e8bd eb2b 91be bfd3 433d f94e 7cbf
00000390: 97bf e7bc fb2e a13c 7350 ca3d f293 e3bd
000003a0: 4097 d6bb 60b0 8b3c 83c4 7abc 3c63 ef3d
000003b0: 4c24 b0bc dd6b ac3d fb66 b6bc 511c aebd
000003c0: 5d89 723d b5a7 cbbd 8a9f 8a3d cab4 b13d
000003d0: e15b bb3d 4d8d 343e 3885 a9bd 250a f8be
000003e0: d1f8 72bd 8a19 96bc 38bc 293e eec6 fc3c
000003f0: 746e 08bd 51eb a23c bba5 3cbf 008b 10bd

object_model.layers.2.bias f4 [3]
-0.016510665 -0.081179485 -0.038836084
00000000: 6041 87bc 6e41 a6bd 9612 1fbd
